backend/ml/lstm_model.pt (torch, 211189 bytes, 9 tensors)

lstm.weight_ih_l0 f4 [256, 6]
0	0xbcb61110	-0.022224933
1	0xbdd2dd18	-0.102960765
2	0xbe04c87c	-0.12967104
3	0x3d3be5ec	0.045873567
4	0x3db6d1fb	0.08926769
5	0x3cfeb030	0.031089872
6	0xbc3fecf0	-0.011714205
7	0xbda5ef00	-0.08102226
8	0xbe036750	-0.1283238
9	0xbd9ca826	-0.07649259
10	0xbd9f0cce	-0.07766114
11	0xbd1484e8	-0.03625956
12	0xbd78e94c	-0.060769364
13	0x3c9db400	0.01925087
14	0xbcfb8b9c	-0.03070622
15	0xbdac6d7a	-0.084193185
16	0xbdc1843c	-0.0944905
17	0xbc42adf0	-0.01188229
18	0xbca10db8	-0.019659862
19	0xbc151170	-0.009098396
20	0xbcdd216d	-0.026993478
21	0xbd452904	-0.04813482
22	0xbdb5dee9	-0.08880407
23	0xbdcea076	-0.10089199
24	0xbdf43040	-0.119232655
25	0xbdc6f08a	-0.09713848
26	0xbd8197eb	-0.06327804
27	0xbdb5be70	-0.08874214
28	0x3cb90c38	0.022588834
29	0x3dd90608	0.105968535
30	0xbcbdac80	-0.023153543
31	0xbdb2d528	-0.087320626
32	0xbda98a5c	-0.08278343
33	0x3d4cea48	0.050028116
34	0xbca8bcec	-0.020597897
35	0xbc8ccea8	-0.017188385
36	0xbd160098	-0.03662166
37	0xbd7c7590	-0.061635554
38	0x3c5ff823	0.01367
39	0x3dd3b35c	0.103369445
40	0xbc1adb9d	-0.009451774
41	0x3d16ee8c	0.03684859
42	0x3d93dc64	0.072197706
43	0x3b20d5c0	0.0024541467
44	0xbc9b3f69	-0.018951135
45	0x3d029718	0.031882375
46	0x3d2c0224	0.04199423
47	0xbdff6366	-0.124701306
48	0x3d12d04c	0.03584318
49	0xbdf0f002	-0.11764528
50	0x3d8a57a3	0.06754997
51	0x3db53d86	0.08849625
52	0xbdec9123	-0.1155112
53	0xbd12f334	-0.035876468
54	0x3d755e94	0.05990465
55	0xbcace478	-0.021105036
56	0xbdfbd3af	-0.12296235
57	0xbbfc4760	-0.0076989383
58	0x3d421b7a	0.047389485
59	0xbdcd5d6e	-0.10027586
60	0x3de3ecd4	0.11129156
61	0xbd673784	-0.05644943
62	0xbae63bfd	-0.0017565485
63	0xbded1c8a	-0.11577709
64	0x3d7964d4	0.060887173
65	0xbd409d24	-0.04702486
66	0x3cbf3a80	0.023343325
67	0xbdb409be	-0.08790921
68	0xbd31668b	-0.043310683
69	0xbdf50f64	-0.11965826
70	0x3d80f92d	0.062975265
71	0xbd8fdd64	-0.07024649
72	0xbd3148c4	-0.043282285
73	0xbd0c9210	-0.034318984
74	0xbd9c369b	-0.07627603
75	0x3da19b2a	0.07890923
76	0x3ce833da	0.028345037
77	0x3df28ba0	0.118430376
78	0xbceff908	-0.029293552
79	0x3d00374c	0.031302735
80	0xbd9509ec	-0.07277283
81	0xbdf4ec68	-0.119591534
82	0xbbc2fe31	-0.005950712
83	0xbda6d2b0	-0.08145654
84	0x3d919a5a	0.07109518
85	0xbd34cab8	-0.04413864
86	0xbdd926bb	-0.106030904
87	0xbd9707be	-0.073745236
88	0x3e07136b	0.13191001
89	0x3c2a0830	0.010377929
90	0x3cd00170	0.02539131
91	0xbd0b7bf0	-0.034053743
92	0xbe056a1a	-0.13028756
93	0x3d859aea	0.06523688
94	0x3d036f73	0.032088708
95	0x3deb1c20	0.11479974
96	0x3dfa14b6	0.122109815
97	0x3cb55ec0	0.022139907
98	0xbd8a54e5	-0.067544736
99	0xbd341d3c	-0.043973193
100	0x3d951833	0.07280006
101	0xbd9f31fa	-0.07773204
102	0x3d92222a	0.071354225
103	0x3da403a6	0.080085084
104	0xbde59da8	-0.11211711
105	0xbdb379a2	-0.08763434
106	0xbc8c0a8a	-0.01709487
107	0xbd81a7d8	-0.06330842
108	0x3d24df10	0.04025179
109	0xbcff0058	-0.031128094
110	0x3d75e86e	0.060036115
111	0xbd3bdbc0	-0.045863867
112	0x3dd51b0c	0.104055494
113	0xbcbeda60	-0.023297489
114	0x3cde4b60	0.027135551
115	0x3df2e1ac	0.1185945
116	0x3b8fada8	0.004384715
117	0x3dcb7ed4	0.099363
118	0x3da096fe	0.078412995
119	0x3d8201ea	0.06348021
120	0xbde7f020	-0.11325097
121	0xbddde270	-0.10834205
122	0xbdbda788	-0.0926047
123	0xbd5827d8	-0.052772373
124	0x3e06ab75	0.13151343
125	0xbdef93e8	-0.11698133
126	0x3b427dc0	0.0029677004
127	0xbde24d14	-0.11049858
128	0x3dc48717	0.09596079
129	0x3ddd86a0	0.10816693
130	0x3dea00d9	0.11425943
131	0x3dd24b1c	0.10268232
132	0x3d4681c8	0.048463613
133	0xbdcac43a	-0.099007085
134	0xbc6491ae	-0.013950748
135	0xbd279f8c	-0.04092364
136	0xbddae4be	-0.1068816
137	0x3de2059c	0.11036226
138	0x3d7b6688	0.06137708
139	0xbcee4c68	-0.029089168
140	0x3d66f4ca	0.056385793
141	0x3ddca214	0.107731014
142	0x3dcbf139	0.09958119
143	0x3da2d1f8	0.079502046
144	0x3d9ede78	0.07757276
145	0x3d5198ec	0.05117123
146	0x3bee480e	0.007271773
147	0x3de80814	0.11329666
148	0xbd9a9037	-0.07547038
149	0xbd76f2f4	-0.060290292
150	0x3d1de1f4	0.038545564
151	0xbd850474	-0.0649499
152	0xbdc7c740	-0.09754801
153	0x3d6db0e8	0.05803004
154	0x3dc29a4a	0.095020846
155	0x3d1b2254	0.037874535
156	0x3daff72e	0.08592068
157	0xbcf69718	-0.030101344
158	0x3d6b5536	0.05745431
159	0xbb15ebc0	-0.0022876114
160	0xbd4034de	-0.046925418
161	0x3dbcc1ce	0.09216653
162	0x3cc35c30	0.02384767
163	0x3d113d3c	0.03545879
164	0xbd3aaf04	-0.045577064
165	0xbcfc69f0	-0.030812234
166	0xbcdaa681	-0.026690723
167	0x3dfb4e70	0.1227082
168	0xbdbe4e3e	-0.09292267
169	0xbd620954	-0.055184677
170	0x3d8d2b99	0.06893081
171	0x3d5ee170	0.054414213
172	0xbb00862c	-0.0019611223
173	0xbde00868	-0.10939103
174	0x3dc72cae	0.09725319
175	0x3d72e214	0.059297636
176	0xbd2cee52	-0.042219467
177	0x3d8e7bc0	0.06957197
178	0x3d5c240e	0.053745322
179	0x3dfa017e	0.12207316
180	0xbdf1d37e	-0.11807917
181	0xbc9a0ba0	-0.018804371
182	0x3dd2fb0a	0.10301788
183	0xbdf5ef0c	-0.12008485
184	0x3cd5ed41	0.026114108
185	0xbc42bfa0	-0.011886507
186	0x3d68e628	0.05686012
187	0x3dc3265c	0.09528801
188	0x3c7c78fe	0.015409706
189	0x3d87fa5e	0.066395506
190	0x3d575edd	0.052580703
191	0xbdec6d46	-0.1154428
192	0x3df66f84	0.12032989
193	0x3d2cf5e0	0.042226672
194	0x3d9330fe	0.07187079
195	0xbdd99102	-0.10623361
196	0xbccd526a	-0.025063712
197	0x3b992a80	0.004674256
198	0xbdc1fe5e	-0.09472345
199	0xbc0fe5b0	-0.008782789
200	0x3cc567f9	0.02409743
201	0xbded2186	-0.1157866
202	0x3d6d95cb	0.05800418
203	0xbd3e6554	-0.046483353
204	0x3d2b2140	0.041779757
205	0x3ded2ae8	0.11580449
206	0xbd3dfb5c	-0.046382293
207	0x3d96a0b6	0.07354872
208	0xbdeea675	-0.11652843
209	0x3d59fe0c	0.053220794
210	0x3d86f506	0.06589703
211	0xbd38f6d0	-0.045157254
212	0xbdcaf52f	-0.09910046
213	0x3df15176	0.117831156
214	0x3d344be8	0.044017702
215	0xbd9767e2	-0.07392861
216	0xbb5cb680	-0.0033678114
217	0x3d7b6068	0.061371237
218	0xbd315cdd	-0.043301452
219	0x3d201a5c	0.03908764
220	0x3dde14e0	0.10843825
221	0x3dbbf954	0.09178415
222	0x3dd589be	0.10426663
223	0xbdf4aa42	-0.119465366
224	0x3d676e16	0.05650147
225	0x3dbe2824	0.09285
226	0xbde732c3	-0.11288979
227	0xbde18b30	-0.11012876
228	0x3920c400	0.00015331805
229	0x3d75b5d8	0.059987873
230	0x3dee264c	0.11628398
231	0x3db28678	0.08717054
232	0x3dea16d8	0.11430138
233	0x3ce06010	0.027389556
234	0x3de7e3fe	0.11322783
235	0xbd13d490	-0.036091387
236	0xbdb6ad44	-0.089197665
237	0x3d8804ca	0.066415384
238	0xbd0d8060	-0.034546256
239	0xbd85891c	-0.06520292
240	0xbb2ab200	-0.0026046038
241	0x3c968b90	0.018377095
242	0xbd869182	-0.06570722
243	0xbd47cd3c	-0.04877971
244	0x3c201017	0.009769461
245	0x3c174700	0.009233236
246	0x3d896280	0.067082405
247	0x3ac43580	0.0014969558
248	0xbddece2c	-0.10879168
249	0xbdf2dc0e	-0.11858378
250	0x3d7fb04f	0.062424
251	0xbde29862	-0.11064221
252	0xbcda9468	-0.026682094
253	0x3dfb9370	0.12283981
254	0xbc6500a2	-0.013977202
255	0x3da9a234	0.08282891

lstm.weight_hh_l0 f4 [256, 64]
0	0x3d6bdd01	0.057583813
1	0xbc32a6ce	-0.010904027
2	0x3cc28210	0.02374366
3	0xbd522b51	-0.05131084
4	0x3d15b2ec	0.036547586
5	0xbdcc9f68	-0.09991342
6	0xbda19244	-0.07889226
7	0x3db77949	0.0895868
8	0x3c1220eb	0.008918981
9	0x3d10339d	0.035205472
10	0x3d930bdd	0.07179997
11	0x3daf2143	0.08551266
12	0xbc29ed82	-0.010371568
13	0xbd477b3e	-0.048701517
14	0x3da49a3c	0.0803723
15	0x3de754af	0.11295449
16	0xbd5dbeff	-0.054137226
17	0xbd3879ab	-0.045037907
18	0xbda70bb9	-0.08156533
19	0x3dcf9f2c	0.101377815
20	0xbd572b5e	-0.052531593
21	0xbdacb7af	-0.08433472
22	0x3dc5857c	0.09644601
23	0xbd3c8909	-0.046029124
24	0xbd49c496	-0.049259745
25	0x3d57f517	0.05272397
26	0xbd125baf	-0.035731968
27	0x3dc98a68	0.09840852
28	0x3d8e6446	0.069527194
29	0x3d0821cc	0.033235356
30	0xbd9a791a	-0.075426295
31	0x3b8114a7	0.0039392295
32	0xbd501a07	-0.05080607
33	0xbdd9e282	-0.10638906
34	0xbd5c3b92	-0.05376775
35	0xbd9707c3	-0.07374527
36	0xbdee73da	-0.11643191
37	0xbd93012a	-0.071779564
38	0x3ce1e251	0.027573736
39	0x3cbd6ec4	0.023124106
40	0xbd4f08a8	-0.050545365
41	0xbd25ae5c	-0.040449485
42	0xbdef4464	-0.11682966
43	0xbd44efeb	-0.048080366
44	0xbcd39ad1	-0.025830658
45	0x3da94c46	0.08266501
46	0xbdf63726	-0.120222375
47	0x3d69f7f5	0.057121236
48	0xbc87ca97	-0.016576095
49	0xbd20d6de	-0.039267413
50	0xbda9952a	-0.08280404
51	0xbdbab55d	-0.091166236
52	0xbda5348e	-0.08066665
53	0x3d564e5b	0.05232082
54	0xbdc1f9d8	-0.09471482
55	0xbdc6d9ed	-0.09709535
56	0xbdb5b644	-0.08872655
57	0x3d9a61d0	0.075381875
58	0xbdc36d0a	-0.09542282
59	0x3de1f680	0.11033344
60	0xbd9a0f67	-0.07522469
61	0x3d51a115	0.05117901
62	0x3d45100f	0.048111018
63	0xbd1742dd	-0.036929
64	0xbd844fee	-0.06460558
65	0x3d3833b0	0.044971168
66	0x3d8fc79f	0.070204966
67	0x3d53f7c1	0.05174995
68	0x3d310586	0.04321816
69	0xbd3f758e	-0.04674297
70	0x3d2f98cb	0.042870324
71	0xbd06106b	-0.0327305
72	0xbdd97acd	-0.106191255
73	0x3d8f149c	0.06986353
74	0x3d5e6e7f	0.054304596
75	0x3cfdf0b2	0.030998562
76	0xbdba31ea	-0.090915516
77	0xbdc9ada0	-0.098475695
78	0x3ccffafa	0.02538823
79	0xbd08c79a	-0.03339348
80	0x3c870ca1	0.016485514
81	0xbd7066fb	-0.05869196
82	0x3dbd5031	0.09243811
83	0xbbe4afcf	-0.006978966
84	0x3d6ed924	0.05831255
85	0xbda900b2	-0.08252086
86	0xbdf47741	-0.119368084
87	0x3d99f150	0.0751673
88	0xbdcaa845	-0.09895376
89	0x3d3051a7	0.04304662
90	0x3cbe6caf	0.023245184
91	0x3d442dd8	0.047895283
92	0xbc0b5588	-0.008504279
93	0x3cf9aca2	0.030477826
94	0xbc0760e4	-0.008262847
95	0xbd3c41c6	-0.045961164
96	0x3d45a7d1	0.048255745
97	0xbd2bcbd8	-0.041942447
98	0x3d73fc1c	0.059566602
99	0xbc9f39a2	-0.019436661
100	0xbdebf8e1	-0.11522079
101	0xbd37706b	-0.044784945
102	0x3dcec2c8	0.10095745
103	0xbdbcca90	-0.09218323
104	0x3df675c0	0.12034178
105	0xbdc5052e	-0.096201286
106	0x3c95bb45	0.018277774
107	0xbdcf495a	-0.101214126
108	0xbc1bda9a	-0.009512568
109	0xbcfcad6f	-0.030844418
110	0xbd8b5cc6	-0.068048045
111	0x3cf78a0c	0.030217193
112	0xbd44477b	-0.04791973
113	0xbbae4ae8	-0.005318988
114	0x3c4684af	0.012116595
115	0x3b867e36	0.004104401
116	0x3c70652f	0.014672562
117	0x3dd20e75	0.10256664
118	0xbd753e3e	-0.059873812
119	0x3d4605ff	0.048345562
120	0x3d3d49e3	0.046213042
121	0x3da8a22f	0.08234059
122	0x3d1cc336	0.038272105
123	0x3e0241e8	0.12720454
124	0x3da0268c	0.07819852
125	0x3ada976a	0.0016677205
126	0x3e047330	0.12934566
127	0x3d9c1173	0.07620516
128	0x3d88d046	0.0668035
129	0x3dcd5a46	0.10026984
130	0x3d2a2db8	0.041547507
131	0x3dbd4c70	0.09243095
132	0xbdaf6487	-0.08564096
133	0xbc2e170e	-0.010625614
134	0x3dd755ca	0.1051441
135	0xbcba1623	-0.022715634
136	0xbd9a820d	-0.075443365
137	0x3b169449	0.0022976568
138	0xbdf76afd	-0.12080953
139	0x3cd0b828	0.025478438
140	0x3d2af803	0.04174043
141	0xbd5bb523	-0.053639542
142	0xbdeaff53	-0.114744805
143	0x3d8e3eae	0.06945549
144	0x3d76cde6	0.060254954
145	0x3d52d1cc	0.05146961
146	0xbdd20aeb	-0.10255989
147	0x3d5a2303	0.053256046
148	0xbc126215	-0.008934517
149	0x3d6f6ceb	0.05845348
150	0x3c0cfaab	0.008604686
151	0xbdea2b72	-0.11434068
152	0xbcdc086d	-0.026859486
153	0x3da71489	0.08158214
154	0x3d1f8613	0.038946223
155	0x3c419f0e	0.011817707
156	0x3da7eea7	0.08199816
157	0xbd8be0c4	-0.0682998
158	0x3dbfce95	0.09365574
159	0xbd117203	-0.03550912
160	0xbdef2f52	-0.116789475
161	0x3d4d6125	0.050141472
162	0x3cd70868	0.026249126
163	0x3dc2fa54	0.095204026
164	0xbc9043c4	-0.017610438
165	0x3d92139b	0.07132646
166	0xbcc82d5e	-0.024435695
167	0xbd19e4cc	-0.037571713
168	0xbdba3263	-0.09091642
169	0x3e030d6e	0.12798092
170	0xbc27fc6e	-0.010253055
171	0xbb1d76f0	-0.002402719
172	0xbd72f106	-0.05931189
173	0xbda5e925	-0.081011094
174	0x3de727fb	0.112869225
175	0x3dbdf882	0.09275915
176	0xbd69bad5	-0.057062943
177	0x3d9a66d0	0.07539141
178	0xbd7c3c82	-0.061581142
179	0x3c783b3d	0.015150842
180	0xbd536951	-0.05161411
181	0x3de1b9bd	0.11021755
182	0x3dacc998	0.084368885
183	0x3daaefb2	0.083464995
184	0x3daa9c13	0.0833055
185	0xbd86bb0d	-0.06578646
186	0x3da0d6df	0.078534834
187	0xbda94c48	-0.082665026
188	0x3da4d847	0.08049064
189	0xbd9bfa0d	-0.07616053
190	0x3dbdd150	0.09268439
191	0xbbc3d968	-0.0059768446
192	0xbbb5876c	-0.005539825
193	0xbdd44c0c	-0.10366067
194	0xbd7610fa	-0.060074784
195	0x3dc21ffb	0.09478756
196	0x3c806033	0.015670871
197	0x3d48640e	0.048923545
198	0x3d1c39c5	0.03814103
199	0xbd91d9bd	-0.071216084
200	0x3da6b02e	0.08139072
201	0xbb60c8c6	-0.0034299358
202	0x3d509b51	0.05092937
203	0xbdc10fd7	-0.09426849
204	0x3cbb19d3	0.022839462
205	0x3d375f47	0.044768598
206	0x3d8c5e7a	0.068539575
207	0x3d455046	0.048172258
208	0xbd5bb1a8	-0.053636223
209	0xbc97b081	-0.01851678
210	0x3c251673	0.010076153
211	0x3cb90b09	0.02258827
212	0x3c0f01f1	0.00872849
213	0x3d5accd1	0.053417984
214	0x3d9a1ce8	0.07525045
215	0xbdef4b63	-0.11684301
216	0x3ddafb9e	0.106925234
217	0xbd84f638	-0.06492275
218	0xbd2ea84e	-0.042640977
219	0x3ded96c9	0.116010256
220	0xbe00067a	-0.1250247
221	0x3ddace78	0.10683912
222	0x3a09a69f	0.0005250964
223	0x3dd713c9	0.105018206
224	0xbdfe532c	-0.124182075
225	0x3da9160c	0.08256158
226	0x3dfe7c9d	0.12426112
227	0xbcbd1b2f	-0.023084251
228	0x3d522952	0.051308937
229	0x3dac2343	0.08405163
230	0xbdd32832	-0.10310401
231	0x3a57dca9	0.000823448
232	0xbb1e2a92	-0.002413426
233	0xbe011394	-0.12605125
234	0x3d7f06ce	0.06226235
235	0x3d7713ed	0.060321737
236	0xbd625931	-0.05526084
237	0xbde1abbc	-0.11019084
238	0x3df6ac94	0.120446354
239	0xbd4b3a60	-0.049616218
240	0xbde092a1	-0.10965467
241	0xbdbd5bca	-0.09246023
242	0xbdb62d9a	-0.088954166
243	0x3caf71ab	0.021416506
244	0x3d8149de	0.06312917
245	0xbc745e5e	-0.014915077
246	0xbbabc4e4	-0.005241977
247	0x3dd0cd5f	0.101954214
248	0x3d78effa	0.060775734
249	0x3b14c092	0.0022697789
250	0x3d84c604	0.06483081
251	0x3df4959a	0.11942597
252	0x3db8597c	0.09001443
253	0xbd0cc2f7	-0.03436562
254	0x3e027a85	0.1274205
255	0x3c05c083	0.008163574

lstm.bias_ih_l0 f4 [256]
0	0x3d4f8288	0.050661594
1	0x3db2e7c0	0.08735609
2	0x3cbf6192	0.023361955
3	0x3cbee4f4	0.023302533
4	0xbdd8ab35	-0.1057953
5	0xbc934248	-0.017975941
6	0xbdba41b8	-0.09094566
7	0xbb183e59	-0.0023230521
8	0xbdfd5c0c	-0.12371072
9	0xbd2a640b	-0.041599315
10	0x3d6bb6a6	0.057547234
11	0xbdba3fe0	-0.090942144
12	0xbd297c92	-0.041378565
13	0x3d00258d	0.03128581
14	0x3d7f57ef	0.06233972
15	0x3df86db0	0.12130296
16	0x3dfa1949	0.12211854
17	0x3de3d2a4	0.11124161
18	0x3cd7dda0	0.026350796
19	0xbd8929a4	-0.066973954
20	0x3b9e96e3	0.0048397644
21	0x3d02d36b	0.031939905
22	0x3d7fef83	0.062484276
23	0xbdcb5c5d	-0.09929726
24	0xbd2af192	-0.041734286
25	0xbd722d9a	-0.05912552
26	0x3def3180	0.11679363
27	0xbd3708df	-0.044686195
28	0x3e049c90	0.12950349
29	0xbd927f54	-0.07153192
30	0xbdd7d493	-0.10538592
31	0x3c122edd	0.008922306
32	0xbdaf47e5	-0.08558635
33	0x3d1a0de6	0.03761091
34	0x3d90a18c	0.070620626
35	0xbd389dcf	-0.045072373
36	0x3d461177	0.0483565
37	0xbd9da6fd	-0.07697866
38	0x3dfe8794	0.12428203
39	0x3d1f042b	0.038822334
40	0x3d8304c1	0.06397391
41	0xbdd66294	-0.10468021
42	0xbdd21a6d	-0.102589466
43	0xbe04943d	-0.12947173
44	0xbda80ed2	-0.08205952
45	0xbe031b53	-0.12803392
46	0x3df12fc7	0.11776691
47	0xbd9b6bf2	-0.07588948
48	0x3ddd4dff	0.10805892
49	0x3de51836	0.111862585
50	0xbc84216a	-0.016129214
51	0x3cd9b19a	0.026573945
52	0x3d2a064b	0.041509908
53	0x3d4d3817	0.05010232
54	0xbd8004a4	-0.06250885
55	0x3d0a8c22	0.033825047
56	0xbc819189	-0.015816467
57	0x3d1193ac	0.03554122
58	0x3b1949cd	0.0023389936
59	0xbe007983	-0.12546353
60	0x3df5a973	0.119952105
61	0x3c63b85e	0.013898937
62	0x3dfafdcc	0.12255439
63	0xbdc8229d	-0.09772227
64	0xbd29b617	-0.04143342
65	0x3dedacf8	0.11605257
66	0xbc95be32	-0.018279169
67	0xbd8d9956	-0.06914012
68	0x3d0032de	0.03129851
69	0xbd4cbf5a	-0.049987175
70	0xbdd9d543	-0.106363796
71	0x3da93f96	0.08264081
72	0xbdd58911	-0.10426534
73	0x3da90c50	0.082543015
74	0xbd7859a6	-0.06063237
75	0xbdf2e9e6	-0.11861019
76	0x3d60514e	0.05476504
77	0xbd62c93d	-0.055367697
78	0xbd287708	-0.041129142
79	0xbdc6a298	-0.09698981
80	0xbdb2b33e	-0.08725594
81	0xbd84e2d3	-0.06488576
82	0x3c7760ef	0.015098794
83	0xbdd6209b	-0.10455438
84	0x3dbbf4ce	0.09177552
85	0xbdb3bcf6	-0.08776276
86	0xbd1ba86f	-0.038002428
87	0x3d79f83c	0.06102775
88	0xbddef259	-0.10886068
89	0xbd6d2af8	-0.057902306
90	0x3d932146	0.07184081
91	0x3d119d5b	0.035550456
92	0x3da094bb	0.07840868
93	0xbc355177	-0.011066786
94	0xbd2794da	-0.04091344
95	0x3dcf4ffd	0.101226784
96	0x3d9316bf	0.07182073
97	0x3cbb2fc8	0.022849932
98	0xbae5a0f2	-0.0017519279
99	0x3de6b247	0.112644725
100	0x3d50b917	0.050957765
101	0x3df67002	0.120330825
102	0x3dc5d147	0.09659057
103	0xbd5efee5	-0.054442305
104	0xbdfdcb1b	-0.12392255
105	0xbd63bf71	-0.055602495
106	0xbdf05c64	-0.11736372
107	0xbd9d0e88	-0.07668787
108	0x3cb7d21f	0.02243906
109	0x3d29771a	0.04137335
110	0x3d81fe56	0.06347339
111	0xb9c7d416	-0.00038114254
112	0xbd90fbeb	-0.070792995
113	0x3d74ed14	0.059796408
114	0x3d9426de	0.07233976
115	0x3c96c70b	0.018405458
116	0x3c1a4b46	0.009417361
117	0xbda2a8fc	-0.079423875
118	0x3de01873	0.10942163
119	0x3d4a3f1b	0.04937659
120	0xbd096cd2	-0.033551045
121	0x3da9d0ba	0.082917646
122	0x3de55a8e	0.111989126
123	0xbd350ad8	-0.044199795
124	0xbb091ab2	-0.0020920453
125	0xbcfb9d6d	-0.030714715
126	0xbdc6a4a2	-0.0969937
127	0xbdbc9caf	-0.092095725
128	0x3cd45264	0.025918193
129	0x3d1d963f	0.038473364
130	0xbd300e17	-0.042982187
131	0xbd5c500b	-0.053787272
132	0x3d58aa26	0.05289664
133	0xbc90110a	-0.01758625
134	0xbc65f848	-0.014036246
135	0xbd47574c	-0.048667237
136	0xbdeb3db6	-0.1148638
137	0x3c46a848	0.012125082
138	0x3b3d2996	0.0028863898
139	0xbcf03450	-0.02932182
140	0x3d1a0498	0.037602037
141	0x3d6b1bbe	0.057399504
142	0x3dc87756	0.097883865
143	0xbdeda2be	-0.11603306
144	0x3dc4c40d	0.09607706
145	0xbdcf4992	-0.10121454
146	0x3d622eee	0.055220537
147	0xbd87994e	-0.066210374
148	0xbc416477	-0.011803738
149	0xbd112de9	-0.035444174
150	0xbc88c324	-0.016694613
151	0xbded0a3a	-0.11574216
152	0x38ce8349	9.847299e-05
153	0x3dcf67cf	0.10127222
154	0x3deb6109	0.11493117
155	0x3df08eb1	0.11745966
156	0xbd36c51b	-0.04462157
157	0x3deea61b	0.11652776
158	0xbdb5f131	-0.08883894
159	0xbb2f6eb2	-0.002676886
160	0x3e0261d8	0.12732637
161	0xbd3d8f23	-0.046279084
162	0xbd84a7b6	-0.06477301
163	0x3d19c1e5	0.037538428
164	0x3c15848b	0.009125839
165	0xbd069fce	-0.032867245
166	0x3d6349ee	0.055490427
167	0xbcfc4336	-0.030793767
168	0x3dd0424d	0.10168896
169	0x3d925c98	0.07146567
170	0x3c4edbec	0.012625676
171	0x3df14689	0.11781032
172	0x3cd7fdbb	0.026366105
173	0xbdc6986e	-0.096970424
174	0xbd5d7d39	-0.0540745
175	0x3d57308f	0.052536543
176	0x3db37e5b	0.08764335
177	0xbc5e75bb	-0.013577874
178	0x3c6f083e	0.014589367
179	0x3d84dba6	0.06487207
180	0x3de8e8fa	0.11372562
181	0xbdee5bbe	-0.11638592
182	0x3cc274c0	0.023737311
183	0x3d47cf02	0.048781402
184	0xbda94522	-0.08265139
185	0x3df23803	0.1182709
186	0x3db037f8	0.08604425
187	0xbd53aac1	-0.051676515
188	0xbdc2b1bc	-0.095065564
189	0xbdf84108	-0.12121779
190	0xbdae55c1	-0.0851245
191	0xbabc34df	-0.0014359019
192	0xbdd3049a	-0.10303612
193	0xbddd94e3	-0.108194135
194	0x3ddb276f	0.10700881
195	0xbc96a147	-0.01838745
196	0x3bc8320e	0.0061094826
197	0x3ca6fa21	0.020382943
198	0x3d84dc24	0.06487301
199	0x3da6a1b5	0.08136312
200	0xbdf70c31	-0.12062872
201	0x3d87fd3b	0.06640097
202	0xbd933a68	-0.071888745
203	0x3d4bad33	0.049725723
204	0x3d816c87	0.06319528
205	0x3dea33af	0.11435639
206	0xbd8b5be5	-0.06804637
207	0xbdd52bfb	-0.10408779
208	0xbd879078	-0.06619352
209	0x3d172428	0.036899716
210	0x3c64d6de	0.013967244
211	0xbdb11ab6	-0.08647673
212	0xbd799164	-0.06092967
213	0xbda93aec	-0.082631916
214	0x3dff8de6	0.12478237
215	0x3df95359	0.121741004
216	0xbd3a58ff	-0.04549503
217	0xbbf3ec46	-0.0074439375
218	0x3c9c557e	0.019083735
219	0xb9a2eb2c	-0.00031074265
220	0x3d1fe6d1	0.039038483
221	0x3cc6a234	0.024247266
222	0xbd8c86e1	-0.068616636
223	0x3d821e76	0.06353466
224	0xbb86f12c	-0.0041181054
225	0x3d8f258c	0.069895834
226	0x3dd7d218	0.10538119
227	0x3c71dee0	0.01476261
228	0xbd49ff81	-0.049315933
229	0xbc842d2f	-0.016134826
230	0x3da1383c	0.07872054
231	0x3cd22e14	0.025656737
232	0xb8f97b38	-0.000118961965
233	0x3dbc1623	0.0918391
234	0xbdae2c94	-0.08504596
235	0xbd18420b	-0.03717236
236	0xbde34293	-0.110966824
237	0x3dd8699c	0.105670184
238	0x3df50ebf	0.11965703
239	0x3be3c57e	0.006951033
240	0x3d6a20a4	0.057160035
241	0x3d33b21d	0.043871034
242	0xbd5f51a5	-0.05452122
243	0x3cac7f8a	0.02105691
244	0x3df6420b	0.120243154
245	0x3c802dd1	0.015646847
246	0x3e0641b1	0.13110997
247	0x3d4af0c3	0.049546015
248	0x3a7e8720	0.0009709466
249	0x3e044dff	0.12920378
250	0xbd41ca6e	-0.047312193
251	0xbd3564e0	-0.044285655
252	0x3cdb02a0	0.02673465
253	0x3d9bebf2	0.07613362
254	0x3dace913	0.08442893
255	0x3d668ac0	0.056284666

lstm.bias_hh_l0 f4 [256]
0	0x3d3a3f60	0.045470595
1	0x3c112c15	0.008860608
2	0x3d1d3557	0.038380947
3	0xba58cb7c	-0.00082700676
4	0xbcf48e06	-0.029852878
5	0xbd8ea82d	-0.06965671
6	0xbd2cd484	-0.04219486
7	0xbde356cb	-0.11100539
8	0x3dec1902	0.11528207
9	0x3d6ace1d	0.05732547
10	0xbb96a682	-0.004597486
11	0xbde6c1ee	-0.11267458
12	0x3dae43fc	0.08509061
13	0xbd2acb6b	-0.0416979
14	0xbd7aa80e	-0.061195426
15	0xbc7ce252	-0.015434818
16	0xbd8d3c19	-0.06896228
17	0x3bb6845a	0.0055699768
18	0x3da3b38b	0.079932295
19	0xbcf24dc0	-0.02957809
20	0x3dfc02f0	0.12305248
21	0x3d9a651e	0.07538818
22	0xbc656735	-0.014001657
23	0x3ba72eac	0.0051019993
24	0xbdc59bc8	-0.096488535
25	0xbd0c499a	-0.03424988
26	0xbd7bf182	-0.061509617
27	0xbd3668a3	-0.044533383
28	0x3d26731d	0.040637124
29	0xbd1cfc77	-0.038326707
30	0x3d896b33	0.067099
31	0xbdc5e83c	-0.09663436
32	0xbdea9a77	-0.11455243
33	0x3ccb3d64	0.024809547
34	0xbd6f3dcb	-0.05840854
35	0x3c0a3996	0.008436581
36	0xbc9c59dd	-0.019085819
37	0xbc57effa	-0.013179773
38	0x3df6a53a	0.12043233
39	0xbd81ba96	-0.063344166
40	0xbd05cd25	-0.032666344
41	0x3d951948	0.07280213
42	0x3cf70af1	0.030156584
43	0x3daa5473	0.08316889
44	0x3c8f43a3	0.017488306
45	0xbdf40ffa	-0.1191711
46	0xbddaafd9	-0.106780715
47	0x3d99e9e8	0.07515317
48	0x3dcdd22f	0.10049855
49	0xbde7b00a	-0.11312874
50	0x3def9d9e	0.11699985
51	0xbdcf7cbf	-0.10131215
52	0xbd36bfa9	-0.044616375
53	0x3da32952	0.079668656
54	0xbcdc9e46	-0.02693094
55	0x3d8e23e4	0.06940439
56	0xbc607f25	-0.013702189
57	0xbd429f45	-0.047515173
58	0x3c45e462	0.0120783765
59	0xbda7420e	-0.08166896
60	0xbd1cfd90	-0.038327754
61	0x3cb56fd0	0.022148043
62	0xbcf57104	-0.029961117
63	0xbd61650d	-0.05502801
64	0xbdb11923	-0.086473726
65	0xbcb5f560	-0.02221173
66	0x3c13e2fb	0.009026284
67	0xbc7231e5	-0.014782404
68	0xbde3e4f6	-0.11127655
69	0xbc38c636	-0.011277726
70	0xbdfca9af	-0.12337052
71	0xbc8d457f	-0.017245052
72	0xbe03720c	-0.12836474
73	0x3da50228	0.08057052
74	0x3d82d8ca	0.063890055
75	0x3c943bdc	0.01809495
76	0xbd0e15d2	-0.03468878
77	0x3dfe55d8	0.12418717
78	0xbde2e8e3	-0.11079576
79	0x3d32766f	0.04356998
80	0xbdba06ea	-0.0908335
81	0x3dc3dbf7	0.09563439
82	0xbd166c45	-0.036724348
83	0xbd8c6f34	-0.06857148
84	0x3de712c8	0.11282879
85	0xbcd90330	-0.026490778
86	0x3d90f5ca	0.070781305
87	0x3d8e729c	0.06955454
88	0x3a230dfe	0.00062200415
89	0xbda3c54f	-0.07996618
90	0xbd2fed87	-0.042951133
91	0xbd2ab949	-0.041680608
92	0xbd6251ef	-0.05525392
93	0x3d999253	0.07498612
94	0xbd1be776	-0.038062535
95	0x3dea08a3	0.114274286
96	0xbd4ad63c	-0.049520716
97	0xbdf0e126	-0.11761694
98	0x3da9081a	0.082534984
99	0xbdad06a7	-0.084485345
100	0xbdac6c72	-0.08419122
101	0xbd87409c	-0.0660412
102	0x3c5e7a5e	0.013578979
103	0x3ded883e	0.11598252
104	0xbdfc10cb	-0.123078905
105	0x3dabc808	0.08387762
106	0x3dde7bd6	0.108634636
107	0x3dd05f00	0.1017437
108	0x3d162799	0.036658857
109	0x3e04738e	0.12934706
110	0xbdb500da	-0.08838053
111	0xbdc1e61a	-0.094677165
112	0xbdf1b567	-0.11802178
113	0x3df2c063	0.11853101
114	0x3d3a1e33	0.045438956
115	0x3daddc2c	0.0848926
116	0xbce53355	-0.027978579
117	0x3dbbd35e	0.091711745
118	0xbd72c5ea	-0.059270777
119	0x3dadc66e	0.08485113
120	0xbdcc2caf	-0.0996946
121	0x3d4a79fb	0.049432736
122	0xbdc1ca3a	-0.094624
123	0xbca93e12	-0.02065948
124	0xbcca7468	-0.02471371
125	0xbdc18f4d	-0.094511606
126	0xbd784848	-0.060615808
127	0x3c327e61	0.010894389
128	0x3dd607c6	0.104507014
129	0x3dfa1149	0.12210328
130	0xbd613913	-0.05498607
131	0xbddfa8cf	-0.109208696
132	0xbcb4c7f3	-0.022068
133	0x3cf1ee75	0.02953265
134	0x3d381fb6	0.044952117
135	0xbc9c17b3	-0.01905427
136	0xbd7af5c2	-0.06126953
137	0xbd6c5f43	-0.057708036
138	0xbd014211	-0.031557146
139	0xbb678dc3	-0.00353323
140	0xbd37c94c	-0.044869706
141	0xbd824b99	-0.06362075
142	0x3c468e81	0.0121189365
143	0xbde42d56	-0.1114146
144	0xbd2384b9	-0.039921496
145	0xbd96773a	-0.073469594
146	0x3dd773ed	0.10520158
147	0x3d959358	0.07303494
148	0xbd9c82ea	-0.076421574
149	0x3de35f5e	0.11102174
150	0x3d65898e	0.056039385
151	0xbdae8828	-0.085220635
152	0xbda1e2ef	-0.07904612
153	0xbbc8f274	-0.0061324183
154	0xbdf1ec4f	-0.118126504
155	0x3d7ba446	0.06143596
156	0x3de99862	0.11406018
157	0xbd14acd5	-0.036297638
158	0x3c7831c6	0.015148586
159	0x3dc50c4d	0.09621487
160	0x3c1f95f9	0.009740346
161	0x3d355209	0.044267688
162	0xbdc07768	-0.09397775
163	0xbddbb4ff	-0.10727882
164	0xbda1b620	-0.07896066
165	0x3cd738f5	0.026272276
166	0xbcb1e334	-0.021714784
167	0x3ded561a	0.11588688
168	0xbdbc6c6b	-0.092003666
169	0x3dee1bee	0.11626421
170	0x3db78071	0.08960045
171	0x3d8feb63	0.07027318
172	0x3ddabd24	0.10680607
173	0x3db90a6a	0.090351894
174	0x3dba3b84	0.09093383
175	0x3dc5932b	0.09647211
176	0xbd5cf5d6	-0.053945385
177	0xbde0ff31	-0.10986174
178	0x3dc770e7	0.09738331
179	0x3dfb6f50	0.122770905
180	0xbdac828c	-0.08423337
181	0x3d3421ba	0.043977477
182	0x3de9478a	0.11390598
183	0xbdc93d8b	-0.098261915
184	0x3c9283c2	0.017885093
185	0xbdd47a79	-0.10374922
186	0xbcd74585	-0.026278267
187	0xbcc3f752	-0.023921642
188	0xbdabc074	-0.08386317
189	0x3ced810e	0.028992202
190	0xbdea4745	-0.11439375
191	0xbd8f2734	-0.06989899
192	0xbdb1315e	-0.08651994
193	0x3bf5afad	0.007497749
194	0x3d375a0b	0.044763606
195	0xbdcc93c1	-0.09989119
196	0xbddb7161	-0.10714985
197	0x3de00011	0.10937513
198	0x3cb5aca8	0.022177055
199	0x3db078a3	0.0861676
200	0xbdecadf5	-0.11556617
201	0x3b8b7660	0.0042560548
202	0xbdd5e638	-0.10444301
203	0xbc41bb97	-0.01182451
204	0x3e03a368	0.12855303
205	0xbdae8349	-0.085211344
206	0x3e010d58	0.12602746
207	0xbdd0c44b	-0.1019369
208	0x3da45552	0.08024086
209	0x3cd348b0	0.025791496
210	0xbd6efbe0	-0.058345675
211	0xbd1ae955	-0.03782018
212	0x3da605e0	0.08106589
213	0xbd7780dc	-0.060425624
214	0xbcb17cfe	-0.021666046
215	0x3df99245	0.12186102
216	0x3e05a2aa	0.13050333
217	0xbd8f5a24	-0.06999615
218	0x3ded0f70	0.1157521
219	0xbdb4ca1d	-0.088276125
220	0x3e052264	0.130014
221	0xbca264ec	-0.019823514
222	0xbd992b65	-0.0747898
223	0x3de700c8	0.11279446
224	0xbdde1d14	-0.1084539
225	0xbcd7cec4	-0.02634371
226	0xbda40566	-0.08008842
227	0xbdb3fcfc	-0.08788487
228	0x3de75c3d	0.1129689
229	0x3aca7d02	0.0015448632
230	0x3de4611c	0.11151335
231	0xbd962b01	-0.07332421
232	0x3e0750de	0.13214442
233	0xbd988995	-0.07448117
234	0xbd13098a	-0.03589777
235	0xbd4b560f	-0.04964262
236	0xbceb17aa	-0.028697807
237	0x3de7f7ee	0.11326586
238	0xbd7fe917	-0.06247815
239	0x3df374fe	0.11887549
240	0x3da75521	0.08170534
241	0x3dd79d5c	0.10528061
242	0xbd2f4915	-0.042794306
243	0x3ded6d95	0.11593167
244	0x3df12c61	0.11776043
245	0x3e07198c	0.13193339
246	0x3df8db78	0.12151235
247	0xbd2cab55	-0.042155582
248	0x3d1b9f12	0.0379935
249	0xbddb0f1c	-0.10696241
250	0x3dc7fef3	0.097654246
251	0x3d9850d7	0.07437294
252	0x3dbafe6b	0.091305576
253	0x3caab35e	0.020837482
254	0x3dc52611	0.09626401
255	0x3db16c7a	0.086632684

lstm.weight_ih_l1 f4 [256, 64]
0	0xbdde8f47	-0.10867172
1	0x3c1d8098	0.009613179
2	0x3d7a285f	0.061073657
3	0x3dba6837	0.09101909
4	0xbd8e9969	-0.069628544
5	0x3ddfc65e	0.109265074
6	0xbcc0b37a	-0.023523081
7	0xbd814521	-0.063120134
8	0x3c9a47fb	0.018833151
9	0x3c8329ed	0.016011203
10	0x3ddf4118	0.109010875
11	0x3cf76387	0.030198826
12	0x3da51a05	0.080616035
13	0xbc91f8b4	-0.017818786
14	0xbd1c756d	-0.038197923
15	0xbd2a4cc3	-0.041577112
16	0x3e0273b4	0.1273945
17	0x3deaec5c	0.11470863
18	0x3d9db8a7	0.07701235
19	0xbd985e2f	-0.07439839
20	0xbccc3972	-0.024929736
21	0x3d915081	0.07095433
22	0x3d450b5f	0.048106547
23	0x3d00370e	0.031302504
24	0xbd9ddfbf	-0.07708692
25	0xbd098bd4	-0.033580616
26	0xbdb2620b	-0.087101065
27	0xbd4f6895	-0.050636847
28	0xbd4d1772	-0.050071187
29	0x3df7f1e5	0.121066846
30	0xbdf66da3	-0.1203263
31	0xbcc9b111	-0.024620565
32	0x3d60d1b3	0.054887485
33	0x3d6b8f58	0.05750975
34	0xbc32334d	-0.010876489
35	0xbddabfb9	-0.106810994
36	0xbd191c29	-0.03738037
37	0xbd9799df	-0.074023955
38	0x3e03156b	0.12801139
39	0x3dc2c629	0.09510452
40	0x3d7e94c1	0.06215358
41	0xbd75ed30	-0.060040653
42	0x3df8cd8d	0.12148581
43	0x3d67449c	0.056461915
44	0xbdd6d8a6	-0.10490541
45	0xbd9b82c4	-0.07593301
46	0xbca31674	-0.019908167
47	0xbde39a17	-0.11113375
48	0x3dd4cdd2	0.103908196
49	0xbd99b337	-0.07504886
50	0xbd30de30	-0.043180645
51	0xbd8c1872	-0.068406
52	0xbcfd24bd	-0.030901307
53	0xbdd2a539	-0.1028542
54	0x3df5f61a	0.12009831
55	0xbdf5ad15	-0.119959034
56	0x3d8c9673	0.068646334
57	0xbd8cb75e	-0.06870912
58	0x3dc12831	0.09431494
59	0xbd02d591	-0.031941954
60	0x3dc90b80	0.098166466
61	0x3cdd41b5	0.02700887
62	0x3d0d159d	0.03444444
63	0x3da23e44	0.079220325
64	0xbdc0b954	-0.094103485
65	0x3b37346b	0.0027954828
66	0xbd8d1f5b	-0.06890746
67	0xbd10efed	-0.03538506
68	0xbd9066a1	-0.07050825
69	0xbe00739d	-0.12544103
70	0xbc02279f	-0.007944017
71	0x3da8211e	0.082094416
72	0x3d2bff8b	0.04199175
73	0xbd8abda0	-0.06774449
74	0x3d0179dc	0.031610355
75	0x3d270c71	0.04078335
76	0xbbbca770	-0.005757265
77	0xbda87f16	-0.08227365
78	0x3d0ff151	0.035142247
79	0xbcc6ba74	-0.02425883
80	0x3e058b17	0.1304134
81	0x3d56d8e3	0.052452933
82	0x3e04b7d8	0.12960756
83	0xbdd58234	-0.10425225
84	0x3c45a7f1	0.012063966
85	0xbd2cc91a	-0.042183973
86	0xbd5bcd64	-0.053662673
87	0x3daa1524	0.083048135
88	0x3dc00805	0.093765296
89	0xbdb233c3	-0.08701279
90	0x3d91a57f	0.07111644
91	0x3db517ca	0.08842428
92	0x3cfc6fad	0.03081497
93	0xbd49639e	-0.049167268
94	0xbbc639fa	-0.006049392
95	0x3d8a0926	0.06740026
96	0xbd403fa7	-0.046935704
97	0x3c146e8c	0.00905956
98	0xbd1db952	-0.038506813
99	0xbd075dca	-0.03304843
100	0x3d7de053	0.06198151
101	0xbd909d9e	-0.07061313
102	0x3d6853c3	0.056720506
103	0x3bae7572	0.005324059
104	0x3cc9bc1f	0.024625836
105	0xbc14e71a	-0.009088302
106	0xbccba267	-0.024857713
107	0x3d4a41ce	0.049379162
108	0xbd64891f	-0.05579483
109	0xbd68bd6c	-0.05682127
110	0xbdbf4990	-0.09340203
111	0x3d452d06	0.04813864
112	0x3d9f3866	0.07774429
113	0xbdcb1001	-0.09915162
114	0xbd89f8d2	-0.06736912
115	0x3c596719	0.013269209
116	0xbd9d503b	-0.07681318
117	0x3d9e697c	0.07734963
118	0xbdcc8b55	-0.09987513
119	0xbd70c43a	-0.058780886
120	0x3de0f98e	0.10985099
121	0x3d8e668f	0.06953155
122	0xbcf7c226	-0.030243944
123	0x3e03c497	0.12867962
124	0x3de5cfd5	0.112212814
125	0x3d67cbb1	0.05659074
126	0x38f3eaae	0.000116308554
127	0x3d08228c	0.03323607
128	0x3d83005e	0.063965544
129	0xbd9cdf08	-0.07659727
130	0x3c957951	0.018246325
131	0xbde68a4c	-0.11256847
132	0xbdb9ef36	-0.09078829
133	0x3c1ad334	0.009449769
134	0xbdc8ae88	-0.09798914
135	0xbdd4e7e4	-0.10395792
136	0xbd868dea	-0.06570037
137	0x3db40785	0.08790497
138	0xbd8c0cd9	-0.06838388
139	0xbd4a74d3	-0.04942782
140	0x3d069c4e	0.032863908
141	0xbd8be4d3	-0.06830754
142	0xbdaeb1a0	-0.08529973
143	0xbdba0f44	-0.09084943
144	0xbd563b26	-0.052302502
145	0xbdfbd25e	-0.12295984
146	0xbd45d67f	-0.048300263
147	0xbdd2a5aa	-0.10285504
148	0x3d6b3b05	0.057429332
149	0x3e065c46	0.13121137
150	0xbde7022c	-0.11279711
151	0xbc4e5cdc	-0.012595382
152	0x3daf7ae3	0.08568361
153	0x3d22529d	0.039629567
154	0xbdbb2d6e	-0.091395244
155	0xbdd0bcec	-0.10192284
156	0x3d3cad03	0.046063434
157	0x3ca7531e	0.020425376
158	0xbc117596	-0.008878132
159	0xbdf1fa8c	-0.11815366
160	0xbd70f4b4	-0.058827117
161	0xbc9c2f79	-0.019065605
162	0xbde050c9	-0.109529085
163	0x3d0b9ece	0.034086995
164	0xbd4cdb76	-0.05001398
165	0x3cbf5492	0.023355756
166	0xbcc81570	-0.024424285
167	0xbbd42791	-0.0064744432
168	0x3d597e1a	0.053098775
169	0xbdcf2f60	-0.10116458
170	0x3e044ea0	0.12920618
171	0xbde2848d	-0.11060438
172	0x3d97e34f	0.074164025
173	0x3da88be6	0.082298085
174	0x3d68a3b9	0.056796763
175	0x3dcf4b61	0.10121799
176	0xbcd1056f	-0.025515286
177	0x3c827ee0	0.01592964
178	0x3db09b49	0.08623368
179	0x3cb1e06f	0.021713464
180	0x3dcdf760	0.10056949
181	0x3d67fe3e	0.05663895
182	0x3c636f02	0.013881447
183	0xbdd12df5	-0.10213844
184	0x3dc26e69	0.09493715
185	0xbca21e20	-0.019789755
186	0x3dcddb2c	0.10051569
187	0xbd12957e	-0.035787098
188	0xbdb754f7	-0.08951753
189	0xbd2367b0	-0.039893806
190	0x3da5d34b	0.080969416
191	0xbd37ac21	-0.04484189
192	0x3deabcb1	0.11461771
193	0xbda92c13	-0.082603596
194	0x3d9d659d	0.07685397
195	0xbca404c7	-0.02002181
196	0x3d23023c	0.039797053
197	0x3d15b50c	0.036549613
198	0x3dec7735	0.115461744
199	0xbc8c4870	-0.017124385
200	0x3dd29dcc	0.102840036
201	0x3dad6448	0.08466393
202	0xbd644ccb	-0.055737298
203	0x3d6bc65b	0.057562213
204	0x3de2186f	0.110398166
205	0xbdc6813d	-0.09692619
206	0xbdba4724	-0.090956
207	0x3a1f0c68	0.00060672173
208	0xbd8e4a13	-0.06947722
209	0xbba342ad	-0.0049823136
210	0xbd0aa55b	-0.0338491
211	0xbd71899a	-0.058969118
212	0xbdf3b3b2	-0.118995085
213	0x3d7126e4	0.05887498
214	0x3d56c20e	0.05243116
215	0x3c0b09e9	0.0084862495
216	0x3c9f467d	0.019442791
217	0x3dc3abdc	0.09554264
218	0x3d0d8391	0.0345493
219	0x3dcf5fc5	0.101256885
220	0x3d6647e6	0.05622091
221	0xbc0cb9eb	-0.008589248
222	0x3d8c89be	0.0686221
223	0xbdd46854	-0.103714615
224	0x3d6b2032	0.05740375
225	0xbdb7b883	-0.0897074
226	0xbd8c2c59	-0.06844396
227	0x3da56816	0.080764934
228	0xbdd9eed2	-0.106412545
229	0x3de45104	0.11148265
230	0xbdc01dd9	-0.09380693
231	0x3dded4e4	0.108804494
232	0xbdd796a2	-0.10526778
233	0x3dcc5cfc	0.09978673
234	0xbdedb01d	-0.116058566
235	0x3d0faecf	0.03507882
236	0x3dff6b55	0.12471644
237	0x3c3a78ea	0.011381367
238	0x3dc82854	0.09773317
239	0x3d9b0e8a	0.075711325
240	0xbd2928bf	-0.041298624
241	0xbc0c2e72	-0.008555995
242	0xbd90ef8b	-0.07076939
243	0x3c9dcf29	0.01926382
244	0xbc4481cf	-0.011993839
245	0xbddae010	-0.10687268
246	0x3dc5696a	0.09639247
247	0x3cf2c1fe	0.029633518
248	0xbc54dd4c	-0.012992214
249	0x3dd3ab09	0.10335357
250	0x3d280ff8	0.041030854
251	0x3da6273a	0.081129506
252	0xbd4af792	-0.049552508
253	0xba3dd28e	-0.0007241153
254	0x3dc20f2c	0.0947555
255	0xbcc29dce	-0.023756888

lstm.weight_hh_l1 f4 [256, 64]
0	0xbd5564fd	-0.052098263
1	0xbd93d079	-0.072174974
2	0xbdd05f73	-0.101744555
3	0x3dbfc622	0.09363963
4	0x3b989897	0.004656862
5	0xbd7ed924	-0.0622188
6	0x3d66108c	0.056168124
7	0xbced89b0	-0.028996319
8	0xbd6f1856	-0.058372818
9	0x3d3b1381	0.045672897
10	0x3d68f589	0.056874786
11	0xbd5b7694	-0.05357988
12	0xbd998af1	-0.07497204
13	0x3c898347	0.01678623
14	0xbcd631bc	-0.026146762
15	0xbdea79e3	-0.11449029
16	0x3d3c9895	0.04604395
17	0xbd8d844c	-0.06909999
18	0x3e04386e	0.12912151
19	0xbdedbf1e	-0.11608718
20	0x3c92ae0e	0.017905261
21	0x3d15c3d2	0.036563702
22	0x3d7da064	0.06192054
23	0x3dc53ce7	0.09630757
24	0xbd2a34f9	-0.041554425
25	0xbdf3eca7	-0.11910372
26	0x3db61129	0.08889992
27	0xbd1e68e5	-0.038674254
28	0xbd4e304d	-0.050339032
29	0xbda01bf8	-0.078178346
30	0xbdd3c27e	-0.10339831
31	0xbde93972	-0.1138791
32	0xbd731ac7	-0.05935171
33	0xbdb2674d	-0.08711109
34	0xbdbb91fe	-0.09158705
35	0xbda480a8	-0.08032352
36	0xbdd816d5	-0.1055123
37	0x3ba28720	0.004959956
38	0xbca69bd0	-0.020337969
39	0x3c6110d8	0.013736926
40	0x3d9deb82	0.07710935
41	0xbd34a291	-0.044100348
42	0x3d05aba1	0.03263438
43	0xbd85fae7	-0.065419964
44	0xbde4ada4	-0.11165932
45	0xbd2d7cc7	-0.042355325
46	0x3ddcb141	0.10775996
47	0xbd7ee4d9	-0.062229965
48	0xbd119a7c	-0.03554772
49	0xbcda726d	-0.02666589
50	0xbdc807c3	-0.097671054
51	0xbdbcf7fe	-0.09226988
52	0xbc919c23	-0.017774647
53	0x3caaea93	0.020863807
54	0x3d4f7cf7	0.050656285
55	0x3dff017b	0.12451454
56	0xbd14988c	-0.036278293
57	0xbc8dce54	-0.017310299
58	0x3d7e90bb	0.062149744
59	0xbc4b8253	-0.012421208
60	0xbdd815e0	-0.10551047
61	0x3d87b6d3	0.06626668
62	0xbd8bbe52	-0.0682341
63	0xbd836aa7	-0.06416827
64	0xbde37b60	-0.11107516
65	0x3cad8b58	0.021184608
66	0x3cc78d8d	0.024359489
67	0x3d5a49eb	0.05329315
68	0x3d9171d0	0.07101786
69	0xbc95f50c	-0.018305324
70	0xbdb96999	-0.09053344
71	0x3d3af795	0.04564627
72	0x3cd97768	0.026546195
73	0xbd1a71f2	-0.037706323
74	0x3d927ba9	0.071524926
75	0x3df6b16f	0.120455615
76	0xbd92e58d	-0.071726896
77	0xbdef0271	-0.116703875
78	0x3de82be4	0.113364965
79	0x3dd073af	0.10178315
80	0xbdbe8c6c	-0.09304127
81	0x3d2a6dcb	0.041608613
82	0x3d48e116	0.049042784
83	0x3db71e9e	0.08941387
84	0xbc4064da	-0.011742795
85	0xbd6b6ef3	-0.057478856
86	0xbd290d17	-0.04127225
87	0x3dfcb18d	0.123385526
88	0x3c11f01b	0.008907343
89	0x3d1eabff	0.038738247
90	0x3c9943fc	0.018709175
91	0x3bee286e	0.007268003
92	0xbd52669f	-0.0513674
93	0xbd0f5445	-0.034992475
94	0x3dbacb47	0.09120803
95	0xbc274e97	-0.010211608
96	0xbda9ec67	-0.08297043
97	0xbc2c2925	-0.0105078565
98	0x3dfcff15	0.123533405
99	0xbde5635f	-0.11200594
100	0x3cacd5a5	0.021097967
101	0x3d59a1ac	0.053132698
102	0x3aa16fe8	0.0012316676
103	0x3caee7f8	0.021350846
104	0x3dc16d47	0.09444671
105	0x3d18bab8	0.037287444
106	0xbd7f5991	-0.062341277
107	0xbd97d961	-0.074145086
108	0xbdb2bf86	-0.087279364
109	0xbd211570	-0.039327085
110	0x3dcd7b2e	0.1003326
111	0x3d3acf1c	0.04560767
112	0xbd5682ec	-0.05237095
113	0xbd0a1cd4	-0.0337189
114	0x3c6424d6	0.013924798
115	0x3dfe08cb	0.12404021
116	0xbce41c68	-0.027845576
117	0x3d550434	0.05200596
118	0x3d17339b	0.03691445
119	0xbd84df63	-0.0648792
120	0xbdbbb7a2	-0.091658846
121	0x3dd749e8	0.105121434
122	0x3d74cb58	0.059764236
123	0x3d3a2898	0.04544887
124	0x3c76cd14	0.015063543
125	0x3d83e3d8	0.06439942
126	0xbb4accee	-0.0030944902
127	0x3dd6c49b	0.10486718
128	0x3de62bc9	0.1123882
129	0x3da03587	0.078227095
130	0x3de02412	0.1094438
131	0x3dd65782	0.104659095
132	0xbdd47208	-0.10373312
133	0x3d06072b	0.03272168
134	0xbd4dce10	-0.050245345
135	0x3d90bd8b	0.070674025
136	0x3d79bad8	0.060969204
137	0x3cb11a4c	0.021618985
138	0x3d7b4331	0.061343376
139	0x3c61ea73	0.013788807
140	0x3c9e9aac	0.019360863
141	0x3c654e5e	0.013995735
142	0xbc87d3e9	-0.016580539
143	0xbd751807	-0.059837367
144	0x3c9f0bc2	0.019414786
145	0xbd2796f0	-0.04091543
146	0x3c1b8f56	0.009494623
147	0xbde6a1f6	-0.1126136
148	0xbdc93037	-0.098236494
149	0xbd1843ed	-0.037174154
150	0x3dde9005	0.10867313
151	0x3dc7884d	0.09742794
152	0xbd0a871a	-0.03382025
153	0xbd6911a1	-0.056901578
154	0xbdc22576	-0.09479801
155	0x3dfbfd9b	0.12304231
156	0xbcb54dff	-0.022131918
157	0xbd0318f5	-0.032006223
158	0xbdba46b0	-0.09095514
159	0xbd5fef98	-0.054671854
160	0x3d93b7df	0.07212805
161	0x3d572071	0.052521173
162	0x3d5b40e2	0.053528674
163	0xbd8c4c19	-0.06850452
164	0x3e03c30d	0.12867375
165	0xbdbaede1	-0.09127403
166	0xbd96963a	-0.07352872
167	0x3c72da02	0.014822485
168	0xbddb787b	-0.10716339
169	0xbd95542b	-0.072914444
170	0xbdc59ccc	-0.09649047
171	0x3d0722b6	0.032992087
172	0xbd70b22e	-0.058763675
173	0xbd9cf707	-0.07664304
174	0x3de139ae	0.1099733
175	0xbdc0b2fe	-0.0940914
176	0x3dd330eb	0.10312065
177	0x3ca469c5	0.020069966
178	0x3df1ff2a	0.11816247
179	0xbccf3675	-0.025294522
180	0x3d570f66	0.05250492
181	0xbe015acb	-0.12632291
182	0xbdc2ed2c	-0.09517893
183	0x3d548b67	0.051890757
184	0x3bb5cea8	0.005548317
185	0xbd373678	-0.04472968
186	0xbc358768	-0.011079647
187	0x3bfd57d9	0.0077314195
188	0x3d4ff3e5	0.050769705
189	0x3c8e711d	0.017387921
190	0x3d95823d	0.073002316
191	0xbdb2e39c	-0.08734819
192	0x3da425a6	0.08014993
193	0xbd45ad1d	-0.048260797
194	0x3d964201	0.07336808
195	0x3e0372b0	0.12836719
196	0x3d030573	0.03198762
197	0x3de20ae6	0.11037235
198	0x3dc9cc5e	0.09853433
199	0x3da4ca96	0.08046453
200	0xbd42d7da	-0.047569133
201	0xbde8d369	-0.11368448
202	0xbd457361	-0.048205737
203	0xbe032c74	-0.12809926
204	0x3d182df5	0.037153203
205	0xbc3d1b88	-0.0115422085
206	0xbd462db9	-0.04838345
207	0xbdcd742f	-0.10031926
208	0xbdd882db	-0.10571834
209	0x3ca46801	0.020069124
210	0x3ca38da6	0.019965004
211	0x3d809b08	0.0627957
212	0x3da88db0	0.0823015
213	0x3db8cdff	0.09023666
214	0x3c699c16	0.014258405
215	0xbd4312f3	-0.047625493
216	0x3db14d9f	0.08657383
217	0x3d9830d1	0.07431186
218	0xbd52dd92	-0.051480837
219	0x3df3d4bb	0.119058095
220	0x3d801452	0.06253876
221	0x3d89c4c5	0.06726984
222	0xbd678b48	-0.056529313
223	0x3cfda290	0.030961305
224	0xbc84e5bf	-0.016222833
225	0x3bd2a4fe	0.00642836
226	0x3dd16768	0.10224801
227	0xbab87a7f	-0.0014074593
228	0x3e019233	0.12653427
229	0x3d2a6e37	0.041609015
230	0xbc879de3	-0.016554778
231	0xbd685b3e	-0.05672764
232	0x3d589657	0.05287775
233	0x3bcb9555	0.00621287
234	0xbdd39489	-0.10331065
235	0x3cd3c024	0.025848456
236	0xbd9f18f5	-0.07768432
237	0xbd91c253	-0.071171425
238	0xbbf3e7d4	-0.0074434076
239	0x3d48dad0	0.0490368
240	0x3c8854b9	0.016641961
241	0xbd7d9d1e	-0.061917417
242	0x3b891708	0.0041836537
243	0x3ddba206	0.10724263
244	0x3cf3b849	0.02975096
245	0x3df4e93b	0.11958548
246	0x3aabbf6b	0.0013103312
247	0x3cd33ab3	0.025784826
248	0x3da08448	0.07837731
249	0x3b10d577	0.0022099891
250	0x3d15da5f	0.036585208
251	0x3db596a0	0.0886662
252	0x3d679a4f	0.056543645
253	0x3d0b8af8	0.034068078
254	0xbcb7a8c6	-0.022419345
255	0xbdf8eb93	-0.12154307

lstm.bias_ih_l1 f4 [256]
0	0x3dd71056	0.10501163
1	0xbdda42e4	-0.106572896
2	0x3db1eb10	0.08687413
3	0x3c7ad4e4	0.015309546
4	0xbda1f397	-0.07907789
5	0xbb4439ee	-0.0029941755
6	0xbd19a9b7	-0.03751537
7	0xbd0d2d38	-0.034466952
8	0xbc8656c2	-0.016398791
9	0xbcc07ed8	-0.023497984
10	0xbd33089a	-0.043709375
11	0x3db7daca	0.089772776
12	0xbddab55a	-0.10679121
13	0xbcf110a1	-0.029426875
14	0xbd366b6d	-0.044536043
15	0xbda04999	-0.07826538
16	0xbae364d6	-0.0017348777
17	0x3e027bd4	0.12742549
18	0x3c957a23	0.018246716
19	0x3d31cfa4	0.043410912
20	0x3dd519b2	0.104052916
21	0xbbb46447	-0.005505118
22	0x3dab16fd	0.08353994
23	0x3dbe8680	0.093029976
24	0xbccfd390	-0.025369436
25	0xbd1bfc15	-0.0380822
26	0xbdb984ad	-0.09058509
27	0x3ce9fe6b	0.028563699
28	0xbcd26f02	-0.025687698
29	0x3d31998e	0.04335933
30	0x3e054cb8	0.13017547
31	0x3da6cded	0.08144746
32	0xbda3191a	-0.07963772
33	0xbd9706e9	-0.07374365
34	0x3c8f449f	0.017488776
35	0x3c810e58	0.01575391
36	0x3d2422a6	0.040072106
37	0xbdf5005c	-0.11962959
38	0x3caf11ba	0.021370757
39	0xbd51aeb0	-0.051191986
40	0xbcf2b7a4	-0.029628582
41	0x3c8c828b	0.017152091
42	0xbd988f5a	-0.07449217
43	0xbd840782	-0.064467445
44	0x3c1d3cc8	0.009597011
45	0x3db30de2	0.08742882
46	0xbdd648bd	-0.104630925
47	0xbdd9bc53	-0.10631623
48	0x3d631a84	0.05544521
49	0xbdbdeb75	-0.092734255
50	0x3cde8c02	0.02716637
51	0xbd390634	-0.04517193
52	0xbd04c15e	-0.03241097
53	0x3cc3ba33	0.023892498
54	0x3d8d5f33	0.069029234
55	0xbd99383e	-0.074814305
56	0x3d9691ab	0.07352003
57	0xbdda2130	-0.10650861
58	0x3d9d663b	0.076855145
59	0xbe016d97	-0.12639461
60	0x3b5929c2	0.0033136462
61	0x3da9e9bf	0.08296537
62	0xbd3f45de	-0.04669749
63	0xbdc9e28f	-0.09857666
64	0x3da21936	0.07914965
65	0xbdbe42ac	-0.092900604
66	0x3dbff01c	0.09371969
67	0x3d91e88b	0.07124432
68	0x3dd97e39	0.10619778
69	0x3db40997	0.087908916
70	0x3dd04939	0.10170216
71	0xbd2ffa0f	-0.042963084
72	0x3daa222a	0.083072975
73	0x3ad24462	0.0016042108
74	0x3d2ea780	0.04264021
75	0x3c306bdc	0.010767903
76	0x3d64fa5a	0.055902816
77	0x3d58c284	0.05291988
78	0xbd951e58	-0.07281178
79	0x3da783f1	0.08179463
80	0x3d0a8ab3	0.03382368
81	0x3deda0e0	0.1160295
82	0x3e02a698	0.12758863
83	0xbc72774d	-0.014798951
84	0x3a7e970e	0.000971184
85	0xbcfc222d	-0.030778015
86	0xbd670d93	-0.05640943
87	0xbd74f51f	-0.05980408
88	0xbb228645	-0.002479927
89	0x3d382ec2	0.044966467
90	0xbc440dec	-0.01196621
91	0xbddc06bb	-0.10743471
92	0xbd07ab31	-0.033122245
93	0xbde88589	-0.11353595
94	0x3dcf65b4	0.1012682
95	0xbd87ff99	-0.06640548
96	0xbe02db0d	-0.12778874
97	0x3d98650c	0.07441148
98	0x3d6ba622	0.057531483
99	0xbdbe13c3	-0.09281113
100	0xb9ba38d3	-0.00035519022
101	0xbd6826f9	-0.056677792
102	0x3db973ab	0.09055265
103	0x3dd6f177	0.104952745
104	0x3cb8a847	0.022541178
105	0x3c8edaf0	0.017438382
106	0xbd7ba5a1	-0.061437253
107	0x3d855ce9	0.06511862
108	0xbd834e0b	-0.0641137
109	0x3dbc2618	0.09186953
110	0xbd9e07dd	-0.077163436
111	0xbdcb46ee	-0.09925638
112	0xbda79e40	-0.08184481
113	0xbdc84ec4	-0.09780648
114	0xbdcbb8d5	-0.09947363
115	0x3cf055be	0.02933776
116	0xbd73f8ec	-0.059563562
117	0xbd9d55e8	-0.07682401
118	0x3d6a16dd	0.05715071
119	0x3d78fb0c	0.060786292
120	0x3d84b99a	0.06480713
121	0xbde56d64	-0.11202505
122	0xbddef551	-0.10886634
123	0x3db91dff	0.090389244
124	0x3d5e50d6	0.05427631
125	0xbc13509c	-0.008991387
126	0xbcb849fb	-0.022496214
127	0xbd330189	-0.043702636
128	0xbcdaa865	-0.026691625
129	0xbd72f759	-0.05931792
130	0xbc8b12b2	-0.016976688
131	0x3ce00617	0.027346654
132	0xbd8db5c8	-0.06919438
133	0xbcc7b9ca	-0.024380583
134	0x3d8050ea	0.06265433
135	0xbd83ad79	-0.06429572
136	0x3d022963	0.03177775
137	0xbd21b03e	-0.03947472
138	0x3c8fbe72	0.017546866
139	0xbd119277	-0.03554007
140	0xbca8b1dc	-0.020592622
141	0x3dda0733	0.106459044
142	0x3ce86ba7	0.028371645
143	0x3deb6b43	0.11495068
144	0xbd6b2aa1	-0.0574137
145	0x3dcff479	0.10154051
146	0x3d187d9b	0.03722916
147	0xbc9c828e	-0.019105222
148	0xbc704f6d	-0.014667374
149	0xbc3ea965	-0.0116370665
150	0x3cd5d8df	0.026104389
151	0xbda6264c	-0.08112773
152	0xbba02e72	-0.004888349
153	0x3cc00f80	0.023444891
154	0x3d7cc60a	0.061712302
155	0x3b792fbf	0.0038022844
156	0x3e046dfb	0.12932579
157	0x3d203616	0.03911408
158	0x3c06c57f	0.008225798
159	0xbdc94e6e	-0.098294124
160	0x3dcf02af	0.10107934
161	0xbb879976	-0.004138167
162	0xbdbb30b5	-0.091401495
163	0xbd3d1740	-0.04616475
164	0xbd236c5d	-0.039898265
165	0xbd707735	-0.058707435
166	0x3e03d45b	0.12873976
167	0x3d17a6b7	0.037024226
168	0xbcebd948	-0.028790131
169	0x3d2c46ad	0.04205959
170	0x3d476097	0.0486761
171	0xbcc88968	-0.024479583
172	0xbd4ee22d	-0.050508667
173	0x3c630384	0.013855819
174	0xbcfbfe74	-0.030760981
175	0xbcf9243f	-0.030412791
176	0x3db4ef66	0.08834724
177	0x3db6edbe	0.089320645
178	0x3d436fca	0.047714032
179	0x3d03a52c	0.032139942
180	0xbcb86bc9	-0.022512333
181	0xbdc811cc	-0.097690195
182	0xbd31e0d3	-0.0434273
183	0x3cd0fd4f	0.025511412
184	0xbdd8c02a	-0.105835274
185	0x3ba211fb	0.004945991
186	0x3d2ca289	0.042147193
187	0x3deedcab	0.11663183
188	0x3dc4c6cc	0.0960823
189	0xbd20ba88	-0.03924039
190	0xbda44695	-0.08021275
191	0xbd80fbaf	-0.06298005
192	0xbde7c6ad	-0.11317191
193	0x3dde7a3b	0.10863157
194	0x3d99c1b3	0.07507648
195	0xbd1da2c9	-0.038485322
196	0xbcf90e2f	-0.030402271
197	0xbd95ae5c	-0.07308647
198	0xbdbe2c27	-0.09285765
199	0x3d9aa197	0.07550352
200	0xb9a0f77b	-0.00030701965
201	0xbcb499b3	-0.022045946
202	0x3c573ee4	0.013137553
203	0x3d4119fe	0.04714393
204	0x3d37cd95	0.044873793
205	0x3d6bb629	0.05754677
206	0xbd91d0d8	-0.07119912
207	0x3ddc3eb4	0.10754147
208	0xbca550d8	-0.02018015
209	0x3dc3ff17	0.09570139
210	0xbd2ed192	-0.04268033
211	0x3de2b5f5	0.11069862
212	0x3d822abe	0.06355809
213	0x3ddde7a6	0.10835199
214	0xbde59d3a	-0.11211629
215	0xbdd9742b	-0.106178604
216	0xbdcf6d0a	-0.101282194
217	0xbc8b9911	-0.017040761
218	0x3debeb7c	0.115195245
219	0xbdb5888b	-0.08863934
220	0x3dd9df88	0.10638338
221	0x3c30d7d5	0.010793646
222	0x3d8e30e9	0.069429226
223	0xbd3a8a6e	-0.045542173
224	0x3c88f2bf	0.016717313
225	0xbcdbc6e8	-0.026828244
226	0x3dc231a4	0.094821244
227	0xbb819f66	-0.0039557694
228	0xbb9db175	-0.0048124143
229	0xbda7ed22	-0.08199526
230	0x3c258ec2	0.010104837
231	0x3b7f3af3	0.0038945049
232	0xbd8754df	-0.06607985
233	0xbdc54366	-0.09631996
234	0x3b176ecb	0.002310681
235	0x3d728149	0.059205327
236	0xbdd59e04	-0.1043053
237	0xbc53dbcf	-0.012930824
238	0x3d9e22ea	0.07721503
239	0x3d466013	0.048431467
240	0x3d3c1482	0.045917995
241	0xbbfdbca1	-0.0077434336
242	0xbd6160c3	-0.05502392
243	0x3d8997ae	0.06718384
244	0xbd200a6b	-0.039072435
245	0x3d931aff	0.071828835
246	0xbd1599eb	-0.03652374
247	0x3d8db491	0.06919206
248	0xbcb4d7dd	-0.022075588
249	0x3cc8b347	0.024499549
250	0xb9d059ed	-0.00039739851
251	0xbdcb1ac6	-0.09917216
252	0x3d7e1118	0.06202802
253	0xbdd63e86	-0.10461144
254	0xbd878db3	-0.06618824
255	0x3d0b93bf	0.03407645
