backend/lstm_model.pt (torch, 211189 bytes, 9 tensors)

lstm.weight_ih_l0 f4 [256, 6]
000000 e8 ca ea 3c 00 db 5b 3d b4 e5 fc bd 92 1e 88 3d
       0.028661206 0.05367565 -0.123485 0.06646456
000010 83 30 22 3d 94 cd db bd a4 3a 71 3d c0 69 18 3d
       0.039597046 -0.1073257 0.058893815 0.037210226
000020 e3 51 fa bc 10 08 2b bd ff 5f 53 3c d0 a6 7b bc
       -0.030556625 -0.041755736 0.012901305 -0.015359595
000030 3a eb ce bd ce 68 e6 3d 74 0b c1 3d c0 dc b7 bc
       -0.1010346 0.11250459 0.09426013 -0.022444129
000040 98 6e 5b bd 20 21 d3 bc 1a 45 80 bd e0 f2 9a bc
       -0.053572267 -0.025772631 -0.0626318 -0.01891464
000050 31 46 41 3d 60 4e 30 3c 4b 1e b9 bd 22 b1 dd bd
       0.04718608 0.010760874 -0.09038981 -0.10824801
000060 b0 8a cc 3c 40 fa 2e 3c e9 39 fd bc 88 92 82 bd
       0.024968475 0.010679781 -0.030911403 -0.06375605
000070 00 5c c5 3d 64 d6 66 bd 60 8d f6 3b 28 3d 5e bd
       0.09636688 -0.056356803 0.0075241774 -0.054257542
000080 e9 02 bf 3c 4a 0d fb 3d e7 f7 b4 bc a0 f2 46 bd
       0.023316817 0.12258394 -0.022090865 -0.04857123
000090 8a 13 d5 bd 9a 74 a1 3d c7 4e f0 bd fa f0 b6 bd
       -0.104041174 0.07883568 -0.117337756 -0.089326814
0000a0 cf 78 ab 3d 64 8e 02 3d a0 e5 4a bd 20 f7 fb bb
       0.08372652 0.031874076 -0.049535394 -0.0076893717
0000b0 c6 0e c0 3d c0 ba 30 bb 57 a5 00 3e 04 e6 09 bd
       0.09377818 -0.002696678 0.12563072 -0.033666626
0000c0 6c dd 7a bd 74 db 78 3d 7f 46 95 bd 14 ea 60 3d
       -0.06124632 0.06075616 -0.07288837 0.054910734
0000d0 91 a2 dd bb ee 29 ea 3d 00 3d 0f 3a 00 a9 a7 3a
       -0.006763764 0.11433779 0.0005464107 0.0012791455
0000e0 d6 d2 a0 bd 00 b7 0e bd c5 76 01 3e 80 1d 9b ba
       -0.07852714 -0.03484249 0.12642963 -0.0011834353
0000f0 5a a6 b9 bd 60 04 00 bc 42 66 36 bd ec 63 db 3d
       -0.09064932 -0.007813543 -0.044531114 0.10712418
000100 69 bb 1d bc 20 e7 9a bc ec 1b 8f bd f4 3c 7d bd
       -0.009627202 -0.018909037 -0.069877476 -0.061825708
000110 b7 32 2e 3c 7c 1c 96 bd f5 20 a9 bc 88 e0 8c 3c
       0.010632209 -0.07329652 -0.020645598 0.017196909
000120 98 6b e2 3d 1e aa bb bd d3 07 98 3c 40 8a ae bc
       0.11055678 -0.09163307 0.018558418 -0.021306157
000130 51 c6 df 3d a8 93 be bc 88 d6 8c bd f0 68 14 bc
       0.10926498 -0.023263767 -0.06876856 -0.009058222
000140 60 03 de 3d b0 4d a4 bd bd 1d 72 3c ce e8 d7 3d
       0.108404875 -0.0802263 0.014777598 0.10542451
000150 9c f0 7a 3d c0 99 1f 3c c4 11 b2 bd 9a 7f 89 3d
       0.06126462 0.009741247 -0.08694795 0.06713791
000160 44 c7 c7 3c 62 0e e9 bd f0 a7 7e bc 00 f6 72 bd
       0.02438701 -0.113796964 -0.015542969 -0.059316635
000170 f1 6b fb bb f8 3a bd 3d 5e fb d7 bc 52 2b 94 3d
       -0.0076727797 0.09239763 -0.026364978 0.07234825
000180 80 d7 82 bd 40 a9 98 bb 1d 15 98 3c d8 2c 4c bd
       -0.063887596 -0.004658848 0.018564755 -0.049847454
000190 b7 82 8b 3d f2 16 c0 3d d4 ef 7b 3d d0 8b d3 bc
       0.06812041 0.093793765 0.061508015 -0.025823504
0001a0 65 47 d6 3c 6a 16 b4 3d 8c 8e ac bd 50 44 e5 3d
       0.02615709 0.08793338 -0.08425626 0.1119467
0001b0 e0 1d c3 bd 30 11 fc 3c 17 71 28 38 20 8f 88 3b
       -0.095271826 0.030769914 4.0159644e-05 0.0041674525
0001c0 51 41 60 3c 92 76 ad bd d0 c0 1c 3d 94 02 2f 3d
       0.013687448 -0.08469881 0.038269818 0.042727068
0001d0 00 bb 9a bc ca 8f 8c bd 0e 5d 2d ba 8c 3c 60 3d
       -0.018887997 -0.06863363 -0.00066132925 0.054745242
0001e0 40 53 ce bd f2 99 d5 bd d7 f9 86 3b a6 ee 81 3d
       -0.100744724 -0.10429753 0.0041191387 0.06344347
0001f0 c8 ff d0 3d 00 f0 8d 3b 60 32 94 bc 20 8c 98 3c
       0.102050364 0.0043315887 -0.018090427 0.018621504
000200 30 dd d3 3d 4c fb fd bd 6d d6 55 3d 48 86 c0 3c
       0.103449225 -0.12401447 0.052206445 0.02350153
000210 bc d2 56 bd 0c 78 60 3d 41 82 5e 3c c8 81 ef 3c
       -0.052447066 0.054801986 0.01358086 0.02923669
000220 b0 e9 02 bd 68 0b c0 bd 70 e6 e4 3c 00 66 24 3d
       -0.031961143 -0.093771756 0.027941912 0.040136337
000230 ff 5f dc bd b0 7c 89 bc 8c 00 64 3c 6a f1 b9 3d
       -0.10760497 -0.016783088 0.013916146 0.09079249
000240 68 ff 8d 3c c0 11 ee 3d 8f 21 a2 3d 2c 90 71 3d
       0.017333701 0.11624479 0.07916557 0.058975384
000250 95 b0 bb 3d 90 c0 e9 3c 98 e3 7e bd 9e a5 81 3d
       0.0916454 0.028534204 -0.06222877 0.06330417
000260 95 53 74 bd fc da 10 bd 11 14 89 3d ac 8c 94 3d
       -0.059650023 -0.03536509 0.066932805 0.072533935
000270 c0 94 94 3b 0c 97 e2 bd 6b 46 bd 3d 3c ce b4 bd
       0.004534334 -0.11063966 0.09241947 -0.088283986
000280 71 f6 30 bd b2 01 dd 3d 0e 98 82 bd 20 80 16 3c
       -0.043203775 0.10791339 -0.063766584 0.009185821
000290 c9 da 8e bd da 1c 98 bd 78 69 d2 3c 78 21 d8 3d
       -0.06975324 -0.07427378 0.025685057 0.10553259
0002a0 c4 b5 2e bd 70 9d d4 bc f0 22 05 bc a4 ee 81 3d
       -0.042653814 -0.025953978 -0.0081260055 0.06344345
0002b0 47 ac 65 bd 64 87 6c 3d 58 25 14 bd 9c a0 5e 3d
       -0.0560725 0.057746306 -0.036168426 0.054352388
0002c0 25 51 b4 bd b8 40 99 3d 95 46 dc 3d 1c 75 26 bd
       -0.088045396 0.07483047 0.1075565 -0.040639028
0002d0 94 ba 2f bd 4e 83 fd bd 61 70 a0 3c f6 6e 9b 3d
       -0.042902544 -0.1237856 0.019584836 0.075895235
0002e0 68 82 0d 3d 88 93 96 3d 08 4c e4 3c f4 39 11 bd
       0.034548193 0.07352358 0.027868286 -0.03545566
0002f0 31 11 84 3c 0c dd 57 bd 72 b6 62 3d 30 18 c4 bd
       0.016121479 -0.05270104 0.055349775 -0.09574926
000300 20 71 f4 3d 02 76 ed 3d 51 86 f1 bd 00 8e bf bc
       0.119356394 0.11594774 -0.11793197 -0.02338314
000310 53 ce d5 3c c0 bb 9e bd 40 8d 4c 3d 60 e6 c1 3d
       0.02609936 -0.07750654 0.049939394 0.09467769
000320 5d 3d 8b bd 50 5f 81 bd 97 34 cc bc 00 1a 8b bc
       -0.067988135 -0.063170075 -0.02492742 -0.016980171
000330 c6 c8 f1 3d 00 2b 80 3a 3e 48 ba 3d fc f8 a3 bd
       0.118058726 0.000977844 0.0909581 -0.080064744
000340 60 76 d4 3d 62 15 d7 3d be de 81 bd 32 6c fd bd
       0.10374141 0.10502125 -0.06341313 -0.12374152
000350 7b c4 9c 3b 2c 21 38 bd 12 f8 be ba 40 be cf 3b
       0.0047841645 -0.04495351 -0.001456978 0.0063398182
000360 90 64 26 bd 5c ee ec 3d 5c b3 b7 bc 5c 8c bb 3d
       -0.040623248 0.11568901 -0.022424392 0.09157631
000370 99 14 18 bc dc e4 1e 3d b2 95 cc bd 70 58 9a 3c
       -0.009282255 0.038792476 -0.099894896 0.018840998
000380 14 1e ac 3d bc 2b f6 bd 0e c9 40 bd e0 13 93 bd
       0.084041744 -0.120200604 -0.04706674 -0.07181525
000390 8c bb 60 bd 04 f3 1b bd 2f 02 a2 3d 4e de d9 3d
       -0.05486636 -0.038073555 0.07910573 0.106381044
0003a0 bb 00 52 bd fa dc c6 3d 3e 8c 8f 3d c0 7a 40 3d
       -0.051270228 0.09710117 0.07009171 0.046992064
0003b0 bb 86 d3 3d c8 45 84 3c 35 76 8d 3d 1c b0 67 bd
       0.10328432 0.016146556 0.06907312 -0.056564435
0003c0 bc 0d 9c bd 40 fe 27 bb 08 eb 00 be 40 75 8d bb
       -0.07619807 -0.0025633723 -0.12589657 -0.004316956
0003d0 b4 b3 87 3d e0 b9 36 bc a8 23 ac 3c 24 ff a5 3d
       0.066260725 -0.0111527145 0.021013096 0.08105305
0003e0 de 9c e3 bd 28 00 6a 3d 82 d8 cb bd 70 ea 31 3c
       -0.111139044 0.057129055 -0.09953405 0.010859117
0003f0 fa 97 fb 3d c0 61 52 bd 63 44 59 3c d0 67 88 3c
       0.122848466 -0.051362753 0.013260934 0.016651064

lstm.weight_hh_l0 f4 [256, 64]
000000 d9 60 8d 3d 25 d1 89 3d ab ae c1 bd e9 81 b0 bd
       0.06903238 0.06729344 -0.094571434 -0.086185284
000010 a0 1b a6 bd df 76 e0 bd 5a 36 03 3d 58 43 a4 bd
       -0.08110738 -0.10960173 0.032034256 -0.08020657
000020 13 c2 0b bc cc 3b 82 bd 67 c4 06 3e 28 30 03 be
       -0.008530158 -0.063590616 0.13160859 -0.12811339
000030 68 97 ca bd e7 5c 56 bc 01 6c df bd 5f 50 9b bd
       -0.0989216 -0.013083673 -0.10909272 -0.07583689
000040 c4 45 fb 3d db 76 ed 3d c5 88 e6 bd 30 a2 50 bb
       0.12269166 0.115949355 -0.112565555 -0.0031834953
000050 ce bd 36 bd c8 07 ef bd db b2 29 bc 79 55 7e 3d
       -0.044614606 -0.11671406 -0.010357584 0.06209323
000060 01 2e 6c bd 8f f9 04 3e ff 30 dc 3d 91 f1 2a 3c
       -0.05766106 0.12985824 0.10751533 0.0104335705
000070 c8 85 c7 3c dd 6b 6b 3c 36 8f 2a bd 38 10 c1 3c
       0.024355784 0.014368978 -0.041640483 0.023567304
000080 5b 9f f5 3d 65 24 ac 3c d6 3b ed bd 7e a5 f5 3d
       0.11993285 0.021013448 -0.115836784 0.11994456
000090 53 fd 04 be c0 32 62 3a 76 e6 81 bc 82 d7 03 3d
       -0.1298726 0.0008628778 -0.015856963 0.032187946
0000a0 be dc ae 3d 87 8f db bc f7 39 fb 3d 7e f4 c1 3d
       0.08538197 -0.026801838 0.12266915 0.09470461
0000b0 a8 b7 8a 3d db ca 50 bd 74 bf a6 bd 9d ba 34 3d
       0.06773311 -0.050974708 -0.081419855 0.04412328
0000c0 13 7e c7 3d 6f 6e 8d 3d 33 fb 28 3c e5 0c 3b bd
       0.097408436 0.06905829 0.010313797 -0.045666594
0000d0 85 bc cf bd a7 ba db 3d d4 e8 29 bd be 6b e3 bd
       -0.10143379 0.107289605 -0.041481808 -0.111045346
0000e0 b7 bc 86 bd 73 00 13 3d 24 f0 05 3e 56 ed f5 3d
       -0.06578963 0.0358891 0.13079888 0.12008159
0000f0 c4 1e 26 ba 69 f5 bd 3c 2d 30 da 3c ff 14 8f bd
       -0.0006336982 0.02318831 0.0266343 -0.069864266
000100 42 a2 51 3c 6f 27 53 bc 3d 1f 58 bd 19 7c 36 bd
       0.012795033 -0.01288782 -0.052764166 -0.044551942
000110 00 f3 e6 3d 0c 44 d3 bd dd 09 80 bd f2 8a 67 3d
       0.11276817 -0.10315713 -0.06251881 0.056528993
000120 f6 31 4f bd 52 d5 eb bd 49 d7 87 bb a0 58 ca 3d
       -0.050584756 -0.11515297 -0.004145537 0.09880185
000130 5a b2 a8 bc 6b f5 73 3d 2d 2c 13 bd 79 76 ca 3d
       -0.020592857 0.05956022 -0.0359308 0.09885878
000140 0f 22 59 3d df 4a 5e 3d 10 3e d4 bd 2d 46 80 3d
       0.053010996 0.05427062 -0.103634 0.06263385
000150 6a 4c 28 bd a6 28 04 bc 53 55 bc bd e2 63 44 bd
       -0.0410885 -0.008066332 -0.09195962 -0.04794682
000160 d1 d4 16 bd a3 7c d3 bc 3e 5d 97 3d 07 6b 93 3c
       -0.03682405 -0.025816267 0.073908314 0.01799537
000170 1f c5 3c bc 7d 32 28 bd dd e1 10 bc 60 e8 d4 bd
       -0.011521607 -0.041063774 -0.0088429125 -0.103958845
000180 69 60 6b 3d 62 64 77 3d 97 ba 0c 3d 66 1f 97 3d
       0.05746499 0.060398467 0.034357633 0.07379036
000190 bf 5e 95 3d 2f 83 67 3b e5 1c 70 3c 97 d1 63 bd
       0.07293462 0.0035325994 0.0146553265 -0.055619802
0001a0 bb 16 c9 bd 33 7e 08 3d 1a c1 c8 bd a8 a9 80 3d
       -0.098187886 0.033323478 -0.09802456 0.06282359
0001b0 fe 5a 9e 3d 31 8d ff 3d 78 64 94 3d 2c 44 e2 bd
       0.07732199 0.12478102 0.072457254 -0.11048159
0001c0 2a 7f 8c 3c fb 28 4b bd 62 09 fa bd 34 1f 6f b9
       0.01715048 -0.04959963 -0.12208821 -0.0002280444
0001d0 25 1f af bc 03 a7 6a 3c 9c cc ee 3d 06 47 02 be
       -0.021377156 0.014322045 0.1166012 -0.12722406
0001e0 d2 4a 90 bd 60 83 df 3d f4 d0 cc bd 6d c5 c1 bd
       -0.07045521 0.1091373 -0.10000792 -0.09461484
0001f0 66 06 66 3d f0 cb 9a 3c 4f 39 b7 bd 80 aa b7 3c
       0.056158446 0.018896073 -0.089464776 0.022420168
000200 3a fa f7 3d 4b f9 7a 3d 1b 68 66 3d 9b 71 62 bd
       0.12108274 0.0612729 0.056251626 -0.055284124
000210 c1 33 cc 3d fb 46 1e bd fd ca 0d 3d 8a 44 8f bd
       0.09970809 -0.03864191 0.034617413 -0.06995495
000220 7d f9 93 bd 13 84 b7 3d 03 de 71 bd 52 65 98 bd
       -0.072253205 0.08960738 -0.059049617 -0.074412
000230 06 df a3 bc 49 f2 22 bc 94 10 2a 3d 03 ff e3 3d
       -0.020003807 -0.009945461 0.041519716 0.11132624
000240 1a 78 02 3e 1b 09 e3 3c 7a e4 8a 3d ff ee 90 ba
       0.12741128 0.027714303 0.0678186 -0.0011057555
000250 01 82 43 bb 55 25 f1 3c 01 f1 44 bc ec 4a 42 bc
       -0.0029832127 0.029436747 -0.01202035 -0.011858683
000260 e2 ab 67 bd ee 82 31 bd 45 20 f8 bd 4f 19 cb bd
       -0.056560405 -0.043337755 -0.1211553 -0.099169366
000270 b2 85 22 bc 29 9f f1 bd c5 a9 7d 3c db 91 ba 3d
       -0.009919571 -0.117979355 0.015482371 0.09109851
000280 d7 09 bd bc a5 d3 a7 3d f4 12 f0 3d ec df fe bd
       -0.023075981 0.08194665 0.11722365 -0.124450535
000290 4d 84 4a bd c1 f8 13 3b b7 96 b9 bc 44 ce 4c bc
       -0.049442578 0.0022578689 -0.022654874 -0.012500349
0002a0 84 b6 da 3a 69 b2 a2 ba ab 75 f9 3d 35 d6 ea bd
       0.0016686474 -0.001241279 0.121806465 -0.11466638
0002b0 01 6b bb 3d 8e f3 da bd 8e ff e5 3d a2 a6 e4 3d
       0.09151269 -0.106909856 0.11230384 0.11164595
0002c0 70 51 3c 3d a5 50 e3 3d 91 9d 3a bd 07 da ca bc
       0.045976102 0.11099366 -0.045560423 -0.024762167
0002d0 0c f4 3d 3d 73 ca 22 3d 9f 26 54 3d 34 a4 d0 3d
       0.04637532 0.039743852 0.051794644 0.10187569
0002e0 30 00 d5 bd 81 0f 2f bd ed 06 51 3d db 8d 49 bd
       -0.104004264 -0.042739395 0.051031996 -0.04920755
0002f0 96 f1 18 bd d6 cb f3 3d 92 ac 8e 3a b9 e5 db bc
       -0.03733977 0.11904113 0.001088517 -0.026842939
000300 03 0d c6 bc a1 fd b9 bd d0 cb 11 3d 80 ff fe bd
       -0.024176126 -0.09081579 0.03559476 -0.124510765
000310 a1 68 95 bd 08 93 cc bd e0 76 90 3d ee 2d e3 bd
       -0.07295347 -0.099889815 0.070539236 -0.11092745
000320 c7 83 51 bd de 9c 03 3e a4 c8 d8 bd d7 8c d3 3d
       -0.051151063 0.12852809 -0.10585144 0.103295974
000330 fe c9 40 bc 3b 1e 43 bd 4c 18 06 bd a1 b8 e3 3d
       -0.011766909 -0.047636252 -0.032738015 0.111191995
000340 82 41 d8 3d 76 9a e3 3d 2f e0 9b 3d b8 2f 1c 3d
       0.105593696 0.111134455 0.07611119 0.038131446
000350 8a 3d 92 3d d8 c3 ed 3d 30 8f 2c 3d 55 bc 31 bc
       0.07140644 0.1160962 0.04212874 -0.0108481245
000360 34 ce c9 bd f6 0e e7 3d b4 33 6d bd 8a 6a 03 3d
       -0.09853783 0.112821504 -0.057910636 0.032084025
000370 9d 18 26 bd 15 43 fc 3d 1c 57 0a 3d 5c ce 8f 3d
       -0.040550817 0.123174824 0.03377448 0.07021782
000380 05 92 ce bd ca 60 ed bb 8f 34 93 bd 08 bb 1b bd
       -0.10086445 -0.007244204 -0.07187759 -0.038020164
000390 9a e2 8a bc bf 73 5e 3d 2f d5 b7 bd ed 2e 1b 3d
       -0.016953755 0.054309603 -0.089762084 0.03788655
0003a0 c9 d6 27 3c c8 eb e6 bd 68 b8 15 3d e7 62 da bd
       0.01024408 -0.112754405 0.036552817 -0.106633954
0003b0 6e 96 d8 bc 92 61 64 3c d8 e8 87 bd 8c 16 97 bc
       -0.026438918 0.013939278 -0.06636208 -0.018443368
0003c0 f6 28 01 3d f8 c4 9f 3d 4b f1 85 3c db 92 ee bd
       0.031533204 0.07801241 0.016350409 -0.11649104
0003d0 9d 4d f1 3d ae c7 3e bd 31 a8 71 bd 0e fa a4 3c
       0.11782382 -0.04657715 -0.05899829 0.020138767
0003e0 72 15 9d bd 56 8b 95 3d e6 f7 9a bd f9 0e 17 3d
       -0.07670106 0.07301967 -0.07566814 0.036879513
0003f0 11 c6 c8 3d 83 d2 c9 3d 2d 0f b2 bd 97 ff 47 3d
       0.09803403 0.09854605 -0.08694301 0.048827734

lstm.bias_ih_l0 f4 [256]
000000 7b 1f d8 bd 61 a0 9a 3c b1 7b 66 bd ab 8a a1 3d
       -0.105528794 0.018875303 -0.056270305 0.07887777
000010 39 eb 49 bd 1d 8e b2 bd a1 89 39 bd be f7 ac bd
       -0.04929659 -0.08718512 -0.04529727 -0.084456906
000020 ad 02 f3 3d 8f b9 e1 bc da 63 df bd e2 5b 3a bd
       0.11865745 -0.027554302 -0.10907717 -0.045497783
000030 90 63 e3 3d a6 4e d6 3d a3 9e 59 3d 67 f0 34 bd
       0.111029744 0.1046422 0.053129803 -0.044174578
000040 12 9c 03 3d 35 ae 55 3d 39 bd f1 bc b2 7c a2 bd
       0.032131262 0.05216809 -0.029509174 -0.0793394
000050 89 fa 08 3d 1a b4 f4 3d 6d 60 a1 3d ff da f1 3d
       0.033442054 0.11948414 0.0787972 0.11809348
000060 6b 10 42 bc a2 f4 c4 3d b7 87 9a 3d b4 e2 96 bd
       -0.011844735 0.096169725 0.07545417 -0.07367459
000070 2f 38 d1 bb 84 a8 ea 3d 91 7b 8b 3d f9 d4 92 3d
       -0.0063848714 0.11457923 0.06810678 0.071695276
000080 e9 95 51 3d 69 fc 08 3d 2d 92 a4 3d 77 8f 1f 3d
       0.051168356 0.033443842 0.08035693 0.038955178
000090 bd 2c ca 3d 11 c7 de bd cd 47 bb bc 53 08 17 bd
       0.098718144 -0.10877813 -0.022861386 -0.036873173
0000a0 a3 d9 f8 bc f1 a1 ab 3d 3e 52 9e 3d 36 db c0 bd
       -0.030377215 0.08380497 0.0773053 -0.09416811
0000b0 63 32 a0 3d bd df b3 3d 56 fc 92 3d 48 07 6a bd
       0.078221105 0.08782909 0.071770355 -0.05713585
0000c0 ac 6c a9 bd c2 60 c2 3b ea ad 07 3e ef 70 cc bc
       -0.08272681 0.0059319446 0.13249937 -0.024956195
0000d0 a2 02 b4 3d 55 a4 42 3d b3 ff 9e 3d 63 68 3b bd
       0.08789565 0.04752 0.077636145 -0.045753848
0000e0 2a 84 9e bc aa f5 9a bd c0 f1 ab bd 19 46 d9 bd
       -0.01935013 -0.07566388 -0.083957195 -0.10609073
0000f0 14 75 83 3d dd 43 7e 3d 4b 22 ce bc e8 da 25 3c
       0.06418815 0.06207644 -0.025162837 0.010122992
000100 42 8e 4d 3d cd bb de 3d 05 fd fa 3d 95 f5 5c 3d
       0.050184496 0.10875664 0.12255291 0.053945143
000110 06 e6 ff 3d 58 d6 13 3d 93 ff 07 3d 50 20 e7 bc
       0.12495045 0.036093086 0.03320272 -0.02821365
000120 eb 56 ce 3d 08 f5 6a 3d 31 e6 80 3c 54 3d 13 bc
       0.10075172 0.057362586 0.015734764 -0.00898679
000130 af b8 02 3e d1 0e 1c bd 47 44 09 3d b5 2a 1b bd
       0.12765764 -0.038100068 0.03351238 -0.037882525
000140 2a 75 6f bd a0 e8 80 3c 38 30 32 3d c6 39 34 39
       -0.058461346 0.015735924 0.043503016 0.0001718766
000150 95 c0 c3 3d 11 b1 ac 3d 19 90 b9 3b a6 dd 92 bd
       0.095582165 0.0843221 0.0056629297 -0.07171182
000160 d0 6d cb bc 3e 20 c4 3d c1 90 cd 3d 29 f4 b9 3d
       -0.024832636 0.09576462 0.10037375 0.09079773
000170 cd d4 12 3d 0c 7d 95 3d 50 f2 3a 3d 86 17 bf 3d
       0.035847474 0.072992414 0.045641243 0.093306586
000180 76 15 19 3d 39 8e 83 3d 5e 0b dd bb 49 c3 6d bd
       0.037373982 0.06423611 -0.00674574 -0.058047567
000190 d4 e5 1e bd 98 ce 07 3d b5 6b f4 bc 2a 36 b9 bd
       -0.0387934 0.033156008 -0.029836515 -0.09043534
0001a0 c8 a3 d2 3c a1 a1 8c bc 2d e2 cb 3d c3 94 d0 3d
       0.025712863 -0.017166914 0.09955249 0.10184624
0001b0 a0 76 e3 3d f0 57 ea 3d 1f b5 18 bc 7e c5 ea bd
       0.1110661 0.11442554 -0.009320526 -0.1146345
0001c0 20 3a b9 3c e5 95 dd bd a8 4f d1 bd d0 89 51 3d
       0.022610724 -0.10819606 -0.10220271 0.05115682
0001d0 c7 e3 42 bd b6 5a 8d 3d 72 31 cc 3b 04 55 c9 3d
       -0.047580507 0.06902067 0.0062314803 0.098306686
0001e0 02 0f e8 3d 4e 40 c7 3d dc 44 36 bd f9 98 16 3d
       0.113309875 0.09729062 -0.044499263 0.03676698
0001f0 d0 6e 93 3d 29 f1 e3 3d 5c 6f b0 bd 1a 93 79 3d
       0.0719887 0.11129982 -0.0861499 0.060931303
000200 7d 09 8c 3d 93 43 24 bd 2b d8 5f bc fb bc 7d 3d
       0.06837747 -0.040103506 -0.013662378 0.061947804
000210 e0 1c a5 bd 04 6e 55 3d 8b 19 c9 bd 79 d2 0a bc
       -0.08062148 0.052106872 -0.09819325 -0.008473032
000220 58 02 b6 3d c1 7f be 3c c1 5e b1 bb 5c da 15 3d
       0.08887166 0.023254277 -0.005412907 0.036585197
000230 a5 8d e4 bc 6a d3 c7 3d 17 95 f1 3d 12 3e 16 bc
       -0.027899573 0.09757121 0.11796015 -0.009170072
000240 1f 76 5a 3d 35 43 8c 3c bb 86 5b 3d 45 1b 40 3d
       0.053335305 0.01712189 0.053595286 0.046901006
000250 db 7f b8 3b 26 b3 45 bc 73 a4 62 bd 75 be 82 bd
       0.005630476 -0.012066638 -0.055332612 -0.06383983
000260 83 6a 15 bd 5b d2 2c 3c c9 9b 88 bb 30 2d 9b bd
       -0.03647853 0.0105481995 -0.0041689617 -0.07576978
000270 c5 1f 52 bc cb 88 24 3d 4a e9 d9 3d 27 cf dd ba
       -0.012824957 0.04016952 0.106401995 -0.0016922698
000280 88 e7 e3 3d ed ca 85 3d 59 d3 09 bd 95 0a a1 3d
       0.111281455 0.06532846 -0.033648822 0.078633465
000290 3f 5d 95 bd b4 d0 db 3d 66 e4 b9 3d 25 6e 88 3d
       -0.07293176 0.10733166 0.09076767 0.066616334
0002a0 cb 50 91 bc 4c 70 86 bc 6f 61 be 3d 1a b2 d1 bd
       -0.01773872 -0.01641097 0.09295928 -0.10239048
0002b0 b2 bf 95 3d f5 b6 57 bd a3 6c de 3c c2 32 16 bd
       0.073119536 -0.052664716 0.027151411 -0.0366695
0002c0 02 5a 2a 3d e9 44 23 bb 2e 3a 57 3d 64 4e 9a 3d
       0.041589744 -0.00249129 0.05254572 0.07534483
0002d0 f2 f3 70 bd 76 d9 95 3d 4e 46 4a bd 4f 24 c2 3c
       -0.058826394 0.07316868 -0.049383454 0.023698954
0002e0 1c e5 68 3c 5e c7 04 bd 0f c6 08 bb b3 fc 33 3c
       0.01421478 -0.032416694 -0.0020870005 0.010985541
0002f0 50 a4 a4 3d 77 9b ab bd 86 ad 6d 3d f0 89 1e bd
       0.080391526 -0.08379262 0.058026813 -0.038705766
000300 22 65 a7 3c c7 3d 60 3c 45 36 70 bd 8c f5 77 bd
       0.020433966 0.013686604 -0.058645505 -0.060536906
000310 3b 02 b4 bc db 81 92 bd 92 37 e9 3c 66 b0 d3 bd
       -0.02197372 -0.07153674 0.02846888 -0.1033638
000320 b0 19 a9 3a d6 73 49 bd 41 21 da 3d c9 f9 bd 3d
       0.0012901332 -0.049182735 0.10650874 0.09276158
000330 4e 84 06 ba be 79 62 bd 94 7d c0 3c 56 47 1f 3d
       -0.0005131409 -0.055291884 0.02349738 0.03888639
000340 d9 27 43 bd 19 39 86 3c f5 a7 cd bd 1c 80 b4 bd
       -0.047645424 0.016384648 -0.10041801 -0.088134974
000350 fa 99 bc 3b 5c 22 df bc 52 55 0c 3d 1b b3 67 bd
       0.00575566 -0.027238064 0.034261055 -0.056567293
000360 0c d0 c9 bd 3b 31 c6 3d 26 0e 81 bd ab c3 a6 3c
       -0.09854135 0.09677359 -0.06301527 0.020356974
000370 56 3f b5 3d 57 db b6 bd c5 fc cc bc 93 bc 0a 3d
       0.08849971 -0.089285545 -0.025022874 0.033871245
000380 7f d6 c7 bd 23 a8 4a bd 56 44 0e 3d 57 81 95 bd
       -0.09757709 -0.049476754 0.03473314 -0.0730006
000390 d0 ef 86 bb f4 ca a3 bc 40 8c 4b bd 54 ee e3 3d
       -0.0041179433 -0.019994237 -0.0496943 0.11129442
0003a0 93 cc d9 bd 70 e7 8c bc 72 37 ce bd 7a 2d e1 bd
       -0.106347226 -0.017200202 -0.10069169 -0.10995002
0003b0 d7 a6 c4 3c d6 6c 15 bd 57 63 89 bd 9d c6 fe 3c
       0.024005337 -0.036480747 -0.06708401 0.031100566
0003c0 46 b9 ca 3d 9a 1d 83 bc 13 0f 8a bd d3 be e7 bd
       0.09898619 -0.016005326 -0.067411564 -0.11315694
0003d0 a3 73 06 3e 7f e8 9c bd 85 36 93 bc e7 fe be 3d
       0.1313005 -0.076615326 -0.017970333 0.093259625
0003e0 3f 18 d8 3d dd 52 cd 3c a2 63 88 3d eb 8a aa bd
       0.105514996 0.025063926 0.066596285 -0.08327278
0003f0 ac d9 e1 3c 64 87 00 3e 94 f5 98 bd d5 7d 62 3d
       0.027569614 0.12551647 -0.07468715 0.055295784

lstm.bias_hh_l0 f4 [256]
000000 9b 4e 8a bd 2b 53 07 bd a6 aa 03 3e 97 c8 1b 3d
       -0.06753274 -0.0330383 0.12858066 0.038033094
000010 c1 d9 f0 3d cd dd eb 3d e5 f0 ae bd 9f a7 f4 3c
       0.11760283 0.115169145 -0.08542041 0.029865084
000020 02 1a 88 ba 09 ee 33 3b ca ab 3c 3d 37 54 e6 3d
       -0.0010383727 0.0027455112 0.04606227 0.112465315
000030 94 21 e3 3d 9a 6a 44 bd 6c 1e 96 bd 67 30 2a bc
       0.11090389 -0.047953226 -0.07330021 -0.010387517
000040 16 ba 59 3d 7b bd c8 bd 41 c7 01 be d1 49 7e 3c
       0.05315598 -0.098017655 -0.12673666 0.015520529
000050 84 44 1d bb 4d b8 05 3e a3 3d a1 bc 0d 77 ae bd
       -0.0023997137 0.13058586 -0.019682711 -0.08518801
000060 fd 7a 71 bd 94 eb a1 3c 6d 3f ff 3d 86 fe 38 bd
       -0.05895518 0.019765653 0.124632694 -0.045164607
000070 49 8f 71 bd b6 56 d1 3d 59 88 b0 bd 80 bf a6 3b
       -0.058974538 0.10221617 -0.08619756 0.0050887465
000080 66 8f d4 3d bd bd 5c 3d 2b 88 2b bd 63 97 b6 bd
       0.103789136 0.053891886 -0.041877907 -0.089155935
000090 71 da d1 bd c3 b8 82 bd 40 d4 cb bd a0 7d 87 bd
       -0.102467425 -0.06382897 -0.09952593 -0.06615758
0000a0 3d ce ae 3c b1 2a 9d 3d 97 66 52 bd 68 95 8b 3d
       0.021338576 0.07674158 -0.05136737 0.06815606
0000b0 fa a3 62 bd 3b 2d 75 bd e0 14 ba 3d fc ec 06 3d
       -0.05533216 -0.05985759 0.09086013 0.03294085
0000c0 9f f5 c5 3c 9f 87 32 bd fc ea 93 bd 41 e5 1d 3d
       0.024164973 -0.04358637 -0.07222554 0.03854871
0000d0 78 76 69 3c d0 11 95 3d 5b b5 72 bd 7d 18 21 3d
       0.014249437 0.07278788 -0.059254985 0.039329994
0000e0 37 ff 1a bd ae 23 b1 bd 0e 6d cc bd d2 87 00 3d
       -0.037841048 -0.086493835 -0.09981738 0.03137953
0000f0 7e 30 16 bd 55 5e df 3d 42 24 3a bd 7e c7 73 bd
       -0.03666734 0.10906664 -0.045444734 -0.059516422
000100 2e 9b 45 bd 56 4f 09 3c d7 00 a6 bd e6 d2 b5 bd
       -0.048243694 0.008380732 -0.08105629 -0.08878116
000110 06 bc d7 3d bc 0a ee 3d 13 8d e5 bc 64 84 30 bd
       0.105339095 0.11623141 -0.028021371 -0.043095008
000120 e6 54 e6 bb c9 b3 12 3b ec d8 a3 3d 96 5b 8c bd
       -0.0070291637 0.0022384992 0.08000359 -0.06853406
000130 a1 97 d4 bd ac 94 d8 bc 65 7a 0e bd 39 f5 f8 bc
       -0.103804834 -0.02643808 -0.034784693 -0.030390369
000140 d4 f0 85 3c 44 61 e3 bd f4 02 33 bd d6 59 c3 3d
       0.016350187 -0.11102536 -0.04370399 0.09538619
000150 10 25 51 ba 59 e8 de bd 1c 73 69 3d 38 ac f1 3d
       -0.000797824 -0.108841605 0.056994542 0.11800426
000160 dd 0b a4 bd b4 92 91 3d 1a 88 06 3e 44 ad 21 bd
       -0.08010075 0.071080595 0.13137856 -0.03947188
000170 cc 4d b8 3d bf cf 21 bd 7c 0b 86 3d eb 54 58 bc
       0.089992136 -0.039504763 0.06545159 -0.01320384
000180 65 3b 81 3c ea c7 8f bd 5d 7b 36 bd 50 50 19 3d
       0.015775392 -0.070205525 -0.044551242 0.037430108
000190 20 92 36 bd 04 51 8f 3d 82 f0 42 bd 4c 07 e4 3d
       -0.04457295 0.069978744 -0.047592647 0.11134204
0001a0 ef ca fe bc 86 90 12 3d a7 ae 12 3d 45 9b e3 bd
       -0.031102626 0.03578236 0.035811093 -0.111136
0001b0 fc 8c ee 3d 82 87 87 bd 98 15 99 bc 2f 61 9a 3c
       0.116479844 -0.06617643 -0.018687055 0.018845169
0001c0 e9 7e 63 bd 0b a7 aa 3d 67 8d c9 3c b4 b6 2e bd
       -0.055540953 0.08332642 0.024603559 -0.042654708
0001d0 a7 70 ce bd a8 a8 a6 bc f9 65 6b bc 26 7d b0 bd
       -0.100800805 -0.020344093 -0.014367574 -0.0861762
0001e0 ee 84 c2 bd 70 04 c4 bd d4 e2 d2 3c 4c 5a bf bd
       -0.094980106 -0.09571159 0.025742926 -0.09343395
0001f0 8e 54 f5 bd 13 55 93 bd e8 e2 44 3d b6 a6 86 bc
       -0.11979018 -0.07193961 0.048067957 -0.016436916
000200 37 41 11 3d 3f e7 ca 3d db d2 ea bd f4 50 bd bd
       0.035462584 0.09907388 -0.11465999 -0.09243956
000210 ec 95 ea 3d 53 4e b5 3d 3e cf 3d bb 63 81 f3 3d
       0.114543766 0.0885283 -0.0028962637 0.11889913
000220 da f5 82 bd f7 23 dc 3d cd d5 ef 3c af 7e d4 bd
       -0.06394549 0.10749047 0.029276753 -0.103757255
000230 4a 14 f3 bd c8 e3 e0 3d d5 cf 10 bd 82 76 c3 3d
       -0.11869104 0.10980946 -0.035354454 0.09544088
000240 64 b8 e3 3d 40 98 96 bd 85 74 4e bd 3b 43 e5 3d
       0.11119154 -0.07353258 -0.05040409 0.11194464
000250 c0 c5 de bd 6a bc f7 bd 04 dd b8 bc 49 0f 69 3d
       -0.108775616 -0.12096484 -0.022566326 0.056899343
000260 6d fa 58 3d 96 d6 d0 3d 0f 06 2b 3d 11 ac 72 3d
       0.0529732 0.10197179 0.041753825 0.059246127
000270 dc b9 78 3d 8b 10 2c 3d 70 d0 bd bd 8f 5b 43 3d
       0.060724124 0.042007964 -0.09268272 0.04769474
000280 ba f7 86 3d dd 9a 13 3c 75 58 3b bd 24 e2 2d 3a
       0.06590219 0.00900909 -0.045738656 0.0006633124
000290 4a c8 84 3c c0 fb cb bd 06 1e 89 bd 7f 48 a0 bd
       0.016208787 -0.09960127 -0.0669518 -0.078263275
0002a0 23 8d b7 bc d5 00 de bd bd 84 d8 bd d5 bd 4c 3d
       -0.022406166 -0.108400024 -0.10572193 0.049985725
0002b0 66 eb fa 3d a2 97 ba bb e9 94 c0 bd e5 02 cf bd
       0.1225193 -0.0056943456 -0.09403402 -0.10107974
0002c0 3e 10 f4 3d c6 f7 02 3d 02 ca 28 3d 48 91 34 bc
       0.119171605 0.031974576 0.041208275 -0.011020966
0002d0 59 33 a1 3d d4 ce 2a bd e1 65 d2 bd c6 70 4e 3d
       0.07871122 -0.041701153 -0.10273338 0.050400518
0002e0 a4 c9 98 ba 5e 33 ee 3c 98 07 65 3d c7 19 d4 3d
       -0.0011656773 0.029077228 0.055915445 0.10356479
0002f0 6e 60 51 bc 0d fd 28 3d 19 b4 da 3d 7c fd 29 bd
       -0.012779338 0.041256953 0.10678882 -0.041501507
000300 56 cc bc 3d 1f 1c a8 3d a7 f2 50 3d 62 4d db bd
       0.092186615 0.08208489 0.05101266 -0.10708119
000310 8b 2e f1 bd cf 73 d1 bd fc 2d 41 3d e3 6c 3d 3d
       -0.117764555 -0.10227167 0.047162995 0.04624642
000320 59 af 31 bc 92 9c 28 bd 43 99 85 3d fa 2e 4e bb
       -0.010845029 -0.041164942 0.06523373 -0.0031461106
000330 bb 99 b8 bc 15 77 88 3d 66 fe 9f 3c e5 f7 eb bc
       -0.022534242 0.06663338 0.019530486 -0.028804729
000340 da e5 b2 bc 7f 76 17 bd 98 2b db 3c c2 01 0a 3c
       -0.021838117 -0.03697824 0.026754186 0.008423271
000350 d6 24 dc 3d f2 1f 8e bd d7 21 ad 3d 44 3a 01 be
       0.107492134 -0.06939687 0.0845372 -0.12619883
000360 90 2a 22 bd 72 63 22 3d 52 39 cc bc 82 4e d4 3d
       -0.039591372 0.03964562 -0.024929676 0.10366537
000370 c5 eb 77 bd 65 55 54 3d 73 12 a7 3d 91 99 89 3d
       -0.06052758 0.05183925 0.08157816 0.067187436
000380 db 89 90 3d 2f 4e d9 3d 3b 43 e5 3d 52 4b 53 3d
       0.07057544 0.106106155 0.11194464 0.051585503
000390 4d 43 84 3d 5c eb b7 bd 70 54 c1 3d 14 02 11 3d
       0.06458149 -0.08980438 0.09439933 0.035402372
0003a0 66 30 38 bc 42 61 9f bd e0 a9 e1 3d 6a 21 0b bd
       -0.011242008 -0.07782222 0.11018729 -0.033967413
0003b0 7f 66 70 3d 24 e8 e9 bd be 42 9a 3d 72 6e 89 bb
       0.058691498 -0.114212304 0.07532261 -0.0041940743
0003c0 9a 37 a4 3d 29 af d4 3d dd fc f1 3d 76 69 4b 3c
       0.08018418 0.10384972 0.11815808 0.012415281
0003d0 73 3b a0 bd fd 2b d6 3d 87 35 db 3d e5 38 66 3d
       -0.07823839 0.10457609 0.10703569 0.056206603
0003e0 bb 6e 0c bd 67 75 33 bc fb 92 44 bd 42 3d 30 3d
       -0.03428529 -0.010953284 -0.047991734 0.04302717
0003f0 ec a4 d8 3c 56 79 fc 3d 55 53 78 3d da 33 f4 3d
       0.026445828 0.123278305 0.060626347 0.119239524

lstm.weight_ih_l1 f4 [256, 64]
000000 3e 97 ad 3d 98 50 f7 3c 1d ce 2b bd 94 79 ee bd
       0.08476113 0.030189797 -0.04194461 -0.11644283
000010 fc 11 ac 3d 47 5e ae 3d f5 17 53 3d e3 ed 17 bd
       0.08401868 0.08514076 0.05153652 -0.0370921
000020 cb bc 0e 3c 6b 46 1b 3b 03 63 8b bd 22 fc 8b bd
       0.008712004 0.0023693095 -0.06805994 -0.068352
000030 c6 16 69 bd cf 8f ec 3d 4b 69 a3 3d 9c cd 97 3d
       -0.056906484 0.11550867 0.079790674 0.07412264
000040 30 10 f9 3d e4 ff 6c 3d 93 0c d0 bd 94 03 9d 3d
       0.12161291 0.057861224 -0.10158648 0.07666698
000050 0a 59 28 3d c5 44 86 bc fc 00 52 3d ad 05 bd bd
       0.04110054 -0.016390214 0.05127047 -0.09229598
000060 65 84 96 bd de 2d 60 3d 41 83 d4 3d 58 b6 a6 3b
       -0.07349471 0.054731242 0.10376597 0.005087655
000070 c1 20 bf bc 6e d5 6a bd ea 1e 0a bd fb 59 76 3d
       -0.023331048 -0.05733245 -0.03372089 0.060144406
000080 63 01 e8 bb 44 f7 bd bd 65 11 b4 bd 48 20 b0 bd
       -0.0070802434 -0.09275678 -0.0879238 -0.08599907
000090 f0 15 d7 bc 9b a9 54 bd 3f e7 fc b9 25 c0 ab bd
       -0.026255578 -0.05191956 -0.00048237477 -0.08386258
0000a0 f0 56 7f 3d a2 93 c8 bd 5f 7a b7 3d b2 dc 7c bd
       0.06233877 -0.09793784 0.08958887 -0.06173391
0000b0 37 71 8f 3d da 94 2e 3d 78 e8 bd 3d b4 ab bf bb
       0.07004016 0.042622425 0.092728555 -0.005849326
0000c0 79 b5 8f 3d fd 4f ad 3d 6f 85 c5 3d b4 b7 fb bc
       0.07017035 0.08462522 0.09644591 -0.030727245
0000d0 ca cc 02 bd 1c ed 9e 3d 01 92 01 3d 87 c8 43 bd
       -0.031933583 0.07760069 0.03163338 -0.04779866
0000e0 b4 e2 35 3d e2 76 00 be 04 88 a6 bd e8 88 9c bb
       0.044405654 -0.1254535 -0.08131412 -0.0047770627
0000f0 3e 3e a9 bd 62 ea 99 bb 3e 7b 5b bd f8 47 fd 3c
       -0.08263825 -0.00469713 -0.05358433 0.030918106
000100 7c 87 04 bc bb d2 ac bd ca 8e e2 3d 26 d7 15 bd
       -0.008088943 -0.08438631 0.11062391 -0.036582135
000110 6e 90 6a bc bf 4d bb 3a 1b 77 2e bc 5f 2b 83 3d
       -0.014316661 0.0014290138 -0.010648514 0.06404757
000120 43 60 e8 3d 91 4a 00 3d 4d ae 29 3d 6f 86 24 bd
       0.113464855 0.031321112 0.04142599 -0.04016727
000130 88 32 e7 bd 86 80 d9 3d 87 9c a2 bd 25 bf 11 bd
       -0.11288935 0.10620217 -0.079400115 -0.03558268
000140 5e 80 12 3c 6a 98 78 bd 45 1a 9e 3d 3a f9 f8 bd
       0.008941738 -0.06069223 0.07719854 -0.12156911
000150 ea d9 8a bd 7e bc 96 3c b8 fb e1 3c 13 bd 44 bb
       -0.06779845 0.018400427 0.02758585 -0.0030019924
000160 9b ae 91 3d 11 f2 6b bc 05 f0 8c 3d a2 b0 db bd
       0.071133815 -0.014400975 0.068817176 -0.107270494
000170 05 b4 8c bd 08 2d c9 3d 4d 7c fa 3c bc 16 3a 3d
       -0.068702735 0.09823042 0.03057685 0.045431837
000180 3d 7a 12 3d d4 19 4e 3c 1f b0 bd bd d9 bd 53 bd
       0.035761107 0.0125794 -0.09262108 -0.051694725
000190 d1 5b 6e bd ee 32 f9 bc 1d 13 a0 3d a1 98 f2 3d
       -0.05819303 -0.030419793 0.078161456 0.11845518
0001a0 5d 26 7e 3c bb 90 ae bd e4 6a c7 3d cb c1 5d 3d
       0.015512076 -0.08523699 0.09737185 0.054139894
0001b0 37 26 01 be d4 79 4f 3c ae 90 0a 3b d4 b0 f6 bd
       -0.12612234 0.012663323 0.0021143365 -0.12045446
0001c0 d8 b0 b2 bd ab ab f7 3d 92 a4 3c 3d 49 c0 72 3d
       -0.087251365 0.1209329 0.046055384 0.05926541
0001d0 5e ad d2 bd 8c 1c cc 3d 8a aa bd 3d 43 b2 df 3d
       -0.102869734 0.099663824 0.09261043 0.109226726
0001e0 c3 3e c0 bd db 18 31 bd 48 f2 2a 3d 9e f0 c0 3c
       -0.09386971 -0.043236595 0.041734964 0.023552235
0001f0 81 e5 f4 bd db f9 dc bd 33 6f 77 3d 49 40 97 bb
       -0.11957837 -0.10789844 0.060408782 -0.0046158177
000200 72 7f db 3d be a9 aa 3d a1 6e dc 3d 28 13 cf bd
       0.10717668 0.08333157 0.10763288 -0.10111076
000210 c7 aa 3e bb e3 cd d5 3c b3 75 31 3d 28 02 f1 3d
       -0.002909349 0.026099151 0.043325137 0.117679894
000220 f8 39 1f 3a 43 1f c1 3c 4c 9a 86 3d f5 f2 81 bd
       0.00060740067 0.023574477 0.065723985 -0.063451685
000230 79 a3 5f 3c 2e c5 a2 bd 62 d6 85 3b aa b7 fc 3d
       0.013649815 -0.07947765 0.0040843943 0.12339719
000240 01 6c f1 3d d6 ae 20 bd a0 4a 0a 3d cd 1d 10 3d
       0.11788178 -0.039229237 0.033762574 0.03518467
000250 bf a1 a2 3d 3a bc a5 3d 7c b7 e2 3d 89 14 e6 bc
       0.07941007 0.08092542 0.11070153 -0.028085964
000260 84 d5 95 bd c0 15 d7 3c af cc d8 3d b6 fd ee 3d
       -0.073161155 0.026255488 0.10585915 0.11669485
000270 64 98 d9 3d c0 bd 26 bd fa 80 a4 bd 0e 54 b8 3d
       0.10624769 -0.040708303 -0.08032413 0.09000407
000280 82 29 29 3d 12 b6 b2 3d 1f 93 89 3d 1e c2 39 bd
       0.04129935 0.087261334 0.06717514 -0.04535114
000290 55 25 08 bd 60 64 fd bd 08 3b ab bd d7 5c d2 bd
       -0.033238728 -0.12372661 -0.08360869 -0.10271614
0002a0 10 9a 44 bd 3b 5d 8d bd 71 1f 59 3c 4e 3d e9 bd
       -0.047998488 -0.06902548 0.013252125 -0.11388646
0002b0 c8 0e be 3d c0 de a5 bd 25 83 a9 bd fd 6c 41 3c
       0.09280163 -0.08099127 -0.08276967 0.01180577
0002c0 ec e5 ce bb b7 25 90 3d d9 d9 44 bc a5 66 01 bc
       -0.00631403 0.070384435 -0.01201483 -0.0078980075
0002d0 c4 e4 3f 3b cf a2 30 bc 91 e9 e2 3d a9 56 ee 3d
       0.0029280642 -0.010781004 0.110797055 0.11637623
0002e0 9b 3a cb 3d f9 95 51 3d 3c d0 d9 bd ef 4e fa bd
       0.099232875 0.051168416 -0.10635421 -0.12222087
0002f0 84 3a e1 bd df ed 95 bc 2b 5e 67 3d 1e cd 65 bc
       -0.10997489 -0.018301902 0.05648629 -0.0140259545
000300 15 bf e8 bc 7c ba da bc 2a ca 80 bd f8 31 ef 3c
       -0.028411428 -0.02670025 -0.0628856 0.029198632
000310 9f 26 89 3d 86 75 f3 bd d4 3a 57 3d d1 59 ef bd
       0.066968195 -0.1188765 0.052546337 -0.11687053
000320 65 95 be bc cc e9 e6 3d 92 f6 8b 3d 7b bb 98 bd
       -0.023264596 0.11275062 0.06834139 -0.07457634
000330 8e 76 5e 3d 6a 6a 4d bd 1f 5b 69 3d 4f 80 65 bd
       0.05431228 -0.050150312 0.056971665 -0.056030568
000340 a0 09 5e bd c4 ae 03 3d ca e8 98 bd 28 77 0b bd
       -0.054208398 0.03214909 -0.07466276 -0.034049183
000350 43 9f d9 bd 30 fc b9 3d 8f 74 c4 3d f9 15 ca bd
       -0.1062608 0.09081304 0.09592544 -0.09867472
000360 3b 29 db bd a1 14 10 3c 74 cf 85 3d b7 78 95 bd
       -0.107012235 0.008793981 0.06533709 -0.07298415
000370 3d 0f d4 3d 28 b4 19 bc ae b5 3c bd f8 77 29 3d
       0.10354469 -0.0093813315 -0.0460717 0.041374177
000380 c6 e4 30 3d 24 ec 72 3d f2 b9 81 bd 3b 47 ae 3d
       0.043186925 0.059307232 -0.063342944 0.0850968
000390 68 72 e9 bd 6f 8d 59 3b 42 be 0f 3d 67 b8 b3 bd
       -0.113987744 0.0033195873 0.035093553 -0.08775406
0003a0 e0 c5 5f 3c 63 91 19 3c 28 f6 97 bd 19 b2 79 3d
       0.013658017 0.009373042 -0.074199975 0.060960863
0003b0 e2 fe ba bd bf 70 be bd 45 eb 8f bd a4 62 ab bd
       -0.09130646 -0.09298848 -0.07027296 -0.083684236
0003c0 e0 02 b2 3c 13 5e 27 3d 6e ac b8 bd 89 13 b4 3d
       0.021729887 0.0408612 -0.09017263 0.087927885
0003d0 5b 9e 91 bd 53 c0 6a bd ca 75 02 3c 6c 0a a4 bd
       -0.07110282 -0.05731232 0.007962653 -0.080098
0003e0 9c 5a a1 3d e2 e3 e1 3d b6 9c b0 bd bc 05 69 3d
       0.078786105 0.11029793 -0.0862364 0.056890234
0003f0 b7 89 fc bc 30 d8 1b 3c d2 31 e7 bd bb fb 45 3d
       -0.030827386 0.009511992 -0.11288799 0.048335772

lstm.weight_hh_l1 f4 [256, 64]
000000 8d 77 e3 3d 41 53 fa bd 84 c4 98 bd 97 0c 9a 3d
       0.11106787 -0.12222911 -0.074593574 0.075219326
000010 34 52 a6 bc 5d 20 c1 bc cc 5a e9 3d cd 18 b5 bd
       -0.02030287 -0.023575002 0.11394271 -0.08842621
000020 06 d5 87 3d f3 94 aa bd a8 b1 45 3c 42 99 f6 bd
       0.06632428 -0.08329191 0.012066282 -0.1204095
000030 3a a8 86 3d 16 d0 74 bd c1 c2 7e 3d 3d 57 85 bc
       0.065750554 -0.05976876 0.06219745 -0.01627695
000040 14 61 c8 3d 50 04 03 ba 3e ff 8d bd f4 a9 86 3d
       0.09784141 -0.0004997896 -0.06933449 0.06575385
000050 1b 45 97 3d 79 24 ec 3d c8 25 74 bd 28 4c e8 bd
       0.07386228 0.11530394 -0.059606344 -0.11342651
000060 99 52 ce 3b 53 e8 e1 3c b6 ca 2a 3d c8 95 de bb
       0.0062964675 0.027576601 0.041697226 -0.0067927577
000070 bc 60 8f bb 6d 3a 32 3d 65 ad 7b 3d 48 04 fe 3c
       -0.0043755453 0.04351275 0.06144466 0.0310079
000080 65 31 e3 3d c0 cf 45 bd 17 bd ea bd 36 dc bc 3c
       0.11093406 -0.04829383 -0.11461847 0.023054224
000090 32 b6 a3 bd 80 4f b2 bd 0d 88 a9 bd 39 ed a7 bd
       -0.079937354 -0.0870657 -0.08277903 -0.081995435
0000a0 03 23 ad 3d 38 80 9e bc 01 2b b2 bd 59 84 8e bd
       0.084539436 -0.019348249 -0.086996086 -0.06958837
0000b0 47 d3 c7 bd 4a 03 f5 3d 45 93 99 3c ee 1e ab 3c
       -0.09757095 0.11963518 0.018746981 0.020888772
0000c0 1d 87 f3 3d 3f 0b e4 3d fc 55 5e 3d 93 4e af bc
       0.11891005 0.111349575 0.05428122 -0.021399772
0000d0 94 36 a2 3d 84 14 db bc 2d 50 5d 3d aa ea 87 bd
       0.07920566 -0.026743181 0.05403154 -0.066365555
0000e0 f5 d0 8d 3d 47 91 ce bd e7 45 1a bd 91 1d b6 bd
       0.06924621 -0.10086303 -0.03766432 -0.08892358
0000f0 1f a2 fd 3c 6d 64 89 3c 20 b5 c3 bd 0b 1e 48 3d
       0.030961094 0.01677152 -0.09556031 0.048856776
000100 d1 df 59 bd d6 39 d8 3c 4b df 61 3d 1f d3 a3 3d
       -0.053191964 0.026394766 0.05514459 0.079992525
000110 8a e2 d6 3d 54 16 3e 3c 03 ce d2 3c 09 4f a1 bd
       0.10492428 0.011602003 0.025733 -0.07876403
000120 9e 32 b1 3d 0b be b2 bd 17 3e 15 bd 01 1f 4d bc
       0.086522326 -0.08727654 -0.036436167 -0.012519599
000130 bd 5f ad bd e8 96 84 bc 91 b3 a4 3c 1a 09 d4 bd
       -0.08465526 -0.016185239 0.020105155 -0.103532985
000140 fd 2b bb bb 14 5b 8a 3c 89 ce 03 3e 9b 84 13 3d
       -0.005712031 0.016889133 0.12871756 0.036015134
000150 19 68 d8 3d f6 47 48 bd 23 2a 97 3d e8 cc e9 bc
       0.1056673 -0.048896752 0.07381084 -0.02854009
000160 45 de b5 3c a3 44 b1 3d c3 d7 04 3e 66 b5 c2 bd
       0.022200713 0.086556695 0.12972932 -0.09507255
000170 77 87 cc 39 a9 fe 56 bc 03 15 39 3c ba 30 77 bc
       0.0003901084 -0.013122239 0.0112965135 -0.015087301
000180 5f 10 e1 3c a5 e1 74 bb d6 37 e8 bd 5f 8b 80 3d
       0.027473627 -0.003736594 -0.11338775 0.06276583
000190 2b ec 06 bc 3d dc dd bd 7d 4f 08 bd fb 5d 02 3e
       -0.008235018 -0.10833023 -0.03327893 0.12731163
0001a0 65 fb 83 bb 98 ba a8 3d d6 65 ea 3d 45 d7 31 bd
       -0.0040277713 0.08238715 0.11445205 -0.043418188
0001b0 bf b1 c3 3d 4b bd 38 bd 39 c5 a9 bd b0 7c ea 3d
       0.09555387 -0.0451024 -0.0828957 0.114495635
0001c0 00 53 83 3c d0 80 f9 3d 0e e0 b8 3d ad 89 02 bd
       0.016030788 0.12182772 0.0902711 -0.03186958
0001d0 a4 0b d4 bc 6c af 94 3d 2f 43 c1 3b 02 93 e8 3d
       -0.025884457 0.072600216 0.0058979015 0.113561645
0001e0 73 f8 9c 3d 10 91 92 bd a2 73 bd 3d dc 4e 3f 3d
       0.076645754 -0.07156575 0.09250571 0.046706066
0001f0 77 d8 c5 3d a0 52 eb 3d 98 93 91 bd ca b4 ce bd
       0.09660428 0.11490369 -0.071082294 -0.100930765
000200 ff 28 8d bd 5c 66 e1 bd 43 b6 f4 3d f5 29 3b bc
       -0.06892585 -0.110058516 0.11948826 -0.011423578
000210 9a 3b 91 bd 02 46 f4 3d 30 d9 b7 3c 07 c9 46 bd
       -0.07091446 0.119274154 0.02244243 -0.04853156
000220 78 ce 70 bd 09 2f 59 bd a7 51 54 3c ac dd dc bd
       -0.058790654 -0.05302337 0.012958921 -0.10784468
000230 37 55 7b bc ca 40 a4 3d 0a c6 ce bb 46 17 af 3d
       -0.015340141 0.0802017 -0.006310229 0.08549361
000240 0c 68 fe 3d 19 38 c5 3d 21 cc bd bd f7 20 b3 3d
       0.12422189 0.096298404 -0.0926745 0.08746522
000250 7f 90 48 bc 00 01 14 3d 56 f0 ea bc 3d c3 82 bd
       -0.012241482 0.036133766 -0.028679054 -0.06384895
000260 7e c1 e2 3d 01 64 00 3d 04 93 5b bd ef 8c 7c bd
       0.11072062 0.03134537 -0.053607002 -0.061657842
000270 15 a5 9f bd 20 34 44 3d 8b 7e 85 bd 5f a7 f7 3d
       -0.07795159 0.047901273 -0.06518277 0.120924704
000280 5b 04 b3 3c a1 2a de bd fb 74 81 bd 1d 9d a4 3d
       0.021852663 -0.108479746 -0.063211404 0.080377795
000290 a1 f6 99 bc 27 02 46 bc ee d8 8a 3c 5a af ed bd
       -0.01879436 -0.012085474 0.016949143 -0.11605711
0002a0 9e 35 d9 3c 0a e1 33 bc c6 10 80 3d f3 4c 4c bc
       0.026514824 -0.010978946 0.06253199 -0.012469518
0002b0 d2 c1 d7 bd 49 56 94 bb 1e 8e 55 3d 35 fb b9 bd
       -0.10535015 -0.0045268876 0.052137487 -0.09081117
0002c0 1b 66 d2 3d e1 3b 2f 3d 94 51 eb 3d 38 e2 4d bc
       0.10273381 0.042781714 0.11490169 -0.012566142
0002d0 89 93 ca bd 54 fa e5 bb 7a d1 3d 3c 79 70 3d bd
       -0.09891421 -0.007018367 0.011585588 -0.04624984
0002e0 f7 98 b8 bd 34 b5 d9 bd 4a 49 83 bc dc 93 d4 bc
       -0.09013551 -0.10630265 -0.016026158 -0.025949411
0002f0 b3 11 59 bd b8 ff 46 3b 89 99 98 3c f0 cf f9 3c
       -0.052995395 0.0030364823 0.018627899 0.03049466
000300 c7 52 4e 3d 2c 43 92 bd 30 3a 39 3d 0f 75 b0 3d
       0.05037191 -0.07141718 0.045221508 0.08616077
000310 1d 4d ba 3d 17 15 bb bd 45 6f 45 bd d5 29 ae 3d
       0.090967394 -0.09134882 -0.048201818 0.085040726
000320 91 89 ef 3d 63 85 94 bc 1a 22 7f 3d bd bf 12 bc
       0.116961606 -0.01813001 0.06228838 -0.008956847
000330 23 5e 24 bd da c0 c1 3d 99 fa bb 3c 85 21 6b 3c
       -0.04012884 0.09460612 0.022946643 0.014351253
000340 e5 2c a8 3d d1 7b be 3d d2 c9 80 3d 66 24 8b 3c
       0.08211688 0.0930096 0.06288494 0.01698513
000350 bd 09 86 3d 05 c7 d7 bc 3f 52 eb 3d d9 85 cf 3d
       0.06544826 -0.026340017 0.114902966 0.10132951
000360 74 50 6a 3c 48 ef 15 bd e2 57 06 bd 03 c8 60 bd
       0.014301408 -0.03660515 -0.032798655 -0.054878246
000370 5e d2 de bd e2 30 91 3d 65 c0 b2 bd e6 e9 e9 bd
       -0.10879968 0.07089402 -0.087281026 -0.11421566
000380 ec 05 a8 bd b9 82 f6 3d ee a5 ff bc eb fb bc 3d
       -0.082042545 0.12036652 -0.031207051 0.09227737
000390 9f 97 9c 3d cf 1e a0 3d 0b 45 c2 bc 68 7a 87 3d
       0.07646107 0.07818376 -0.023714563 0.06615144
0003a0 cf 06 f1 bc 46 5a f8 bd e2 c2 c6 3d b6 84 4b bd
       -0.029422192 -0.12126593 0.0970514 -0.04968711
0003b0 41 2b 8c bd 21 c5 80 3c 9b cc 6d 3d f0 b5 c2 bb
       -0.068441875 0.015718998 0.058056455 -0.005942099
0003c0 35 0a 3d bd 25 3e b9 bd 5e 72 dd 3d ee e4 12 3c
       -0.046152312 -0.09045056 0.108128294 0.008965714
0003d0 c0 4a ae bd 2d 0c a9 bc a0 79 b9 bd da 07 73 3d
       -0.08510351 -0.020635689 -0.09056401 0.05933366
0003e0 9c e2 5d bd 39 76 f1 bc 7d b0 cb bd 81 cc 05 3c
       -0.05417119 -0.029475318 -0.09945772 0.008166433
0003f0 a3 f0 aa 3d 8e 55 68 bd b1 27 3b 3d 82 2d b4 bd
       0.08346679 -0.056722216 0.04569215 -0.087977424

lstm.bias_ih_l1 f4 [256]
000000 f1 a0 a2 bb 69 27 99 bd c9 e3 8c bd 92 2b 14 3d
       -0.0049630334 -0.0747822 -0.06879384 0.036174364
000010 d9 6b 07 bd cd a7 ad bd 5c b1 1f bd d8 8b e9 bd
       -0.033061836 -0.08479271 -0.038987502 -0.11403626
000020 02 42 02 3e 47 b5 27 bd f0 6f b0 bd 4a 81 f7 3d
       0.12720492 -0.040944364 -0.086151004 0.12085207
000030 77 b0 64 3d de 31 93 bd 4f b4 6f 3d d2 4b 52 3c
       0.055832352 -0.07187246 0.058521565 0.01283546
000040 3d 41 22 3d 76 26 bf 3d d0 cd 53 bb 65 bc dc 3d
       0.039612997 0.09333508 -0.0032318719 0.10778121
000050 1a d1 c2 3d 1d 6e 2a 3d 1b b8 54 3d 9c 86 d0 bd
       0.09512539 0.04160892 0.05193339 -0.10181925
000060 b3 49 95 3d 0d 24 12 3d 58 4a e3 3b ab 58 fd 3b
       0.07289448 0.035678912 0.0069363527 0.0077315173
000070 2e 4d ef bd 5a b1 a3 3d 5d 2b da 3d d8 37 22 bd
       -0.11684643 0.079928115 0.10652802 -0.039604038
000080 e8 d8 c1 bc 4a d8 8d 3d d0 b9 17 bd f6 27 e3 3d
       -0.023663 0.069260195 -0.03704244 0.11091606
000090 cc 2e f6 3c 65 c9 b4 bc e3 50 64 3d 53 00 78 3d
       0.030051611 -0.022068689 0.055741202 0.060547184
0000a0 0e b9 ba bd 3b f1 cb bd 81 4b d5 bd 1f 43 a8 bd
       -0.09117328 -0.099581204 -0.10414792 -0.08215927
0000b0 2a a6 ed 3d 3e cc 85 3d 87 30 2e 3d 7d aa 84 bd
       0.11603959 0.06533097 0.042526748 -0.064778306
0000c0 4d c9 a2 3d ae 79 8c bc 18 dd bf bc 75 51 ec bd
       0.07948551 -0.017147865 -0.023420855 -0.11538974
0000d0 ca b5 5b 3a 52 18 ee bd a8 40 c1 bd d6 a8 24 bd
       0.00083812757 -0.116257325 -0.0943616 -0.040200077
0000e0 ea fe 87 bd 32 47 99 3d bd 43 cc 3c a1 86 61 bc
       -0.06640418 0.074842826 0.024934644 -0.013765008
0000f0 a6 c3 91 bd c1 96 03 3b f4 58 c5 3d 6d 1b ba bd
       -0.07117395 0.002007887 0.09636107 -0.09087262
000100 ec 60 ab bd d7 1a 57 3c ee 15 de 3d c4 1c 9c bd
       -0.08368096 0.013128958 0.108440265 -0.07622674
000110 fe 47 03 be 91 bc df 3d 5b ed 19 3d 05 c0 e7 3c
       -0.12820432 0.10924638 0.037579875 0.028289804
000120 45 38 95 bd fb db b8 3d f9 bb f7 bd be cf 9a 3d
       -0.07286123 0.09026333 -0.120964 0.07559155
000130 34 e7 ad 3d 69 82 5c bd ee 97 d0 3d 68 b5 89 bd
       0.08491364 -0.053835306 0.10185228 -0.067240536
000140 9e 72 f2 3d 55 9c 44 bd 6c af ce bc 15 a6 af 3c
       0.11838268 -0.048000652 -0.025230132 0.021441499
000150 06 72 8f bd 46 48 8d 3d 08 24 ed bd e5 ba d7 3d
       -0.0700417 0.06898551 -0.11579138 0.10533694
000160 0f 54 01 3d de 38 0e bd 54 1c f9 bd 2b 63 d4 bd
       0.031574305 -0.0347222 -0.12163606 -0.10370477
000170 c3 d5 bf bd e3 20 a3 bb ad 62 8f 3d fe 6c a6 bd
       -0.09366944 -0.0049782856 0.07001243 -0.08126257
000180 c5 a6 aa bc f3 a4 92 3c fc 96 7c bd 49 d4 8c bd
       -0.020831475 0.01790092 -0.061667427 -0.06876428
000190 83 04 2e 3c 7f b0 00 be 8a 95 c4 3d 2c 62 c8 bd
       0.010621193 -0.12567328 0.09598835 -0.0978435
0001a0 ba 4a 20 3d ee 9f 9e 3d 16 f2 b1 bc e1 54 fc 3d
       0.039133765 0.07745348 -0.02172188 0.12320877
0001b0 dd 28 94 bd 86 d5 5c 3d a1 0d 8d 3d 64 d3 33 3d
       -0.072343566 0.05391457 0.06887365 0.04390277
0001c0 cb 00 50 bd 5d 28 65 3c 26 94 d1 bd 01 99 c3 3d
       -0.050782006 0.013986674 -0.10233335 0.095506676
0001d0 bf 1f e7 bd 69 9b df bd b3 5c 9c bd e7 09 dc bd
       -0.11285352 -0.10918314 -0.076348685 -0.10744076
0001e0 7d 5e c1 bd 6c 3c 05 bd 82 ed e2 3a c4 d3 27 3c
       -0.0944185 -0.032528326 0.0017313214 0.01024336
0001f0 75 8b f3 bd 91 46 9b bd bf a5 10 3c 8d a9 6b bd
       -0.11891834 -0.07581819 0.008828579 -0.057534743
000200 6b 58 15 3c a9 9e d4 bc b4 e3 8c 3a ee 36 f8 bd
       0.009115319 -0.025954561 0.0010749013 -0.12119852
000210 94 41 a5 ba 9f fc 89 3d 0b 1a 92 3d ee 2b 60 3d
       -0.0012608045 0.06737637 0.071338736 0.054729395
000220 c9 91 5e 3c 5b 6d e3 bd ab 05 cf 3d 51 6c 45 bd
       0.013584563 -0.11104842 0.10108503 -0.048199
000230 da fb 4b 3c d3 f0 ed bc 83 a9 c6 3d 28 73 cc bd
       0.012450183 -0.029045498 0.097003005 -0.09982902
000240 71 a2 a4 bc 02 c1 bc bb 66 d5 bd bd 5f f4 28 bd
       -0.02009699 -0.005760313 -0.09269218 -0.041248675
000250 92 0b 00 be c5 56 22 bd 70 aa 90 bd c0 8b 6f 3d
       -0.12504414 -0.03963353 -0.070637584 0.058482885
000260 44 47 f1 3d b5 c5 01 be 04 db d0 bc 13 64 88 bc
       0.11781171 -0.12673075 -0.02549506 -0.016649282
000270 f8 fc c0 3d 3d cf 2e bc 18 b2 bf bd eb 39 17 3d
       0.0942325 -0.010669527 -0.093601406 0.03692047
000280 2b ec 51 3d d1 85 4f 3c e6 2c c5 3d 50 01 e5 bd
       0.051250618 0.012666182 0.09627704 -0.11181891
000290 23 4c 85 bd 4f c3 b3 bd 7c 34 b1 bc 55 8f a6 bd
       -0.065086626 -0.087774865 -0.021631472 -0.08132807
0002a0 bc be a3 3d 2d 23 a6 3d 85 b8 f4 bc 82 7c 98 bd
       0.07995364 0.08112178 -0.029873142 -0.07445623
0002b0 6a 3e d9 3d 88 6f 8e bd d8 b4 a1 bd 21 8a 97 3d
       0.10607608 -0.06954867 -0.07895821 0.07399393
0002c0 83 6b c9 bd 7b da 27 bd 5a 7e cf bd 67 c3 ea 3d
       -0.09834959 -0.040979844 -0.101315215 0.11463051
0002d0 5b 15 cd bd 43 da 6a 3d 53 47 ca bd a3 9c 7f bd
       -0.10013839 0.057337057 -0.09876885 -0.06240524
0002e0 4a d7 0a 3c 0a d3 a0 3d 0d 37 c7 bd 93 72 c6 3d
       0.0084741805 0.078527525 -0.09727297 0.09689822
0002f0 9d 69 d9 3d 88 b1 bb 3d d4 fb cc 3d 0f 67 bb bc
       0.10615847 0.09164721 0.1000897 -0.02287629
000300 a4 a1 71 bb 45 62 94 3d a0 2a ff 3d 3f 70 ef bd
       -0.0036870027 0.07245306 0.12459302 -0.11691331
000310 d0 95 9f bc 66 40 2e 3d 5d c3 86 bd 99 a1 5e bc
       -0.019480616 0.042541884 -0.06580231 -0.013588333
000320 7f 9d c6 bd 7c b0 df 3d 0e 98 43 3d 29 54 1c 3c
       -0.09698009 0.109223336 0.047752433 0.00954155
000330 7d ff a9 bc 2f a3 d8 3d 6d c7 98 3d 1a a9 8a bd
       -0.02075171 0.10578 0.074599124 -0.06770535
000340 20 5b 85 bc f9 b9 8e 3d cf 3d 4f 3d b5 a4 b7 bd
       -0.016278803 0.06969065 0.050596055 -0.08966962
000350 9c 2c 83 3d 2d e8 c8 bd b9 8f 38 3d cd 11 db bd
       0.06404993 -0.09809909 0.04505894 -0.106967546
000360 2d 43 66 bc 1e 86 00 bc c0 8e c3 3d 5e 34 0c 3d
       -0.014054102 -0.007844476 0.09548712 0.03422963
000370 c6 1c 61 3d 47 d8 6c 3b 17 ae 84 3d ef 23 44 bd
       0.05495908 0.0036139654 0.064785175 -0.04788583
000380 12 2b 72 3c f2 e3 d9 bd 80 98 2c 3b 93 91 e4 3d
       0.014780777 -0.1063918 0.0026336014 0.111605786
000390 e4 d4 5a bc 8b 56 ae bd a0 60 c5 3d 1b 35 dc 3d
       -0.013356421 -0.085126005 0.096375704 0.107523166
0003a0 94 72 ed 3c d6 c2 0a bd f9 1a c7 bd 8b be 15 3d
       0.0289853 -0.033877216 -0.097219415 0.03655867
0003b0 73 03 c4 bd 26 03 98 bc 46 1c 81 3d 29 ed f6 bd
       -0.095709704 -0.018556189 0.06304221 -0.120569535
0003c0 74 27 ac 3d a2 90 b7 3d f8 55 0a 3d af 4a 3b bb
       0.084059626 0.089631334 0.033773392 -0.002857845
0003d0 e4 ac 6c bd 5f fc 2e bd 0e 93 0f 3d f8 e2 73 bd
       -0.05778207 -0.04272115 0.03505235 -0.059542626
0003e0 08 6d e5 bd 2f c4 57 3d 0a 1a af 3c 15 0c 82 bc
       -0.11202437 0.05267733 0.021374721 -0.015874902
0003f0 87 08 6c bd 10 ee 1e bd 1f ea 52 3d 89 e7 bb bd
       -0.05762532 -0.038801253 0.051492807 -0.09175021
