backend/ml/ensemble/lstm_model.pt (torch, 211189 bytes, 9 tensors)

lstm.weight_ih_l0 f4 [256, 6]
000000 54 c9 b2 3d 48 75 ac bd fb 30 f2 bd 94 6d ff bd
       0.087298065 -0.08420807 -0.118257485 -0.12472072
000010 2e 5f 2f 3d 10 8f f1 bc f4 cc fc 3d d8 ae d0 bd
       0.04281538 -0.029487163 0.12343779 -0.10189599
000020 a5 e8 25 3d b0 70 df bc e0 18 ae b9 2e c9 fd bd
       0.04050507 -0.027275413 -0.000332064 -0.123918876
000030 dc 43 50 3d 20 88 3f 3d 47 06 d9 bd 90 53 7f bc
       0.050845966 0.04676068 -0.105969004 -0.015583888
000040 d1 97 fa 3d 74 89 dc bd 08 9c ac 3c f4 2e f7 bd
       0.12235988 -0.107684046 0.021070495 -0.120695025
000050 72 7a c5 3c e4 60 37 bd 12 83 9d 3d 7e 11 ed 3d
       0.024106238 -0.044770136 0.07691015 0.11575602
000060 46 94 f1 bd 34 eb 4c bd e1 66 e5 bd 24 4a 5d bd
       -0.11795859 -0.050028995 -0.11201263 -0.054025784
000070 fd 4c 88 bd 38 c5 0e 3d e0 bc 61 3c 94 84 bc 3d
       -0.06655309 0.03485605 0.013777941 0.09204975
000080 21 c1 a3 bd ce 25 91 bd 85 8f ef bd 20 a0 1c 3c
       -0.07995821 -0.07087289 -0.11697296 0.009559661
000090 f0 df c5 3c 54 9b c6 bd 62 32 4a 3d da 5b cd 3d
       0.024154633 -0.09697595 0.049364455 0.10027285
0000a0 7d f7 ee bd 10 1e 93 3c ea ac cb bd 28 87 fd bd
       -0.116682984 0.01795867 -0.0994509 -0.12379295
0000b0 66 5f c7 bd 68 65 e0 3d d6 7c 83 3b 44 d2 17 3d
       -0.09734993 0.10956842 0.0040126843 0.03706576
0000c0 b2 42 ae bd 48 44 69 bd 93 b7 b5 3b 3c 39 54 bd
       -0.08508815 -0.056949884 0.0055455654 -0.051812395
0000d0 b7 11 b2 bd 30 9f 02 bc 82 b9 d6 bd 06 5c d0 bd
       -0.08694785 -0.007972524 -0.104846016 -0.10173802
0000e0 02 d9 d0 bd aa 92 c5 bd 12 d7 f6 3d 80 34 f2 3c
       -0.10197641 -0.096471146 0.1205274 0.02956605
0000f0 48 42 04 3d 44 a1 c6 bd 36 a2 a5 3d 30 62 8b 3d
       0.032289773 -0.09698728 0.0808758 0.06805837
000100 de 15 be 3d 58 ac 08 3d 70 61 47 bd b4 cd 79 3d
       0.092815146 0.033367485 -0.048676908 0.06098719
000110 d0 2b 5d bd 28 6e 08 3d c4 8f d6 bd b2 39 e7 bd
       -0.05399686 0.03330818 -0.1047664 -0.112903014
000120 d8 e1 ad bc 08 81 f6 bc f2 53 96 bd f0 58 57 bd
       -0.021225855 -0.030090824 -0.0734023 -0.05257505
000130 7d 75 d0 bc 1c f6 6e bd a4 69 46 3d 44 6b 62 3d
       -0.025446648 -0.058340177 0.04844059 0.055278078
000140 28 4f ff bc 2e 4f c1 3d f8 8d 94 3a de 7d 89 3d
       -0.031165674 0.094389305 0.0011333814 0.067134604
000150 58 24 60 3d 60 db 95 3b 7e ce cb 3d 2c 30 f9 bd
       0.05472216 0.0045732707 0.09951495 -0.12167391
000160 84 fe 64 3d 12 6e e8 bd 18 f1 fb 3d 08 40 68 bd
       0.055906788 -0.11349119 0.12301844 -0.05670169
000170 36 3d f9 3d 8c 49 82 bd 9f a0 28 bc 50 d7 02 3c
       0.12169878 -0.06361684 -0.010292201 0.007985905
000180 18 13 8b 3d c0 ff 8e 3c 60 ff 16 bd 80 f6 93 ba
       0.06790751 0.017455935 -0.03686464 -0.0011288673
000190 3c c0 0b bd 90 5e 06 bd 88 6b c5 3d f6 f5 c7 3d
       -0.034118876 -0.032805026 0.096396506 0.0976371
0001a0 0c c8 a9 bd 60 25 9b bb e0 56 de bd b4 08 98 bd
       -0.08290109 -0.00473468 -0.10856414 -0.07423535
0001b0 f0 3d 0a 3d e8 f5 c6 3d 66 36 ea 3c 56 5a a6 3d
       0.033750474 0.09714872 0.028590392 0.08122699
0001c0 d9 0f fe bd 86 54 f7 bd 80 8b 8e 3a c6 0f e2 bd
       -0.124053665 -0.120766684 0.0010875314 -0.11038165
0001d0 57 29 e8 3d 2e 19 9f 3d 4d 79 d3 bd e4 cd 29 bd
       0.1133601 0.077684745 -0.10325871 -0.04145612
0001e0 00 54 3f bd 48 5c e9 bd 7c 7e f8 b9 e0 dd 8b bd
       -0.046710968 -0.113945544 -0.00047396484 -0.06829429
0001f0 a0 72 a0 3d e4 90 ba bd b4 ca 32 bd 8c a9 3e 3d
       0.07834363 -0.09109667 -0.043650344 0.04654841
000200 58 ba be bd a4 3e 89 3d 74 f4 97 bd d0 43 42 bd
       -0.09312886 0.06701401 -0.074196726 -0.047427952
000210 30 92 7d 3c 00 3b 2a bd 53 9c 64 bb 7a 23 a4 3d
       0.015476748 -0.041560173 -0.0034883216 0.08014579
000220 b5 a3 d8 3d 82 0b ab bd 98 e1 c1 3d ae ad ad bd
       0.105781 -0.08351804 0.09466857 -0.084803924
000230 b8 e8 95 bb e0 d5 a4 3c 8e 85 32 bc e0 4b 8a 3b
       -0.0045748614 0.020121515 -0.0108961 0.004220471
000240 b4 4a c2 bd 10 18 fc 3c 37 7f 06 bd b0 08 5b 3d
       -0.09486905 0.030773193 -0.032836165 0.053475082
000250 b2 a4 6f bc 9e 40 86 bd 18 71 44 3d 38 b3 ef 3c
       -0.014626669 -0.065552935 0.047959417 0.029260263
000260 cf c7 42 3d 44 ac dd bd 17 3b 47 3d 60 8d 1a 3d
       0.047553834 -0.10823873 0.048640337 0.037732482
000270 c0 c1 41 3b 80 d1 70 3c 66 1a 1b bd 04 aa 52 bd
       0.0029564947 0.014698386 -0.037866972 -0.05143167
000280 82 0c cb bd f2 e9 f6 bd ac de e3 bd e0 f7 6f 3c
       -0.09914495 -0.1205634 -0.11126456 0.0146465
000290 84 d7 03 3e c0 90 7b 3c a5 59 3a 3d 6a 94 ba bd
       0.12875181 0.015354335 0.045495648 -0.09110339
0002a0 50 04 12 3d 60 e1 c6 3b 9d 0c 99 bd 5c 21 82 bd
       0.035648644 0.0060693473 -0.07473109 -0.06354019
0002b0 bd 55 d4 3c bc 79 20 bd e0 ed df 3d c0 29 48 3c
       0.02591979 -0.039178595 0.10934043 0.012216985
0002c0 e3 86 72 3d a0 0e 68 bd af 9f 5b 3d 56 a0 9e 3d
       0.05921067 -0.056654572 0.053619083 0.077454254
0002d0 a0 5c ab 3d 48 9b a9 3c dc 55 f7 3d 10 4a 3a 3d
       0.08367276 0.020703927 0.12076923 0.045480788
0002e0 4a 8e 56 bc 9c 71 20 3d a0 9f 7f 3d 9c 33 72 bd
       -0.013095448 0.039170846 0.06240809 -0.05913125
0002f0 58 3c 77 bd 00 7e d1 39 3a 38 d8 bd 80 2c 1c 3c
       -0.060360283 0.00039957464 -0.10557599 0.009532094
000300 0c 8e b8 3d b0 dc 88 3c 6e 0e 16 ba 94 1e 02 3d
       0.09011468 0.016706795 -0.0005724196 0.031767443
000310 17 20 cd bd bc 77 66 bd 90 f9 d1 3d ca 09 b0 3d
       -0.10015886 -0.05626653 0.102526784 0.08595617
000320 c8 d9 c1 3d 48 d5 9a bc 5a d0 92 3d 84 96 c2 bd
       0.094653666 -0.018900529 0.07168646 -0.09501365
000330 2c da 51 3d 98 04 34 3d ad 3d cb bd e2 bd e4 3d
       0.051233456 0.043949693 -0.09923873 0.1116903
000340 43 79 df bd ce 84 b4 3d 8e a4 d8 bd 40 1f 6e bb
       -0.10911801 0.08814393 -0.10578261 -0.0036334544
000350 bb 1c 91 3d c4 20 27 3d 44 58 78 3d a4 72 2b 3d
       0.07085558 0.040802732 0.06063105 0.041857377
000360 94 3d 36 3d 32 dd f7 bd 0d cd 1e 3d c4 08 65 3d
       0.04449232 -0.121027365 0.03876977 0.055916563
000370 f0 b9 e9 bd 22 75 f9 bd 8a 54 8e 3d 5c b0 36 3d
       -0.11412418 -0.121805444 0.06949718 0.044601783
000380 e5 bb 36 bd e0 f4 e1 3d 50 32 a4 bc 3c c4 19 bd
       -0.044612784 0.11033034 -0.020043522 -0.03754066
000390 48 65 e8 3d e6 47 a2 3d 4d c5 f3 3d e0 d4 f5 3d
       0.11347443 0.0792387 0.119028665 0.12003493
0003a0 4d 39 b3 bd d8 ce 65 3d 34 2b 86 bd e8 f9 26 bd
       -0.08751164 0.056105465 -0.06551209 -0.040765673
0003b0 bf 5a 82 bd 94 0e e5 bd b3 18 cd bd 20 ce c8 bb
       -0.06364965 -0.11184421 -0.100144766 -0.0061280876
0003c0 78 2f 9d 3c e0 98 5f 3d 26 cb 6a bc 6a 45 ab 3d
       0.019187674 0.054589152 -0.014330661 0.08362849
0003d0 0c 8c c2 3d 00 10 7b 3a f6 df f8 3d 30 e4 54 3c
       0.09499368 0.00095772743 0.12152092 0.012993857
0003e0 e3 86 e2 bb 98 bf e9 bd 7a 75 98 3d 90 e2 47 3d
       -0.0069130524 -0.11413497 0.07444282 0.04880005
0003f0 08 73 c1 bc 14 b3 26 3d 07 d6 85 bd be 55 f8 bd
       -0.023614421 0.040698126 -0.06534963 -0.12125729

lstm.weight_hh_l0 f4 [256, 64]
000000 98 6c e7 bd 9f f4 db 3d 78 2a 02 bd 7f eb 4c bd
       -0.113000095 0.10740017 -0.031778783 -0.050029274
000010 6e 06 ab 3c ff 44 7a ba 24 96 ae 3d 8b d9 d4 bd
       0.02087709 -0.00095470244 0.08524731 -0.103930555
000020 69 91 ff bc 4d 97 04 3d fe 65 8f bd 00 b0 00 3e
       -0.031197267 0.032370854 -0.07001875 0.12567139
000030 cc 81 b4 bd 87 ad 9b 3d 40 72 5e 3d 24 c7 93 3d
       -0.08813819 0.07601457 0.054308176 0.072157174
000040 26 e7 dc 3d b6 13 43 3d f8 a5 15 3d b1 57 c7 bb
       0.107862756 0.04762622 0.036535233 -0.0060834517
000050 15 3c 80 3d 19 2f a9 bd 57 5d 9e 3d 06 23 7e 3c
       0.0626146 -0.08260936 0.07732647 0.01551128
000060 6c 79 c7 bd f3 e7 ae 3d f2 7d c4 3d ac 7c 59 bb
       -0.09739956 0.085403346 0.09594335 -0.0033185882
000070 b1 fb 59 bb 32 8f cd bc ed b1 2e 3c e7 9e 88 bd
       -0.0033261592 -0.025092695 0.010662538 -0.06670933
000080 fa 57 bc 3d 4c 34 88 bd 60 c6 1a 3d 09 58 b3 bd
       0.09196468 -0.066506 0.03778684 -0.08757026
000090 ed 83 d3 bc 2a ad 96 bd a0 47 82 3c 33 a1 4e 3d
       -0.025819743 -0.07357247 0.015903294 0.0504467
0000a0 85 e1 8a 3c cc 7d da bd 81 a3 b8 3d 00 a5 13 bc
       0.01695324 -0.10668525 0.09015561 -0.009011507
0000b0 c8 8a 08 bd 30 c8 2a 39 b8 6b a6 bd bd 57 f5 bd
       -0.033335477 0.00016287039 -0.081260145 -0.119796254
0000c0 62 36 f5 3d 6e 78 95 3c f9 28 a8 3c 3f 3a 55 bd
       0.11973263 0.018245902 0.02052735 -0.0520575
0000d0 07 ae 2d bd d3 0e b1 bd c6 94 e7 bd e1 40 f3 bd
       -0.042402294 -0.086454056 -0.11307673 -0.11877609
0000e0 65 24 df 3b c4 64 08 3d a3 61 a3 bc 3f 26 08 3d
       0.0068097585 0.033299223 -0.019944018 0.0332396
0000f0 ea 3c 72 3c 64 25 7a 3d 01 a1 a9 3c cc d7 b6 bd
       0.014785031 0.061070815 0.020706655 -0.08927879
000100 75 6e cb bc fe ba db 3d df a2 de 3c 1e c8 a8 bc
       -0.024832943 0.10729025 0.027177272 -0.020603236
000110 b3 c1 04 3d 5d 24 9f 3d 40 88 9b 3d 88 89 ba bd
       0.03241129 0.077706076 0.07594347 -0.09108263
000120 c8 74 85 bd f1 8c 44 3d 6a 9c f2 3c 6c 8c d2 3d
       -0.06516415 0.047985975 0.0296156 0.102806896
000130 e5 6b ef bd 17 92 f0 3d 57 58 2b 3d 61 16 ca 3d
       -0.11690501 0.117466144 0.041832294 0.0986755
000140 d6 a8 81 bd cb 71 2d bb d0 fd 17 bd 54 3c 0b 3c
       -0.06331031 -0.002646553 -0.03710729 0.00849827
000150 bb 9d 92 bd 50 43 24 bd a6 d9 a8 bd 8c 18 50 3d
       -0.07158991 -0.040103257 -0.08244638 0.05080466
000160 e6 90 0d 3b d3 90 29 bd 01 a1 4e bd e3 df 3c 3c
       0.0021601259 -0.04139788 -0.050446514 0.011527988
000170 77 e3 3c 3c 84 dc f3 bd 25 34 2e bd 67 d2 db 3c
       0.011528841 -0.119072944 -0.042530198 0.026833726
000180 b6 a9 c7 3d 43 67 ea 3d 25 31 9e bd ef d2 28 3d
       0.09749167 0.11445477 -0.07724217 0.041216787
000190 f7 37 a9 bd b8 d7 ef 3d 4e 7a d3 bd e0 30 53 bd
       -0.082626276 0.11711067 -0.10326062 -0.051560283
0001a0 85 74 56 bd 74 b6 df 3d d7 bd 9b 3c 15 6a 9f 3d
       -0.052357215 0.10923472 0.019011421 0.077839054
0001b0 c5 08 f8 3d 87 5d 8b bd 1b 16 f3 bd 49 a8 70 bd
       0.12111048 -0.06804948 -0.11869451 -0.05875424
0001c0 10 21 fc bd 08 f9 b0 3d 64 65 bc bc cf 06 85 3d
       -0.12310994 0.08641249 -0.022997566 0.06495439
0001d0 3e 13 df bd 5f 49 ae 3d de 05 1c bd 05 be fe 3c
       -0.10892342 0.08510088 -0.038091533 0.031096468
0001e0 ef 95 82 3d 27 52 a5 3d fa d1 b5 3d d7 6b a9 3d
       0.06376254 0.0807231 0.088779405 0.08272522
0001f0 54 3e 1a 3d 91 9e e7 bd 86 1d 91 3a 2c 2a d2 bd
       0.037657097 -0.11309541 0.0011071421 -0.1026195
000200 44 18 bf 3d 36 b5 f0 bd ff a4 d7 3d dc f5 4f 3c
       0.093308 -0.11753313 0.105295174 0.012692895
000210 cc c1 a5 3d c0 c7 cc 3d e4 d3 e2 3d 73 67 9f bd
       0.080936044 0.09999037 0.11075571 -0.07783403
000220 f7 76 34 bc 50 2f ad bd d4 fe b6 bd c0 65 a7 bd
       -0.011014692 -0.0845629 -0.08935323 -0.08173704
000230 29 c5 05 bc ee 6b cc bb b9 64 12 bd d9 38 49 3b
       -0.008164682 -0.006238452 -0.035740588 0.003070405
000240 01 0c 14 bd 80 c6 8d bd 8f d0 4f 3d 6c af a3 3d
       -0.03614426 -0.069226265 0.050736006 0.079924434
000250 23 d1 89 bd 49 3f 9a 3d e1 43 b2 bc e0 bc 37 bb
       -0.06729343 0.07531602 -0.021760883 -0.0028036162
000260 86 8d e0 bc c1 88 5a bc d5 74 b8 3d 82 c9 6e bd
       -0.027411234 -0.013338269 0.09006659 -0.05829764
000270 41 e9 2b 3d 9f ee 7c 3d 58 95 cd bd 86 cc d6 bd
       0.041970495 0.061751004 -0.10038251 -0.104882285
000280 46 58 df 3d 9e 6d 70 bd bb f7 73 3d a1 75 c9 3c
       0.10905509 -0.05869829 0.059562426 0.024592223
000290 a7 6a d0 bc d6 ea 08 bc df 81 45 3d 09 ca 4b 3d
       -0.02544148 -0.0083567705 0.048219558 0.049753223
0002a0 15 77 b9 bd 25 4a 07 bd 22 5a a4 3d e2 1d 3f bd
       -0.09055916 -0.033029694 0.08025004 -0.046659358
0002b0 e1 df a6 bc 14 81 02 be ea a1 80 bd 83 74 3e bc
       -0.020370426 -0.12744552 -0.06280883 -0.011624458
0002c0 8f 64 1f 3d 34 6e 8b 3d 8d 25 9e bd d9 a4 c0 bd
       0.03891426 0.06808129 -0.07722006 -0.09406442
0002d0 dd bc 79 3d 9e df e8 bd a9 2c 6b 3b 81 39 9e 3c
       0.06097113 -0.113707766 0.0035884774 0.01931453
0002e0 4d ae 7c bb f5 15 f2 bc 52 40 30 bc 29 6f 89 bd
       -0.003855604 -0.029551486 -0.010757523 -0.06710655
0002f0 3f 23 33 3d d1 f0 1b 3d a8 3e 47 3d 91 4a 3b bd
       0.043734785 0.038071457 0.048643738 -0.04572541
000300 d8 93 83 bb 6d 91 ed bc 1c ba 27 bc b4 47 1d bd
       -0.004015427 -0.029000008 -0.010237243 -0.03839846
000310 9e a8 14 bd 29 df 67 bd 69 0d f5 3d c7 1f 9f 3d
       -0.03629362 -0.056609306 0.119654484 0.07769733
000320 2f 55 6e bb d1 48 3d bd 81 37 01 bd df 0f 84 bc
       -0.0036366691 -0.04621202 -0.031547073 -0.01612085
000330 83 f5 e2 3d e2 17 de bd 3c 1b fe bc f2 55 2a bd
       0.11081984 -0.10844399 -0.031018846 -0.04158587
000340 e8 37 b9 bd 34 a2 87 bd c1 7a be bc d9 20 6e 3b
       -0.090438664 -0.06622735 -0.023251893 0.0036335497
000350 c8 af 5b bd 67 f5 ea 3d 67 5f c9 3c 8e eb ae bd
       -0.053634435 0.11472588 0.024581624 -0.08541022
000360 1a 63 a8 3d 03 e5 5e 3d f7 34 9f bd d0 b2 dc bc
       0.08222027 0.05441762 -0.07773774 -0.026940733
000370 54 02 a1 bd 93 a4 b0 bd 42 82 81 3d 74 fb d2 bc
       -0.07861772 -0.0862514 0.06323673 -0.025754668
000380 84 b8 e3 bc 78 46 8d bd 72 35 94 bb 32 93 b4 3d
       -0.027797945 -0.068982065 -0.0045229727 0.08817138
000390 26 50 cd 3d 62 08 f8 bc a5 97 c8 bd 27 5a 72 bd
       0.10025053 -0.030277435 -0.09794549 -0.059168007
0003a0 56 14 ae 3d a9 e4 32 3d 68 43 b2 bd f6 7d c8 3d
       0.084999725 0.0436751 -0.08704263 0.0978965
0003b0 61 9e a2 3d 61 e4 f6 3d 11 1d 1d 3d 14 da 51 3c
       0.07940365 0.120552786 0.038357798 0.0128083415
0003c0 c7 57 6c bc 39 78 7f 3b e9 bf aa 3d a6 12 8e 3d
       -0.014425225 0.003898157 0.08337385 0.06937151
0003d0 fd 51 92 3d fc 13 c3 3c 41 15 ea bd 19 06 fb bd
       0.07144544 0.02381324 -0.11429835 -0.122570224
0003e0 fe 23 94 bd f8 68 d5 3d 82 29 b6 3d 11 77 56 bd
       -0.072334275 0.10420412 0.08894636 -0.052359644
0003f0 23 03 91 3c 06 5b d4 3d 19 e8 79 3c 01 67 0a bd
       0.017701691 0.10368924 0.01525309 -0.03378964

lstm.bias_ih_l0 f4 [256]
000000 56 29 ea 3d 5c 18 e2 3a e4 95 cf 3d 0b 4c 5d 3d
       0.114336655 0.0017249691 0.10136011 0.0540276
000010 b7 1d 8c bd 67 bd eb bd 81 2a 07 3d 6e 1c 6c 3d
       -0.06841605 -0.11510735 0.03299952 0.0576443
000020 63 f5 6b bd 5b c0 ae bd ae 6d 11 3d c7 89 94 bd
       -0.057607066 -0.08532783 0.03550499 -0.072528414
000030 7f c1 0e bd 01 3f 00 be e5 44 ae 3d f6 b8 ef 3d
       -0.0348525 -0.12524034 0.08509234 0.117052004
000040 2e 75 45 bd 0c e4 9b 3d 0b e3 29 3d 9d a2 d4 3d
       -0.048207454 0.07611856 0.04147629 0.103825785
000050 7f e4 71 bc 55 51 73 bd d4 2c 5c 3d 7a 44 4b bd
       -0.01476395 -0.059403736 0.05375369 -0.04962585
000060 5e 37 c9 3b 1d ee 92 bd 09 3c b8 3d 7b 4d 26 bd
       0.0061406335 -0.07174323 0.08995826 -0.040601235
000070 6f df 49 bd 98 1c c2 3c 15 18 6f 3d 32 9f a4 bd
       -0.04928535 0.023695275 0.058372576 -0.080381766
000080 c6 96 81 3d 78 09 ac 3d f5 73 d8 bd 69 af fc bd
       0.06327586 0.084002435 -0.10568992 -0.12338144
000090 53 0e 7c 3d fc cb d3 3c 8c 95 50 bd fb e7 4c bd
       0.0615371 0.025854103 -0.05092387 -0.05002592
0000a0 df 20 df 3c 03 e5 25 3d a4 00 bc bc 40 5d b4 3d
       0.027237354 0.040501606 -0.022949524 0.088068485
0000b0 c5 c4 cb bc d4 15 84 bc ac bc a8 bd 5d 08 25 3d
       -0.0248741 -0.01612369 -0.08239111 0.04029118
0000c0 d6 71 fe 3d ba db 3a bd ef d9 c7 bd 54 f4 c9 bd
       0.12424056 -0.045619704 -0.097583644 -0.09861055
0000d0 73 3d db 3d 21 29 bc bd 36 4c 83 bc 33 bf 48 3d
       0.1070508 -0.09187532 -0.016027551 0.049010467
0000e0 5a 70 6e bc d0 a0 e8 3c 9f d9 4c 3d ae 16 98 bd
       -0.014553154 0.028396994 0.050012227 -0.07426201
0000f0 6d 57 bc 3d 8b f2 a3 bd f5 4d e4 3d d2 a2 eb 3d
       0.09196363 -0.08005246 0.111476816 0.11505665
000100 ba 9c 3f 3d c0 b7 30 bb 1f 21 b8 bd 2a 44 ec bd
       0.046780325 -0.0026964992 -0.08990692 -0.11536439
000110 aa 1a 02 3d fb 64 55 3d 70 5f ed 3c 4d 97 99 3d
       0.03176371 0.052098256 0.028976172 0.074995615
000120 8f e5 6e bc e2 64 b3 bd 17 42 b8 3d 63 e9 7f bd
       -0.014581098 -0.08759476 0.08996981 -0.062478434
000130 08 0b e5 bc 2b 70 4c bd 49 63 b5 3d 0c 67 bd bd
       -0.027959362 -0.04991166 0.08856828 -0.0924817
000140 49 dc 03 bb 8c ef cf 3d cf 99 ec 3c c4 a3 59 bb
       -0.0020120314 0.10153112 0.028881935 -0.0033209184
000150 34 31 b7 bc 2e 94 65 bd d7 22 c6 bd e7 9c 0f bd
       -0.022362329 -0.05604952 -0.09674614 -0.035061743
000160 09 09 0c 3d 64 da e8 3d 55 26 64 bd dd ad 4e bd
       0.034188304 0.1136978 -0.05570062 -0.050458778
000170 89 c8 cb 3d 0a 34 fa bc d4 92 01 3e 1f 49 9f bb
       0.099503584 -0.030542392 0.12653667 -0.0048610116
000180 a8 e1 ac 3d ed 89 88 3d 67 1f 3a bd 63 c8 56 3d
       0.08441478 0.06666932 -0.045440104 0.052437197
000190 15 4e e8 bc 9c 48 ad 3d 2a f7 d6 bc 3b d9 ff 3b
       -0.028357545 0.08461115 -0.026240904 0.0078078783
0001a0 55 6a 93 3c 26 62 81 bd a7 58 bd bd ec 87 ba bd
       0.017995039 -0.063175485 -0.09245425 -0.09107956
0001b0 24 ec 55 3d 10 31 2b bd 90 8b 37 3d 37 58 51 3d
       0.052227154 -0.041794837 0.04481083 0.05110952
0001c0 2e 6d 6a bd df 00 00 be 07 59 c9 bd 33 98 ed 3d
       -0.057233028 -0.12500332 -0.09831434 0.11601295
0001d0 b2 d8 d7 bd b6 08 36 bd 92 eb 81 3d db 6a e4 bd
       -0.10539378 -0.0444419 0.063437596 -0.111531936
0001e0 19 b5 b6 3d a7 f9 23 3d 0a 02 8d bb 37 50 ce bd
       0.089212604 0.04003301 -0.0043032216 -0.100738935
0001f0 db b4 a2 bd 36 09 de 3d b8 2b e2 bd 28 ec ca 3c
       -0.07944652 0.108416006 -0.11043495 0.024770811
000200 3f c1 bb 3d 50 5a b0 bd 64 49 d8 3c 34 07 31 bc
       0.09167718 -0.08610976 0.026402183 -0.01080494
000210 f6 b1 db 3a dd 1e 94 3c 08 5b eb bd 16 a9 89 3b
       0.001676141 0.018081123 -0.11491972 0.004201065
000220 00 25 96 bc 51 8b 35 ba 2b 9f a8 bb d5 2d 80 bd
       -0.01832819 -0.0006925362 -0.0051459274 -0.06258742
000230 ed a6 76 bd 75 82 a9 3d 39 62 5d 3d 1b 3a 96 3c
       -0.060217787 0.08276836 0.05404875 0.018338254
000240 d4 ee e2 bd 87 6c 10 3d a1 e0 86 3d 41 41 97 3d
       -0.11080709 0.03525975 0.06585813 0.07385493
000250 e1 e4 8d 3b 78 12 6d bd 4d 14 f6 3d c7 9f df bd
       0.004330263 -0.05787894 0.12015591 -0.10919147
000260 03 26 c4 3c c8 c9 34 bd b3 8a e8 bd 96 67 31 3c
       0.023943907 -0.044137746 -0.1135458 0.0108279195
000270 54 fe 3f 3d 0a 6d 4a bd 6a 24 fb 3b 6c 35 43 bd
       0.046873406 -0.049420394 0.007664253 -0.04765837
000280 0a 8a d5 3d 36 d1 8c bd 59 c7 a1 3d a5 96 83 bd
       0.104267195 -0.06875841 0.07899351 -0.064252175
000290 92 a3 e5 bd ff 6e bc 3d 75 4f fe bc f4 24 bf 3d
       -0.11212839 0.09200858 -0.031043747 0.0933322
0002a0 c2 15 3b bc 4d 02 24 bd 1b ce f1 bc d8 eb b4 3d
       -0.011418762 -0.040041257 -0.029517224 0.08834046
0002b0 2a 92 f0 3c 21 45 0b bd e1 18 af bd ea b8 79 bd
       0.029366571 -0.034001473 -0.08549667 -0.060967363
0002c0 23 49 cc bc 28 2c c5 bd 5b 60 bd bd ce bf 99 3d
       -0.024937218 -0.09627563 -0.09246894 0.07507287
0002d0 b0 e2 88 bd e4 ae c0 3d f4 c9 cf 3d 60 2e e7 3d
       -0.06683862 0.09408358 0.101459414 0.11288142
0002e0 c6 07 7e 3d dc 09 9d 3c 95 47 03 ba a8 95 67 3d
       0.062019132 0.01916974 -0.000500792 0.056539208
0002f0 d4 b0 8f 3d d7 57 b8 3d b3 c0 3d 3d 12 32 f5 bd
       0.07016149 0.09001129 0.04632635 -0.11972441
000300 07 99 e8 bc a9 78 85 bc 0d ea 8b 3c 45 5d 56 bc
       -0.028393282 -0.016292887 0.017079378 -0.013083761
000310 5c 62 be 3d 4e 81 cb bd 30 6d e9 3c 80 9b 2c bc
       0.09296104 -0.09936772 0.028494447 -0.010535121
000320 94 17 a0 bd 71 0f 30 bd eb 98 dc 3c 5c 95 78 bd
       -0.07816997 -0.042983476 0.026928386 -0.060689315
000330 60 19 ad bd 66 5c d6 bd ce 81 e9 3d 21 c4 ca bd
       -0.084521055 -0.10466842 0.114017114 -0.0990069
000340 8e 39 61 bd 9f c2 9e bd 98 28 db bd f3 0c e0 3c
       -0.05498653 -0.07751965 -0.10701102 0.027349925
000350 6b d8 67 3c 22 db 14 bd 93 ea e6 3d c9 8f c3 3d
       0.014150719 -0.036341794 0.1127521 0.09548909
000360 70 e6 37 3d 17 aa d7 bd 1f 89 52 3c 61 75 98 3c
       0.044897497 -0.10530489 0.012850075 0.018610658
000370 97 e1 bf 3b 13 9a 95 bd 29 a4 15 bd 1c 80 97 bd
       0.00585575 -0.07304778 -0.03653351 -0.07397482
000380 92 45 58 bd 81 da f5 3c 23 75 bc bd 99 08 88 3d
       -0.052800722 0.030011417 -0.092020296 0.06642265
000390 89 03 3e bd a9 18 c5 3b 23 5c 1c 3b 15 54 9c 3d
       -0.04639009 0.0060149026 0.0023858629 0.07633225
0003a0 ec 69 9e 3d 77 4a be 3c 19 fa c7 bd 52 0c d6 bd
       0.07735047 0.023228867 -0.09764499 -0.10451569
0003b0 80 07 8c 3d ce 66 88 3d 93 7c f8 bd 4e 45 b5 bd
       0.06837368 0.066602334 -0.12133136 -0.088511094
0003c0 cc ef a2 bc 3c 6b d2 bd 37 8b 96 bd 90 7c d0 bd
       -0.019889735 -0.102743596 -0.07350772 -0.101800084
0003d0 44 cb ad 3d fd 3b f2 3d 27 ab 31 3d d2 6f 82 3d
       0.084860355 0.11827848 0.043376114 0.06368984
0003e0 7a f9 ca bd 56 18 f1 3d 1d 6d 1c 3d a0 c2 a9 3d
       -0.09910865 0.1177222 0.038189996 0.08289075
0003f0 f7 c4 19 bd 50 4e 38 bd 04 48 59 bd 07 1b 8d bd
       -0.037541356 -0.04499656 -0.053047195 -0.06889921

lstm.bias_hh_l0 f4 [256]
000000 ea 50 d0 bd 7f 64 05 3d f2 6b a6 3d f1 9d 0b bc
       -0.10171683 0.032566544 0.08126058 -0.008521543
000010 c6 00 fe bc 84 02 fa bb c9 d2 8a bd 24 1c a3 bd
       -0.031006228 -0.0076296944 -0.06778485 -0.07964352
000020 14 0f a5 bd 11 5e 5c 3d ae 23 d7 3d 0d 34 a4 3d
       -0.080595165 0.053800646 0.10504852 0.080177404
000030 a3 79 c6 3d d9 87 f8 bd a5 88 5f 3d 75 99 1b 3d
       0.09691169 -0.12135286 0.054573674 0.037988145
000040 06 dd f2 bd 30 ad 91 3d e5 65 59 bd 13 c4 f6 3d
       -0.11858563 0.07113111 -0.05307569 0.12049117
000050 9d 68 c7 3d b0 e5 c6 3d 3c df 74 bd 65 9e db bd
       0.0973675 0.09711778 -0.059783205 -0.10723571
000060 cd 0b 11 3d 5b c2 76 3d 1d 21 9c bd 07 b9 37 3c
       0.035411645 0.060243946 -0.07623503 0.011213548
000070 b0 e3 b7 bc 00 cf c0 3d 13 27 03 bd fc 00 ca 3d
       -0.022447437 0.09414482 -0.032019686 0.09863469
000080 d6 a7 03 3d 42 8f e8 bd 17 18 c6 bd ee 80 09 bd
       0.032142483 -0.11355449 -0.096725635 -0.033570223
000090 45 91 27 3d 8e 0e 7c 3d 2f 5e ce 3b 8e 98 4a bc
       0.040910024 0.061537318 0.0062978487 -0.012365473
0000a0 74 10 25 3d 38 e1 f0 3d 34 02 fc 3a ca 42 ad 3d
       0.040298894 0.11761707 0.0019226731 0.08460005
0000b0 f7 b1 3c 3c c7 73 5b bc 6c 72 c6 bc b9 45 8b 3d
       0.0115170395 -0.013394303 -0.024224482 0.06800408
0000c0 03 a2 fe 3d 5b 84 9e bd 28 bd 48 3d e3 b7 8b 3c
       0.12433245 -0.077400886 0.04900852 0.017055457
0000d0 7d d8 0b bc 4f 37 51 bd 7e ab 95 bc ce 3b 80 3d
       -0.008535502 -0.051078137 -0.01827025 0.06261407
0000e0 26 5a 86 bc ec d0 96 bd 0f 42 fa bd b8 3b 89 bd
       -0.016400408 -0.073640674 -0.12219631 -0.067008436
0000f0 3e dc bd bc 7f d8 0b 3c a3 60 37 bd 04 70 95 bd
       -0.023176309 0.008535503 -0.044769894 -0.07296756
000100 e7 0a f0 3d be f9 dd 3c 4d 6a 32 3d e0 aa 99 3d
       0.117208295 0.027096625 0.043558408 0.07503295
000110 c2 42 17 bd 35 dc c6 3d 38 1b 8a bc 94 b3 c4 3c
       -0.0369289 0.0970997 -0.016858682 0.02401141
000120 e0 17 f4 3c f1 0d 72 3c 07 4d a3 bc a9 c8 f2 3d
       0.02979654 0.014773832 -0.01993419 0.11854679
000130 15 fc f5 3d c2 1c a8 3c fb 9e 9d bd 4c 8b fc 3d
       0.120109715 0.020521525 -0.07696339 0.12331256
000140 4d cb b1 bd 96 07 b3 3d cc 82 50 3d ca 74 d9 3d
       -0.08681355 0.08741681 0.050905988 0.10617979
000150 bb e1 77 3d 89 41 15 bd 37 0a 94 3d 70 41 cc 3c
       0.060518008 -0.036439452 0.07228511 0.024933547
000160 c2 c2 cd bd 49 14 af 3b d7 82 a7 3c 83 86 0f 3d
       -0.10046913 0.0053429944 0.020448131 0.03504039
000170 2d f6 c3 bd f7 e7 b1 3d a6 9a 88 bd 44 5c 1c bb
       -0.09568439 0.08686822 -0.06670122 -0.0023858706
000180 ff b1 56 bd 8b a8 c5 bd 61 74 56 3d 34 68 c7 bd
       -0.052415844 -0.09651288 0.05235708 -0.09736672
000190 3b 86 ef 3c 22 3a 9d 3c fd ef d4 3d c5 32 90 3d
       0.02923881 0.019192759 0.10397337 0.070409335
0001a0 51 e3 d7 bd f7 20 64 3c 37 d9 2c bd 8d c0 30 3d
       -0.10541404 0.013923875 -0.04219934 0.04315238
0001b0 43 f2 bd 3d e8 7f 07 3d 14 f4 43 3d 22 31 82 bd
       0.092747234 0.033080965 0.047840193 -0.063570276
0001c0 3a 2b b2 bd 0e 44 d1 bd df 6f 9b bd 49 f6 ef 3c
       -0.08699651 -0.102180585 -0.07589697 0.029292243
0001d0 6a b9 bf 3d b2 e5 57 3d 20 4e de 3c b5 a6 a9 3d
       0.09361537 0.05270929 0.027136862 0.0828375
0001e0 f1 1a 1b bd 70 3c bb 3d c5 af 88 3d 2b e3 e3 3d
       -0.03786749 0.09142387 0.066741504 0.11127313
0001f0 e1 04 47 bd 4c 31 ac 3d b4 60 5b bd c1 df 00 be
       -0.048588637 0.0840784 -0.05355902 -0.12585355
000200 9d b0 af bd e4 0d fa 3d e8 f9 5f bd 3c b2 c3 bd
       -0.08578608 0.12209681 -0.05468169 -0.0955548
000210 81 85 ba 3c ca 86 13 3d 4e f3 34 3d 18 53 f2 bd
       0.022768738 0.036017217 0.044177346 -0.11832255
000220 7c 49 26 bd 40 e5 c0 3d 56 f7 be bd a5 66 d4 3c
       -0.040597424 0.09418726 -0.09324519 0.025927851
000230 5c 95 d5 bc 81 d6 57 bd 07 72 a8 bc 47 18 ed bd
       -0.026072197 -0.0526948 -0.020562185 -0.11576896
000240 98 98 ea 3d a3 93 4c 3d 7f a0 bf 3d 9f 34 b1 3d
       0.11454886 0.049945485 0.09356784 0.08652615
000250 90 cd 64 3d cb 5f d0 bd 63 5d a8 bd 7b 4e 8d bc
       0.055860102 -0.10174521 -0.08220937 -0.017249336
000260 fa d9 24 bc 2a 22 ad bd 33 db ae bd 96 f4 93 bd
       -0.010061735 -0.08453782 -0.08537903 -0.072243854
000270 75 ea f8 bd 9b a1 ce 3d 3c e3 fd 3d da 67 3b bc
       -0.12154094 0.100894175 0.12396857 -0.011438334
000280 ec 2a 96 bd 73 7c 5c 3d 6f 0f da 3d 24 0e d4 bd
       -0.073324054 0.05382962 0.10647475 -0.103542596
000290 54 59 8c bd db b0 19 bd ed 26 75 bd 61 96 70 3d
       -0.068529755 -0.03752218 -0.059851576 0.058737163
0002a0 e5 6e b6 3d 60 79 8e bd 5f e0 38 bc b8 2c bb bd
       0.0890787 -0.06956744 -0.011283963 -0.09139389
0002b0 5c 27 21 bd ad 3f 86 3d c9 8e d5 bd 3a a3 e1 bd
       -0.039344177 0.06555114 -0.10427625 -0.11017461
0002c0 21 4d 88 3d 08 65 e0 3d 24 f2 22 bc 1a f0 2e bc
       0.06655336 0.1095677 -0.009945426 -0.010677362
0002d0 b2 a5 62 3d 72 94 e2 3d 40 6d aa bc 30 4d 1d bc
       0.0553338 0.1106347 -0.020804048 -0.009600922
0002e0 b6 5a 61 bd ac 23 94 bc 37 a1 ed 3d e7 ec 21 bc
       -0.05501815 -0.018083416 0.11603015 -0.009883142
0002f0 ec c2 cb 3d d6 96 61 bd 46 d6 95 bb c2 18 33 bc
       0.09949288 -0.05507549 -0.0045726625 -0.010931196
000300 4a 67 7a 3d 1e b6 ec 3d be 1c 03 be 9a b8 6c bd
       0.06113366 0.115581736 -0.12803933 -0.057793237
000310 37 58 82 bd be 93 93 3d 99 8a bd 3d 26 3c af bd
       -0.06364482 0.07205914 0.09254951 -0.08556394
000320 be 4d d3 3d 4f 3f dc bd 7f f9 97 3d dc a4 07 3d
       0.103175625 -0.10754263 0.074206345 0.033116207
000330 0f 64 19 3d 1a 6a f3 39 3c 0f df bd c5 bd fc 3d
       0.03744894 0.00046427624 -0.108915776 0.12340883
000340 f6 3f 24 3d 63 73 b9 bd 5e 6a 04 3d 0b 57 d2 3c
       0.04010006 -0.090552114 0.032328002 0.025676271
000350 e6 98 12 bd ae d2 c6 bd 75 6a 79 3d aa e6 08 bc
       -0.035790347 -0.09708153 0.06089254 -0.008355776
000360 71 3f 9c bd 21 27 f6 3d 00 d0 6e 3d 64 2d 8d bd
       -0.07629288 0.12019182 0.058303833 -0.06893423
000370 46 73 49 bd d5 e9 cf 3d df 41 40 3d 18 4d 9f 3d
       -0.0491822 0.10152022 0.04693782 0.07778376
000380 96 35 91 bc 96 18 8a bd f7 3f cb 3d 99 b4 e5 bd
       -0.017725747 -0.06742971 0.0992431 -0.11216087
000390 80 ac fc bd 4f 69 75 bd b4 d9 b8 3d ba 75 4f 3d
       -0.12337589 -0.059914883 0.090258986 0.050649382
0003a0 a6 24 a7 3c e1 47 ec bd a3 db ee bd 76 98 25 3d
       0.020403218 -0.11537147 -0.11662986 0.0404286
0003b0 cc aa d3 3b f4 6e de 3d 2b 7b 8d bd 32 2e ae 3d
       0.0064595696 0.108610064 -0.06908258 0.08504905
0003c0 65 9a 5b 3c 23 d6 4c 3c 8f 21 fc bd 4e e1 a6 3d
       0.01340351 0.012502226 -0.12311088 0.08148442
0003d0 90 b4 9d 3c 82 a0 59 bd 0b ea 8a bc 90 b5 6a bd
       0.019251138 -0.053131588 -0.016957304 -0.057302058
0003e0 8b 5b 00 be 44 57 b0 bc 35 3a 26 3d de 71 a6 3d
       -0.12534921 -0.021525986 0.040582854 0.08127187
0003f0 71 89 31 3d 08 c7 b5 3c 77 ac c0 bd a1 40 a3 bb
       0.043343965 0.022189632 -0.09407895 -0.0049820696

lstm.weight_ih_l1 f4 [256, 64]
000000 c6 8b b6 bd ca aa 12 3d 77 46 b6 3d e4 62 d2 bd
       -0.089133784 0.03580741 0.08900159 -0.10272768
000010 73 11 01 bd 71 44 b4 bc a7 79 a4 bd 49 31 d3 3d
       -0.03151078 -0.022005292 -0.08031016 0.10312135
000020 5f 36 90 3b 8c 34 21 bd 63 02 30 bd bf a3 25 bd
       0.004401013 -0.039356753 -0.042971026 -0.040439364
000030 b3 c3 8f bd 48 14 07 3d 4e 39 a8 bd d0 56 6e 3d
       -0.070197485 0.032978326 -0.08214055 0.05818826
000040 92 2a 4d 3d 17 05 0a 3d cc 77 02 3d 43 4b 5c bd
       0.050089426 0.03369626 0.03185253 -0.053782713
000050 d1 54 ed 3d 4a a1 db ba 29 5f 8b 3c f7 db bf bc
       0.11588443 -0.0016756442 0.01701315 -0.023420317
000060 24 88 21 3c 4d 66 d6 bd 0c b5 74 bd 52 b5 08 3d
       0.009859119 -0.10468731 -0.059742972 0.033376046
000070 2c 83 6a bd aa a8 91 3d 76 bf 50 bb 2e 6d cc bd
       -0.057254 0.07112248 -0.00318524 -0.09981762
000080 e6 6c c0 bd d8 93 c7 bd 33 4d 87 3b 19 7c dd 3c
       -0.09395771 -0.09744996 0.004129076 0.027036713
000090 e9 1c c4 3d 82 61 f7 3d 80 b5 f6 3d 1b b4 ca bd
       0.09575827 0.12079145 0.12046337 -0.09897634
0000a0 5f 81 e5 bd f0 45 6d bc c1 aa 7e bd da c0 86 bd
       -0.11206316 -0.014482006 -0.062174562 -0.06579752
0000b0 6a 14 b6 3c 42 e1 c3 3d 34 9c fe bd c5 8b 52 3c
       0.022226531 0.09564449 -0.12432137 0.012850706
0000c0 53 c5 43 bc d4 e8 02 bd 39 13 04 bd f6 b3 b2 bd
       -0.011948901 -0.031960323 -0.032244895 -0.08725731
0000d0 b4 9b bf bc 3b 08 63 3c 50 5d e8 3d a2 63 12 3d
       -0.023389675 0.013856943 0.11345923 0.03573955
0000e0 b5 71 c0 3c 8f 21 7a bc f7 e5 a8 bd 96 b8 32 3d
       0.02349172 -0.01526679 -0.08246987 0.043633066
0000f0 de 5e d5 bd ef 5d 85 3c 7b 34 c3 3d fa ba de bd
       -0.10418485 0.016280143 0.09531494 -0.10875507
000100 59 06 c6 3d 29 5c 6e bc 41 84 e7 3d 48 0a 55 3d
       0.096691795 -0.01454834 0.11304522 0.052011758
000110 b4 06 de bd 05 96 c7 bd a8 69 21 bd 44 d3 44 3b
       -0.10841122 -0.09745411 -0.039407402 0.003003315
000120 59 ec 1a 3d 9e c9 01 3c d4 2f 21 bd aa ef 9b 3d
       0.037823055 0.007921604 -0.039352253 0.07614072
000130 50 9c 7b 3d b8 75 d4 3d 10 59 96 bd a1 df b5 bd
       0.061428368 0.103740156 -0.07341206 -0.088805445
000140 47 b4 d1 bd bf 20 c5 3d e6 de ab bd c1 a3 30 3d
       -0.10239463 0.096253864 -0.08392124 0.043124918
000150 89 af 62 3d 0f 59 73 3c 92 39 2f 3d 7c be 93 3d
       0.055343185 0.014852776 0.042779513 0.072140664
000160 c8 b0 25 3d 76 16 92 bd 49 b4 22 bb e0 7a 8d 3d
       0.040451795 -0.0713319 -0.0024826697 0.06908202
000170 c0 cf 94 3d de e3 c9 bd 33 fd 83 3b a8 15 54 3d
       0.07266188 -0.09857915 0.0040279864 0.051778466
000180 e8 12 fe bd f1 dc f2 3c 14 3d 24 3d 85 46 b7 3d
       -0.1240595 0.029646369 0.04009731 0.089489974
000190 08 6d d6 bd ed 90 6d bb 1f 55 3b bd 1f c7 cb bc
       -0.10470015 -0.0036249713 -0.045735475 -0.024875222
0001a0 15 ec 02 3e 02 dc 8d bd e3 ba 1e 3d c2 74 ca 3c
       0.1278537 -0.06926729 0.038752448 0.024713878
0001b0 a8 a2 d6 bd 3f 95 a2 bd 81 77 97 3d 5c a8 ad bc
       -0.10480243 -0.07938623 0.073958404 -0.021198444
0001c0 f7 d5 ec 3c 8c fc 5c bd 43 19 c1 3d db 11 58 bd
       0.02891062 -0.053951785 0.094286464 -0.052751403
0001d0 0a 04 ad 3c 79 84 ce 3d e6 d0 cd 3d 87 44 b6 bd
       0.02112009 0.10083861 0.1004961 -0.08899789
0001e0 50 34 a6 3d de 5e 9b 3c 06 80 93 3d 7a ed c7 bc
       0.081154466 0.018966135 0.07202153 -0.02440523
0001f0 eb 54 71 bd 21 8a 02 3e 56 57 d2 3d 77 fe 5e bd
       -0.058918875 0.12748004 0.10270564 -0.054441895
000200 d1 f6 9f 3d b8 bb ba 3c ea 9c c5 3d 4e 62 9b bd
       0.07810748 0.02279459 0.096490696 -0.075871095
000210 f7 8b 49 3d a6 ed d0 3d 55 88 a3 bd 82 81 28 3c
       0.049205747 0.10201578 -0.07984988 0.010284783
000220 c9 ed c4 bd e0 66 ee bd ef 2a 7e 3d 76 30 36 bc
       -0.096156664 -0.116407156 0.062052663 -0.011119952
000230 70 d3 89 bd 77 f2 72 3d 1f 68 60 bc b1 d6 dc bc
       -0.06729782 0.059313264 -0.013696699 -0.026957842
000240 86 db 49 bc 33 d4 69 3c c3 2a b9 bd 04 f0 44 bd
       -0.012320405 0.014271784 -0.09041359 -0.04808046
000250 7f b8 57 bd e8 e0 eb bd f7 f0 9a 3d 93 4a 2b bc
       -0.052666184 -0.11517507 0.07565492 -0.010454792
000260 ac 1c a4 bc 7e 0d 7c bd fe 5b 42 3d e3 9c 96 bd
       -0.020033203 -0.061536305 0.04745101 -0.073541425
000270 93 1a e2 3c e3 14 50 3d f9 e0 bb bc f8 b7 c4 3d
       0.027600562 0.05080117 -0.022934424 0.09605402
000280 78 c4 b0 bd 58 c6 aa bc ef 30 a6 bd 4e 3b b6 3d
       -0.086312234 -0.02084653 -0.08114802 0.0889803
000290 95 5a e8 bd f0 a4 c6 bd 81 35 b3 bd 23 97 94 bd
       -0.11345402 -0.09699428 -0.087504394 -0.072553895
0002a0 9b b1 13 bd 77 a9 11 3d d8 f4 e0 3d 21 1d c9 3d
       -0.03605805 0.035562005 0.109842 0.09820009
0002b0 78 01 cc 3d 63 b0 ab bd 6f f6 ea 3c 8a 8a 17 bd
       0.09961218 -0.083832525 0.028681962 -0.036997356
0002c0 f7 f9 32 bd e3 30 d1 bd 19 8c e0 3d ac 4a ea 3d
       -0.043695416 -0.102144025 0.109642215 0.11440024
0002d0 5e 65 8c bc 9e 37 e0 3d fb df 0f bc 1a 64 b6 bd
       -0.01713818 0.10948108 -0.008781428 -0.089058116
0002e0 4c 28 39 3d 2a 48 fa 3d ce 25 8e bc 8f 79 9e 3d
       0.045204446 0.122207955 -0.017352011 0.07738029
0002f0 0e 59 b3 bd 76 f2 05 bd 99 b9 73 3d b1 f5 8c 3d
       -0.0875722 -0.032701932 0.05950317 0.068827994
000300 b1 bf ce 3d 87 a9 31 3c d9 50 55 3d 58 b4 2c 3d
       0.10095156 0.010843641 0.052079055 0.042164177
000310 02 0f 66 3d 88 3b f5 bd 44 c3 c2 bd 6b ba 9a 3d
       0.056166656 -0.11974245 -0.095099 0.07555088
000320 47 9b 5e bd 89 c3 39 bd 1e ad 42 3d 0b 47 eb 3d
       -0.054347303 -0.045352492 0.04752838 0.1148816
000330 58 8f ee bd ba 3d 41 3d 26 8d f0 bd 1c 7c 94 bc
       -0.116484344 0.047178008 -0.11745672 -0.018125586
000340 06 00 f9 bc 98 af 0d bd b0 4f 70 bc 3b 04 8c 3d
       -0.030395519 -0.034591287 -0.0146674365 0.068367444
000350 49 73 94 3d 7c da 5a 3b ed 8a ad bb 44 b9 a9 bd
       0.072485514 0.0033394387 -0.0052961023 -0.0828729
000360 5c 78 d4 3d 20 5e af 3d 20 ff 3c bc ee fd dc bb
       0.10374519 0.08562875 -0.011535436 -0.006744138
000370 fe c0 f7 3b 0b 59 c5 3d 7a 0e 5c bc b9 9a 4d bb
       0.0075608483 0.09636124 -0.013431186 -0.003137274
000380 d9 53 d3 bd 38 a6 86 bd 80 d9 c5 3d 0f a2 95 bd
       -0.10318727 -0.065746725 0.096606255 -0.07306301
000390 00 c9 9f bc 51 b3 6e 3d 95 d6 8a 3c 87 c5 82 3d
       -0.019505024 0.05827648 0.016948024 0.063853316
0003a0 54 2c 7d 3d 30 fc 2c bd c9 e6 89 3d f4 33 fe bd
       0.061809853 -0.042232692 0.06733472 -0.12412253
0003b0 ec 6b f3 3d 7e d0 af bc 82 aa 35 3b 7a 13 d4 bd
       0.11885819 -0.021461722 0.0027720039 -0.10355277
0003c0 5d 4d eb bd b7 d7 42 bd b6 3b 74 bd d0 c2 25 3d
       -0.11489365 -0.047569003 -0.059627257 0.04046899
0003d0 fd 39 bf 3d c0 e1 18 3d 72 1e b7 bd 48 5a 90 bd
       0.09337232 0.037324667 -0.08941354 -0.0704847
0003e0 f9 3f a7 3d 7c b5 80 3d bc 00 95 bd 46 39 d8 bd
       0.08166499 0.062846154 -0.07275531 -0.10557799
0003f0 99 44 a1 3d a0 d8 e7 bd 4a a0 bd bd 4d 3a dd 3d
       0.07874412 -0.11320615 -0.09259088 0.108021356

lstm.weight_hh_l1 f4 [256, 64]
000000 4d c4 be bd 66 79 7f bd 59 44 1e bd c3 e7 4a bd
       -0.09314785 -0.062371634 -0.0386394 -0.04953743
000010 7d ff f5 3b f5 e1 dd 3d ab 71 39 3d 2f fb 3a 3d
       0.007507263 0.108341135 0.045274418 0.045649704
000020 23 1c 8e bd cc 7f 7b 3d c7 73 69 bd 66 b4 bb bc
       -0.069389604 0.061401173 -0.05699518 -0.02291317
000030 33 c2 88 bd ae 24 58 3d 3c 51 cc bd 5f e9 19 3d
       -0.066776656 0.052769355 -0.09976432 0.037576076
000040 ac 73 c8 bd 61 be 47 bd d3 ae b8 bc 62 f3 bf 3d
       -0.09787688 -0.048765544 -0.0225443 0.093725935
000050 4d 91 bd 3c bc b5 cc bc 5a 9e 42 3c 5f f5 31 3d
       0.023140574 -0.024989001 0.011878574 0.043446895
000060 0c 57 75 3c 7a 52 e6 bd ae cc 88 bd fa c8 df 3c
       0.014974367 -0.112462 -0.066796646 0.027317513
000070 d4 0e 73 3b e6 9a 9f 3d 0c 56 80 3d ce d9 64 3c
       0.0037087696 0.077932164 0.06266412 0.013967944
000080 24 14 99 3c fd 4c e5 bd 3d ab 5c 3d 37 5f a6 bd
       0.018686362 -0.11196325 0.053874243 -0.081236295
000090 98 71 c0 3c e8 51 fa bd e3 1c bb 3d dd 2a d9 3b
       0.023491666 -0.122226536 0.09136369 0.006627424
0000a0 66 38 8c 3c a4 20 02 3d db 3e bb bd 93 b7 2e 3c
       0.017116737 0.03176941 -0.09142848 0.010663885
0000b0 e2 0d 8c 3d de ac 8f 3d e9 62 60 bd 46 7b 1d bd
       0.068385854 0.07015394 -0.054781828 -0.03844764
0000c0 a8 db 09 3d 62 05 5e bd 0a f9 38 3d 4b ec 41 3d
       0.033656746 -0.054204352 0.045159377 0.047344487
0000d0 99 20 9d bd f4 09 bb 3d b6 03 96 bd 6a 7d 88 bd
       -0.07672233 0.09132758 -0.073249266 -0.06664546
0000e0 7d 52 99 3d 5f 19 a5 3d 24 68 07 3d 12 7e 7e 3d
       0.074864365 0.0806148 0.0330583 0.06213195
0000f0 ba 66 1d 3d c6 e9 f2 3d d7 7f e4 3d 41 90 24 bd
       0.038428046 0.11860995 0.11157196 -0.040176634
000100 1f 57 b3 bd d0 f3 27 bd 09 68 c8 bc 04 6a 03 3c
       -0.087568514 -0.041004002 -0.02446367 0.008020882
000110 00 92 20 bc 75 c3 c4 bd be 2b 05 3d 1e 22 8c 3d
       -0.009800434 -0.09607593 0.03251242 0.06842445
000120 72 fb c8 3d 90 22 85 bd a5 dd 6e bd 4d 16 e8 3d
       0.098135844 -0.06500733 -0.058316845 0.113323785
000130 42 69 af ba 3c 04 1b 3c eb e4 26 bd 52 9c 04 bd
       -0.001338281 0.009461459 -0.040745657 -0.03237564
000140 1d 4b de bd 73 1f d1 bd c2 c5 e5 bd 4f 61 e6 bd
       -0.108541705 -0.102110766 -0.1121936 -0.11249029
000150 02 58 87 bd 30 29 a4 3c 95 54 dc bc 82 de 08 bd
       -0.06608583 0.020039171 -0.0268958 -0.033415325
000160 ae 16 79 3c eb 69 88 bd 82 15 cd 3d b6 73 ae bd
       0.015203161 -0.06660827 0.10013868 -0.08518164
000170 ca b8 b0 3c 99 9e ac bd 18 3c 20 3c d1 a6 1b 3c
       0.02157249 -0.084286876 0.0097799525 0.009500221
000180 a7 17 8e bd fd 7d c7 3d 39 3e 7a 3d 73 ce f9 3d
       -0.06938105 0.09740827 0.061094496 0.1219758
000190 67 3e 83 bd 86 78 fc bd e4 39 b0 ba 83 0a e1 3d
       -0.06408387 -0.123276755 -0.0013444987 0.10988333
0001a0 dc bd 72 bd 2a 7e 0e 3d a0 f8 fe 3c 19 6f a7 bc
       -0.059263095 0.03478829 0.031124413 -0.020438718
0001b0 d9 7a 3a bd 7f bf b2 3d 60 2f f3 3d a1 ae e5 bc
       -0.045527313 0.08727931 0.118742704 -0.028037371
0001c0 fe c7 82 bc 5a 3d 9c 3d 0b fd 1f bd 04 cb a5 3c
       -0.015964504 0.076288894 -0.03905968 0.020238407
0001d0 ac af 0e bc 9e c1 57 bd 62 6c d1 bc 18 75 d3 3d
       -0.008708876 -0.052674882 -0.025564376 0.10325068
0001e0 1e 5f 48 bd 34 62 bb bd 0e 20 a2 3d 28 4f ca 3c
       -0.048918836 -0.0914959 0.0791627 0.024695948
0001f0 ae 1a a8 bd b9 5a 1f 3d 6d 49 a3 3d 94 15 cf bd
       -0.08208214 0.03890488 0.07972989 -0.101115376
000200 16 e5 44 3c be d4 95 3c 34 dd 94 bc a2 47 89 3c
       0.012017509 0.01828992 -0.018171884 0.01675779
000210 5b bc d9 3d ec 70 8d bd 39 ff 67 3c 47 92 56 3d
       0.10631629 -0.06906304 0.014159971 0.052385595
000220 fa 31 d6 3d 26 1c 9b 3d 70 10 ba bd 6e c2 fd bd
       0.10458751 0.07573728 -0.090851665 -0.123906
000230 ce 8f 0b ba 62 57 9c 3d f4 64 ad 3d e6 03 db bc
       -0.0005323858 0.076338544 0.08466521 -0.026735257
000240 a9 0a 7d bd 4f 70 e9 3c 35 0e b3 3d a9 4b 3b bd
       -0.061777744 0.028495936 0.08742944 -0.045726452
000250 bb a7 e0 bd c9 7c e0 bd 3c 84 b7 3d 09 f5 b6 3d
       -0.10969492 -0.10961301 0.089607686 0.089334555
000260 43 1d bd bd ea cd 82 bd a8 96 6d 39 56 e5 25 3d
       -0.09234097 -0.06386931 0.00022658205 0.040501915
000270 55 c5 25 3d bb 4a 1f bd e6 45 0b bd b2 25 7d 3d
       0.040471394 -0.038889628 -0.034002207 0.061803527
000280 93 34 d0 3d df 66 f0 3c 11 c6 ca bd a7 4e 46 3d
       0.10166278 0.029345928 -0.099010594 0.048414852
000290 d6 77 b9 3d 63 af be 3d be ae b4 bd a8 15 79 3d
       0.0905606 0.09310796 -0.08822392 0.06081167
0002a0 f6 41 e4 bd 4f f2 97 bc 8b eb b8 bc fc 82 a4 bc
       -0.111453936 -0.018548159 -0.022573253 -0.02008199
0002b0 a8 25 89 bd 81 a8 d9 bd b1 0b f6 bd 83 fc ea bd
       -0.066966355 -0.10627843 -0.12013949 -0.11473944
0002c0 f5 fc 1c bc b6 86 f9 3d cd 4b 26 3d 73 75 9a bd
       -0.009581794 0.12183897 0.040599633 -0.07541933
0002d0 2e 14 73 3d c2 b6 f7 3c 59 93 49 3d 26 82 b2 3d
       0.059345417 0.030238513 0.049212787 0.0871623
0002e0 cc 84 e4 bd 69 9a 9e 3d c0 05 f6 bd b5 fd 98 3d
       -0.111581415 0.07744295 -0.120128155 0.07470266
0002f0 f4 07 67 bd 4d 5b 97 bd 59 23 d2 3d fd 8d 96 bb
       -0.05640407 -0.07390461 0.10260648 -0.004594563
000300 20 52 89 3d 4d d3 d1 3c ea 18 b0 3d e9 d6 a1 3d
       0.06705117 0.025613451 0.08598502 0.07902319
000310 59 73 89 3d 8d 0d 1b 3d 8e 6d ad bd 23 a2 63 3d
       0.06711454 0.03785472 -0.084681615 0.055574547
000320 ec 1d 2e 3d 0e 05 86 3c 65 b0 b1 bd 14 8f 79 3c
       0.042509004 0.016359832 -0.08676223 0.015231866
000330 c2 ee 84 bc d7 a9 97 bc bb e2 3f bd b9 94 8d 3c
       -0.01622713 -0.018513603 -0.046847086 0.01728283
000340 ec b5 89 bc 77 f6 ef 3b 25 ff 28 3d 9b cf 95 3c
       -0.01681038 0.007323082 0.04125895 0.01828747
000350 fa a9 f6 3d f1 fa 77 3d 26 93 41 bd 13 3c e6 bd
       0.12044139 0.06054205 -0.047259472 -0.11241927
000360 1d 33 ee 3c 65 01 9e bd 92 e4 2d bc c1 88 04 3d
       0.029077107 -0.0771511 -0.010613577 0.03235698
000370 e8 29 6c bc 29 12 e0 3d 45 7e 68 3c 03 28 d9 3c
       -0.014414288 0.10940964 0.014190261 0.026508337
000380 3c 39 1f 3d c1 47 e3 bd 1a 44 aa bd 4d 45 e4 3d
       0.038872942 -0.1109767 -0.083137706 0.111460306
000390 4b 89 a4 3d 48 74 0d bd de 66 cc bd d1 56 83 bd
       0.08033999 -0.034534723 -0.09980558 -0.06413043
0003a0 53 61 0a bd 47 ae 99 3d a2 30 ce bd b1 23 48 3d
       -0.03378422 0.07503944 -0.1006787 0.048862163
0003b0 b4 8d 0a 3d 70 3a f9 bd a0 62 45 3d 4b 34 4b bd
       0.033826545 -0.12169349 0.04818976 -0.049610417
0003c0 87 2a 8a bd f3 9d 96 3d 8f 4c bd 3d 7c 36 93 bd
       -0.06746393 0.07354345 0.09243118 -0.071881264
0003d0 fe 92 88 3d 20 60 b4 3d f4 d9 d0 3d ab d4 76 3d
       0.066686615 0.08807397 0.10197821 0.06026141
0003e0 d5 91 ca 3c a0 b1 de 3d ad 2d 06 3d 1b 46 d7 bd
       0.024727741 0.10873723 0.032758404 -0.105114184
0003f0 58 d8 3c 3d 47 8c b1 bd 51 f6 c3 bd 95 47 84 3d
       0.04610476 -0.08669334 -0.095684655 0.06458966

lstm.bias_ih_l1 f4 [256]
000000 61 11 9f 3d 1b a9 6e bd cc 09 40 bd 03 e1 b2 3d
       0.07766987 -0.05826674 -0.046884343 0.08734324
000010 f0 96 17 bc c0 d2 49 3d 0a e9 89 bd e9 9d 8f bd
       -0.009252295 0.049273252 -0.06733902 -0.07012541
000020 32 29 bd bd d4 81 8e 3d 75 a1 eb bc 65 45 a6 3d
       -0.09236373 0.069583565 -0.028763512 0.08118705
000030 60 e3 12 bb f2 04 df bb 18 70 82 3c ce 15 9b bd
       -0.0022413358 -0.0068060094 0.015922591 -0.07572518
000040 5f e0 f2 3c 8c 40 19 bd 69 c3 45 bd ac e0 64 bd
       0.029648004 -0.037415072 -0.04828206 -0.055878326
000050 74 2d ff bd 7c cb cb 3d f1 b0 37 bd 31 a1 c3 3d
       -0.12459841 0.09950921 -0.04484648 0.09552229
000060 a3 4a 64 3d 5d 70 8f bc 44 33 4b bd 86 1e b6 3d
       0.05573524 -0.017509634 -0.049609438 0.08892541
000070 7b bb 81 3d 2b 31 2d bd 26 f7 7e 3d 3b 30 a5 bd
       0.06334587 -0.04228322 0.062247418 -0.0806584
000080 86 27 77 bd aa be b3 bd 79 17 f5 bd d8 93 05 3d
       -0.060340427 -0.08776601 -0.11967368 0.032611698
000090 16 ea 4c bc 65 83 0b 3d 7c 78 8c bd 40 80 8e bd
       -0.012506982 0.034060854 -0.06858918 -0.069580555
0000a0 ec dc d4 3d a3 04 ba bc 54 cd 7b 3d 4d bf dc 3d
       0.103937 -0.02270729 0.061475113 0.10778675
0000b0 ed 93 27 bd 2a ab 2f bd e4 be c8 3d ba 43 27 bd
       -0.040912557 -0.042887844 0.098020345 -0.040836073
0000c0 77 b6 f3 3d fb c7 cf bd 67 aa b2 bd 78 1d 12 3d
       0.11900037 -0.10145565 -0.08723908 0.035672635
0000d0 09 84 9e bd 1d fb 39 3d 68 e7 aa 3d 96 29 e7 3c
       -0.077400275 0.045405496 0.083449185 0.028218072
0000e0 cc 43 90 3d ce 55 d9 bd e7 24 a5 3d 95 54 a6 bd
       0.07044181 -0.10612069 0.08063679 -0.081216015
0000f0 d2 72 63 3d 9b 45 2a 3d 71 e6 5b bc a3 f8 ae bd
       0.055529423 0.041570287 -0.013421641 -0.085435174
000100 cd 18 ef 3d ed 90 99 bd f9 c4 ba bd ab 54 34 bd
       0.11674652 -0.074983455 -0.09119601 -0.04402606
000110 69 fa e1 bd 56 c0 6f bc 5f e6 8b 3d 3d f1 ec bd
       -0.1103409 -0.014633259 0.06831049 -0.1156945
000120 0e 8d d3 3b 90 ff 21 3c ea 64 0d bd a2 01 b6 3d
       0.006456024 0.009887591 -0.034520067 0.0888703
000130 0e da 83 3d 64 0b ff 3d 24 ce 6b 3d b2 10 5f 3d
       0.06438075 0.124533445 0.057569638 0.05445928
000140 52 65 be 3d a4 6e ea 3d 89 25 a8 bd 55 e2 2d 3d
       0.09296669 0.11446884 -0.08210284 0.042452175
000150 39 43 fb 3d 89 28 cc 3d 0e 55 c7 3c 4e e1 61 bc
       0.12268681 0.09968669 0.02433255 -0.013786627
000160 93 3f e0 bc 54 f8 80 bd 01 ca ad bd a7 72 4e bd
       -0.027374065 -0.06297365 -0.08485795 -0.05040231
000170 95 01 ab 3d b4 8c ca bd 58 94 f3 3d 35 5b db 3c
       0.08349911 -0.09890118 0.11893529 0.02677689
000180 18 40 7e bd 1b 84 e8 bd a7 06 a3 3d eb f6 87 bd
       -0.062072843 -0.11353322 0.07960253 -0.06638893
000190 95 5b dd 3c ae 32 96 3c 67 2c e0 3d 19 9d 97 bd
       0.027021209 0.018334713 0.10945969 -0.07403011
0001a0 80 61 fd 3c 7a 2e 78 3d 7f 4c 75 3d 18 23 1e bd
       0.03093028 0.0605912 0.059887405 -0.038607687
0001b0 58 15 32 bd 48 52 05 3c b0 09 15 3c 53 c0 12 bd
       -0.043477386 0.008137293 0.009096548 -0.035827946
0001c0 b2 5b d8 3d 8e 45 57 bd 2d 9b ce 3c 0c 2a c8 3c
       0.105643645 -0.052556567 0.025220478 0.024434112
0001d0 cc cf d6 3d 97 a5 f2 3b f4 84 2e 3d b7 8e b4 bd
       0.10488853 0.0074049938 0.042607263 -0.08816283
0001e0 43 cd 01 3c 7a 9e 34 3d 13 5c fa bd d6 b6 b1 bc
       0.007922473 0.044096448 -0.12224593 -0.021693628
0001f0 8e da 41 3d 20 37 94 bd 6a a4 d3 3d a1 07 14 bd
       0.04732757 -0.07237077 0.10334094 -0.036140088
000200 92 d1 4d 3d 38 7a a3 3c e7 d3 a5 bd c7 8e e3 3c
       0.05024869 0.01995574 -0.08097058 0.027778042
000210 93 fb ef 3c f8 38 bc 3c 4f 49 93 bd f2 0e e8 3d
       0.029294765 0.022976384 -0.07191717 0.113309756
000220 ac a7 6e 3c 28 87 eb 3d c8 77 c7 3d d5 c8 db 3d
       0.014566343 0.115003884 0.09739643 0.10731665
000230 d8 7d b2 bd 9c 47 cb 3d dc 81 cb b9 24 2d cb 3c
       -0.08715409 0.09925768 -0.0003881593 0.024801798
000240 ac 5a d9 bd 7c 5d 97 3c 99 17 7e bc c4 1a 8a 3c
       -0.106129974 0.018477194 -0.015508556 0.016858466
000250 7b 37 f8 bd 8e c8 d9 3c 76 50 69 bc bd 01 bf bd
       -0.12119957 0.02658489 -0.014240375 -0.093265034
000260 e0 57 0f bd 97 97 b4 bd 8f 5b f3 3d 25 61 d9 3c
       -0.034995914 -0.08817976 0.11882698 0.02653558
000270 96 f6 a3 3d fa ab aa bb af 0a 7f 3d e9 7f e0 3c
       0.08006017 -0.0052084895 0.062266048 0.027404742
000280 7f b3 bd bd 7c c3 7e 3c e9 f1 f4 bd de c0 8c 3d
       -0.09262752 0.015549537 -0.11960203 0.06872724
000290 3a 5c 87 3d ac f4 f6 bb 7a e8 fd 3d 46 c9 b7 bd
       0.06609388 -0.0075364914 0.12397857 -0.08973937
0002a0 19 09 86 3d 46 5c 44 bd 6f db 59 3d 0a 0d 35 bd
       0.06544704 -0.04793956 0.053187784 -0.04420189
0002b0 f1 a9 b3 bd 12 cc d3 3d 95 fb 5f bd de 8e 99 3d
       -0.08772648 0.10341658 -0.054683287 0.07497953
0002c0 64 1e 8e bd a0 78 ab 3d 49 86 72 3d dd 78 c5 bd
       -0.0693939 0.08372617 0.059210096 -0.096421935
0002d0 f0 d5 ae 3d 92 54 88 3d 68 63 bd 3d 0f c6 8a bd
       0.08536899 0.066567555 0.09247476 -0.06776058
0002e0 b0 be 4a 3c 92 b8 05 bd 7b 74 a5 bd ea 6e 3d bc
       0.012374565 -0.032646723 -0.080788575 -0.0115620885
0002f0 60 05 cd bd e5 89 d3 bc a4 be d2 bd b8 1b 4a bd
       -0.10010791 -0.02582259 -0.10290268 -0.04934284
000300 57 6a 1b bd 67 4b dc 3d ed 98 fd 3d c8 bf 12 3d
       -0.03794321 0.10756569 0.12382684 0.035827428
000310 23 ae 96 3d 22 da af 3d 0f 8a e3 bd 7b bd 02 bb
       0.07357433 0.085865274 -0.11110317 -0.0019949365
000320 6a 8c 9f bd a5 38 25 bd 4e ca 93 bd 4d 22 e2 bd
       -0.07790454 -0.040337224 -0.07216321 -0.110416986
000330 8a 3f 8b 3d 51 26 58 bd 55 28 5c bd 5a ab 26 bd
       0.067992285 -0.052770916 -0.0537494 -0.040690757
000340 9a 58 ce 3d 47 9f 97 bd c3 ac bc bc 09 07 91 bd
       0.10075493 -0.074034266 -0.023031598 -0.0708142
000350 11 c1 07 3d ac dc 4c 3d 69 54 b1 bd 55 5c f6 3d
       0.033143107 0.050015137 -0.08658678 0.1202933
000360 64 33 2e bd 18 e3 74 3d cc 17 37 3a ec 38 52 bb
       -0.04252948 0.059786886 0.0006984442 -0.0032077385
000370 03 86 3e 3d c5 6d 36 3c 6a 32 a9 3d 92 33 d7 3d
       0.046514522 0.0111345695 0.08261569 0.10507883
000380 ec c0 21 3d 55 88 92 bd c8 a8 b8 bd 87 aa 7c bb
       0.039490625 -0.071549095 -0.090165675 -0.003855379
000390 fe 45 ab 3c 55 1d 98 bd e1 f3 f5 bd 85 f7 34 3d
       0.020907398 -0.0742747 -0.12009407 0.044181366
0003a0 c0 48 38 3c 5e 5c 00 3e 6f 86 f2 bd be 43 97 3d
       0.011247814 0.12535235 -0.118420474 0.07385968
0003b0 7f 97 e0 3d f5 71 25 bd 7a e6 96 bd 29 60 ab 3d
       0.109663956 -0.04039188 -0.07368179 0.083679505
0003c0 ed c0 50 3c 79 14 9c bd 51 05 d4 ba ee 7a b4 3d
       0.01274131 -0.07621092 -0.0016175901 0.088125095
0003d0 6a d5 1f bb f1 82 de 3c 65 4b b1 3d d1 34 a3 bd
       -0.002438868 0.027162047 0.086569585 -0.07969058
0003e0 17 aa 9a 3d 23 85 0a 3d 53 a8 dd 3d 4d 68 ac bd
       0.07551973 0.033818375 0.10823121 -0.08418331
0003f0 cb 12 11 bd 7e 80 7a 3d 25 b5 0e 3c 0e 9c a4 bd
       -0.035418313 0.061157696 0.00871018 -0.080375776
