backend/ml/lstm/lstm_model.pt (torch, 211189 bytes, 9 tensors)

lstm.weight_ih_l0 f4 [256, 6]
00000000: 2c9b 06bd 02f7 843d a19c 8ebd dc99 49bd
00000010: dd06 993d 105e 7bbd a0db d3bd ac2c 8f3d
00000020: 9c05 573d 3814 19bd 3b2d 903d d0ba bf3c
00000030: a0a4 4d3c 3081 613c bb60 b63d 6a27 e3bd
00000040: 41eb a6bd 20d1 ecbb c015 b9bc e835 03bd
00000050: a349 cbbd 4030 893d 9dd5 15bd d49c 7e3d
00000060: fad4 c7bd 6011 fcbb 3a07 fdbd ecca 36bd
00000070: baab 06bd 0e46 eb3d 6468 adbd 9ec0 c03d
00000080: 01ee dc3d 7006 b43c a9d8 93bd 504e d1bd
00000090: 2031 5dbd 9801 a6bd d17b 60bd 008f c73c
000000a0: 9dba b8bd 60db d7bc 4a7b c63d 807c ca3d
000000b0: 4419 0d3b 84b8 44bd b89b d03d 8833 2e3d
000000c0: a46f bcbd c891 a93d 42ef b93d c268 bf3d
000000d0: 24b1 283d e03d 5dbd 90a4 cc3d b090 1abc
000000e0: 99fd c8bd c8ae 7dbd d9f5 b23d 385c 483d
000000f0: 96d4 c1bd f05e fe3c 764d 0ebd 4042 8b3b
00000100: d36a ad3b b838 cebc 8029 21bc c091 c53b
00000110: 0fe0 403d 2010 f33b baa8 cabd 20e8 b1bd
00000120: 38b0 603d e636 bc3d 45f6 9a3d 668e f13d
00000130: e358 a63c 5c6c 8b3d 8ca5 ccbd 00fc a93c
00000140: ac78 64bd fcd2 46bd 42fc c5bd 60b2 9cbd
00000150: 2a62 d1bd ccd7 75bd bbce a8bd 34da 65bd
00000160: 5578 fbbd f851 6abd 40ab 123c 5c04 c43d
00000170: 9946 e43d a8e7 1c3d c378 d3bc e06e 80bd
00000180: 700b 163c 806e e4bb 2836 a6bc 1891 8b3d
00000190: 53f7 d93d f6bc 91bd 56d4 e7bd f2ce b3bd
000001a0: c7ab fe3d c250 dd3d 6591 4c3c 922e d23d
000001b0: 3600 cabd 983f e0bd 6452 a73d 202e d3bc
000001c0: 1890 b83d 3a90 97bd cc27 da3d 60c0 adbc
000001d0: 5b09 bc3d ee27 f2bd add9 afbd ecc1 c1bd
000001e0: c268 98bd 5c6a c73d ea91 b23d 107a 5d3d
000001f0: 691d efbc d89c 6dbd a608 cabd b212 c03d
00000200: 0e2c 003d 982d 5bbd 48ae 193c fcf6 083d
00000210: 9c12 6bbd a6d9 adbd 35f5 77bd e491 3c3d
00000220: 553d d03d 7683 a73d 0c9f f63d 8064 cc3a
00000230: 280c a23d 7232 e3bd 8a52 c43d c09a cbbb
00000240: 9206 99bd e89e 233d 731e f5bd e812 173d
00000250: 5889 5dbd c094 183c 9416 4dbd 3cd2 e43d
00000260: 2736 6f3b 708a 9e3d fe21 023d 808a 8dbc
00000270: f0b5 e03c b0d1 f8bd d25c 6bbd f8ac 02bd
00000280: 1206 41bd 5a9c 9ebd 1cec 893d 1c67 913d
00000290: 0443 f3bc f2e8 b2bd 7aff 4f3d 20e2 bcbd
000002a0: d8bc 793d 8835 893c 845a 223d d0e2 05bd
000002b0: 1cb0 22bd 60fc a5bd aebd 803d f0eb 2abc
000002c0: 8e39 90bc 7c6a 87bd e5c2 06be 62a3 b43d
000002d0: e46c 33bd 1410 083d d788 7a3d d8b1 c0bd
000002e0: 6748 443d 2803 31bd 70b9 d5bd 8402 80bd
000002f0: a268 a43d 70b1 c33d f545 573d b86b c93c
00000300: 3836 c63c f472 c03d ef25 893c 9420 8cbd
00000310: 8723 91bd b09e 143c 904c d3bc 7cb1 edbd
00000320: fd4f 883d 18bc c63d 7fda a33d be7c 9c3d
00000330: 9649 973d a6a7 a83d ed18 3e3d 7066 843d
00000340: 1456 e73d 567e 9bbd 407b 87bb ce03 dd3d
00000350: d5d3 903c 00e3 1eba ef85 c6bd 5a10 9abd
00000360: 5867 eb3c 744b ec3d 32cb b6bd e044 db3b
00000370: 347e 89bd 1e47 b63d f0a3 f93d 80eb cfba
00000380: 9c85 e43d b01a 0bbd c02a e13c 8091 7cbc
00000390: 2af9 c83d 384a 48bd ffda 3fbd 8041 dc3c
000003a0: 5188 693d 5000 de3c 4aea d4bd 78ef af3d
000003b0: adae 3aba d82b 43bd b219 8a3d 44b0 7b3d
000003c0: 289f f03c f28b f7bd 6fdb 113d 5636 fabd
000003d0: 4591 58bd 20c5 44bd 408b 0b3d 3ce2 823d
000003e0: 5324 dbbd 4072 74bc a861 2abd a845 a4bd
000003f0: 5853 e03d a06d 0fbc 29f6 4ebc 3075 49bc
-0.032862827 0.064924255 -0.06963468 -0.049218997 0.07472012 -0.061369002 -0.103446245 0.06990942
0.052495584 -0.037372798 0.07039877 0.023404509 0.012551457 0.013763711 0.089051686 -0.11091502
-0.0815034 -0.007227078 -0.022593379 -0.03203383 -0.099261545 0.06698656 -0.03658067 0.06216128
-0.09757419 -0.007692501 -0.12354894 -0.044627115 -0.032878615 0.11487971 -0.084671766 0.09411739
0.10787583 0.021975726 -0.07219059 -0.10220015 -0.054001927 -0.08105773 -0.05480558 0.02436018
-0.09019969 -0.026349723 0.09691484 0.09887028 0.0021529952 -0.04802753 0.10185951 0.042529613
-0.09200981 0.08279759 0.09078838 0.09346153 0.04118456 -0.054014087 0.09992325 -0.00943391
-0.09813995 -0.061934263 0.08738298 0.04891607 -0.09464376 0.03105113 -0.03474184 0.004249841
0.0052922755 -0.02517353 -0.0098365545 0.0060293376 0.04708868 0.0074176937 -0.09895463 -0.086868525
0.054855555 0.091901585 0.075665034 0.117947385 0.020306056 0.06807777 -0.09992513 0.020750046
-0.055779144 -0.048541054 -0.09667255 -0.0765121 -0.102238014 -0.060020253 -0.08242556 -0.056116298
-0.12278811 -0.057207078 0.008951962 0.09571144 0.11146278 0.038306862 -0.02581442 -0.06271148
0.009158 -0.0069711804 -0.020289496 0.06814784 0.106428765 -0.071161196 -0.11319797 -0.08779706
0.12435108 0.10806419 0.012485837 0.10262789 -0.098633215 -0.109496295 0.08170012 -0.02577883
0.09011859 -0.07400556 0.10652122 -0.021209896 0.09181472 -0.11824022 -0.0858644 -0.09460816
-0.07441856 0.09737083 0.08719237 0.054071486 -0.029188829 -0.058010906 -0.09864931 0.09378566
0.031292014 -0.05351028 0.009379931 0.033438668 -0.057390794 -0.08488779 -0.060536582 0.04603757
0.10167948 0.08179371 0.120420545 0.0015593916 0.07912475 -0.11093606 0.095860556 -0.006213516
-0.07471956 0.039946467 -0.11968698 0.036883265 -0.05408606 0.0093128085 -0.05007036 0.111729115
0.0036500783 0.077412486 0.0317707 -0.017277956 0.027430505 -0.1214937 -0.057461567 -0.031903237
-0.04712493 -0.077446654 0.067344874 0.07099745 -0.029695041 -0.08735837 0.05078075 -0.092228174
0.06097111 0.016749159 0.039637104 -0.03268701 -0.039718732 -0.08104777 0.062861785 -0.010432228
-0.01760557 -0.06612107 -0.13160284 0.08820225 -0.043805018 0.03321846 0.061165657 -0.09408921
0.04792061 -0.0432159 -0.1043576 -0.0625048 0.080277696 0.09555328 0.05255695 0.024587497
0.024195775 0.093969256 0.016741721 -0.06842151 -0.070868544 0.009071037 -0.025793344 -0.11606118
0.066558816 0.09703845 0.08000659 0.0764098 0.07387082 0.082351014 0.04641049 0.06464851
0.11295715 -0.07592456 -0.0041345656 0.10791741 0.017679134 -0.00060610473 -0.096935146 -0.0752265
0.028735802 0.11537829 -0.08925475 0.00669156 -0.067135245 0.08900283 0.12189472 -0.0015863031
0.111582965 -0.033960998 0.027486205 -0.015415549 0.09813149 -0.048898906 -0.04683971 0.026886702
0.057014767 0.027099758 -0.103962496 0.08590597 -0.00071213656 -0.047649235 0.06743182 0.061447397
0.029372767 -0.12087239 0.03560966 -0.12217395 -0.052872915 -0.048039556 0.034068346 0.06390807
-0.10700288 -0.014919817 -0.04159704 -0.080210984 0.109533966 -0.008754164 -0.012631931 -0.012296006

lstm.weight_hh_l0 f4 [256, 64]
00000000: 1907 cc3d cb96 72bd ab37 023e 6c80 c1bd
00000010: 0e7e 4f3d 7ddf 61bd c634 28bd f432 a9bd
00000020: 5017 9fbd 2666 b63d d930 ff3d c30f dbbd
00000030: 5bc0 8abd 9f0d b23d 15dc b5bd 6ee5 8d3d
00000040: 75b5 2abc cc4b d83d d1ad c4bb 10d3 df3c
00000050: 3727 bb3d 2152 833c f1f6 333d 801f 94bc
00000060: 3db4 00be bd49 c63c 8a90 cabc 6262 d53d
00000070: 4a04 1cbd 2fcb d73d c633 dabd 7934 843d
00000080: 749c b2bd 5c77 9f3d fdb2 eebd 5c37 0f3c
00000090: 06dd dfbd c254 8c3d 6716 d9bd 2886 4c3d
000000a0: 4162 963d e7c8 b9bd 3203 f03b 6d8f ef3c
000000b0: cf51 503d 1459 e9bd 9ee0 77bd e025 143c
000000c0: 04d2 ddbd 9fb0 8f3c a96b 10bd b7c3 b3bd
000000d0: 341a 26bb 3ac5 8dbd 1292 f23c a27a c13d
000000e0: 2932 dfbd 362b f9bd 5b50 aabd ae88 b0bd
000000f0: b958 2d3d 1fc8 54bc 4aad 44bd 9451 ebbd
00000100: 5b5b e2bb 0e9b 073d 4106 8dbd 3460 fd3c
00000110: d428 f43d a576 2bbd 0aaa 933c 5aa5 e83d
00000120: e72a b93d ae36 9ebd 841f b23c fbda 4d3d
00000130: b000 14bd 2527 c9bd 1d78 afbd 29a6 0bbd
00000140: fc76 0a3d d912 9f3d f817 e2bd 50b6 b13c
00000150: 04a3 a7bd ddc8 8f3d b139 cfbd 2144 f63c
00000160: a178 ab3d 962d 5d3a 78bd 423d aa8c 603d
00000170: 8f93 19bd 6c0a 4039 aa13 fb3d 4b96 ac3d
00000180: 664f 0f3d afff b3bc 7fc0 a6bc 33b9 053d
00000190: 8917 e13d 4ed7 0ebd 5271 c73d 7617 8dbd
000001a0: b5ac bbbd bcbf 353d 655b 3dbd fc63 ce3d
000001b0: a52b bebd a6bb 37bd cf4c ae3d b4c7 babd
000001c0: 2abc b53d cb94 cc3d 2fc1 d8bc 3cdd d23d
000001d0: 36ae bbbb 04fc 81bd 996a c8bb fc07 29bd
000001e0: aa0e 6c3d 2664 0bbd a2df df3d 4b68 d73d
000001f0: c420 44bd 83c7 5e3b aaaa 053d b51a a83d
00000200: 4adc c8bd 6002 213d 4f03 b73d 6baf 8a3d
00000210: 660c 3ebd cfa0 923d c90c bd3c 9859 4d3c
00000220: 3235 cc3d 6f6f 6ebd 206d f33d 5325 3b3d
00000230: 6f68 e63c 806b d3bd 2ff7 e8bc d9b1 eb3d
00000240: 8814 e73c 772e 343d 1abc d73c 704c 9b3d
00000250: a2b1 c63c 6e6e 2a3d 27bf 3dbd aaa6 17bd
00000260: d60d d53d 9413 ca3d 778a 55bd 3d48 e7bd
00000270: 6fa1 91bc e142 c93d 6266 f0bd ac24 bb3d
00000280: 540f 76bc 05bc 8b3d 7203 c2bd b44d b0bc
00000290: 9d59 1a3b dbb5 7fbd dbaa bebd 8edb 24bd
000002a0: 0ed2 02be 4acf c53d 4dd3 f4bd 2b43 c53d
000002b0: 3501 08be f8a6 a13d 0627 ad3d 2be4 a33d
000002c0: 2240 b13d b221 6ebd 8b4c f1bc 1cf0 05bd
000002d0: 6227 8ebd 54c3 4cbd 0a0b a13d fcea 143c
000002e0: 3e14 8f3d 31dd 9e3c 26d7 82bd 07b6 86bc
000002f0: 66cb 69bd 5881 30bd fef3 3f3d 9e70 29bd
00000300: b577 4ebd 157e de3d 645b 07be 9436 f13d
00000310: 646c cbbd fc86 243d c4c0 a5bd f277 8abd
00000320: 984d c93d 4d5d 5cbd 38b8 fdbd 541d 8a3d
00000330: 155d 9bbd 8bb5 53bd 9426 05bd 9cbb a0bc
00000340: 1ee7 c5bc 631a fb3d 4c97 ec3c 9752 8dbd
00000350: 10a8 adbd ecf9 c63d 118d d0bd 3965 adbc
00000360: 9242 953d 7c15 d83d 2160 cd3d f1a6 f63c
00000370: 4839 4f3d 1238 82bd b0db 61bd 82d9 8fbd
00000380: 02df e6bc f436 72bc 5749 02bd 077e 01bc
00000390: bd8c 2cbd a687 dc3d a3fc cdbc 3c09 483d
000003a0: b485 fdbd 1fb6 c4bc 6c76 143d 0acc b53d
000003b0: 7074 cc3d b01b a33c 1f1a b1ba b749 cfbd
000003c0: ec30 9abd 2b24 893d 263a 94bb 6c53 e73d
000003d0: ec83 a8bc a946 abbd 003c c3bd 139d e0bc
000003e0: 7fb7 61bd 76a2 56bd 6d81 c7bd a73e 983d
000003f0: a3da c8bd 7ec8 05bd 1448 79bd ba56 10bd
0.09962291 -0.05922584 0.12716548 -0.09448323 0.050657324 -0.055144776 -0.041065954 -0.08261672
-0.077681184 0.08906202 0.12460489 -0.10696366 -0.0677497 0.08694004 -0.08879868 0.06928526
-0.010419239 0.10561332 -0.006002166 0.027322322 0.09138339 0.016030373 0.043936674 -0.018081427
-0.12568755 0.024205083 -0.024727125 0.10419156 -0.038090028 0.10536801 -0.10654406 0.06455321
-0.08721247 0.07786438 -0.11655233 0.008741226 -0.10930829 0.06852104 -0.10599976 0.04993263
0.07342959 -0.09071522 0.0073245997 0.029243195 0.05085927 -0.113939434 -0.060516946 0.009042233
-0.10831073 0.017540274 -0.035258923 -0.08777564 -0.0025345208 -0.069223836 0.029610667 0.094472185
-0.10898239 -0.12166445 -0.08316108 -0.086198196 0.04232094 -0.012987166 -0.048016824 -0.11490169
-0.006907863 0.033106856 -0.068859585 0.030929662 0.1192185 -0.041861195 0.018025417 0.11359663
0.09041386 -0.07725273 0.021743543 0.050257664 -0.03613347 -0.09821919 -0.08567832 -0.03409401
0.03380488 0.07767267 -0.11039728 0.021693379 -0.0818539 0.070207335 -0.10118426 0.030061783
0.083726175 0.0008437274 0.047543973 0.054821648 -0.03749424 0.0001831443 0.1225961 0.084271036
0.03498783 -0.021972505 -0.020355461 0.032647323 0.10990817 -0.0348733 0.09738411 -0.068892404
-0.091638006 0.044372305 -0.04622974 0.10077664 -0.09285668 -0.04485669 0.08510744 -0.091201216
0.0887378 0.099893175 -0.026459305 0.10296103 -0.0057275547 -0.06346896 -0.006116223 -0.04126738
0.057631172 -0.034031056 0.109313264 0.10517939 -0.04788281 0.003399343 0.03263346 0.08208219
-0.09807642 0.039308906 0.08936178 0.067717396 -0.046398543 0.07159578 0.023077386 0.012533568
0.09971084 -0.05821174 0.11886048 0.045689892 0.02812597 -0.103232384 -0.028438179 0.11508531
0.028208032 0.043989625 0.026334811 0.07582939 0.024254624 0.04160922 -0.046324875 -0.037024178
0.104030296 0.098670155 -0.052134003 -0.11293075 -0.017777173 0.09827209 -0.11738278 0.09137854
-0.015018303 0.06822971 -0.094733134 -0.021521427 0.0023551949 -0.06242929 -0.09309932 -0.040248446
-0.12775442 0.09658678 -0.11954365 0.09631952 -0.1328171 0.07893175 0.08454709 0.08002504
0.086548105 -0.058137603 -0.029455444 -0.03269969 -0.069411054 -0.049990967 0.07863434 0.009089228
0.06986283 0.019392582 -0.063886926 -0.01644422 -0.05707874 -0.0430921 0.04686355 -0.041367166
-0.05040713 0.10863892 -0.13218457 0.11777988 -0.09932783 0.040167794 -0.08093408 -0.06761159
0.09829253 -0.053799916 -0.123886526 0.06743875 -0.07586113 -0.051686805 -0.032507494 -0.01962071
-0.024158057 0.12260892 0.028880738 -0.069005184 -0.08479321 0.097156376 -0.10183156 -0.02116643
0.07288088 0.10550973 0.10028101 0.0301089 0.050591737 -0.06358351 -0.05514115 -0.07023908
-0.02818251 -0.01478361 -0.031808224 -0.007903582 -0.042126406 0.107680604 -0.02514488 0.04883693
-0.123790175 -0.024012623 0.03624575 0.08876808 0.09983146 0.019910663 -0.0013511813 -0.10121482
-0.07528862 0.066963516 -0.0045235334 0.11295208 -0.020570718 -0.08363087 -0.095329285 -0.027418649
-0.055106636 -0.05240103 -0.09741483 0.07433825 -0.09807327 -0.032661907 -0.060859755 -0.03523896

lstm.bias_ih_l0 f4 [256]
00000000: 14a0 283d e1f6 9bbb 89b3 03be cb41 d53d
00000010: 0506 953c d604 7a3d 9058 a33d 0041 fc3d
00000020: 21bb d2bd 4b75 bd3d 710d fc3d 1979 41bd
00000030: 54f6 3a3c 6b6a cb3d d1d2 ad3a 7390 c23d
00000040: 4481 5b3c 25a1 e7bd ad2e 28bd 2416 c9bd
00000050: e2cb 8dbd d1ea 193b a654 39bd 38e2 6f3d
00000060: d1e6 163d aa16 993b 7412 86bc 32a3 c5bd
00000070: a983 a6bd 4910 dbbd 629f edbc 191b a83d
00000080: d679 c43d bff6 cbbd 9d82 35bd 4e76 e1bd
00000090: 38a9 fc3d eced 04bd 277b f3ba 79b1 8d3d
000000a0: feb4 febc 3b4f 823c 835a d5bb fd8b 033b
000000b0: d9ad 023d 7741 fd3d 1971 f43a aeb5 7fbd
000000c0: 58f4 01be eaf7 f5bd 471b d1bd b9e9 c3bd
000000d0: 155e 8cbd 6359 b93d fffa 99bd 6d5c 99bd
000000e0: 80cb 33bd 1906 a8bc 1374 81bd 8e25 123d
000000f0: 682d 953d 75a9 c03d 9280 9b3d 7aa6 90bd
00000100: 721c 823d 2c81 823d d665 97bd 472b 18bd
00000110: c789 7dbc adae 03be a603 b33c 5e8c b7bd
00000120: 615d 49bd a526 42bb 53d1 bbbd 2e80 9b3d
00000130: ce40 9e3d d507 ae3d 1769 78bd 34d0 d43b
00000140: 259a fe3b 9bb4 553b f362 dabd 5080 713d
00000150: b047 63bd df30 cb3d 81bc 003e 716b 24bc
00000160: 7bcd 63bc 90b7 b33d e5d3 dc3d eae9 01be
00000170: 0bfa cabc 6c2c 3abd 4510 d03d 8b61 cd3d
00000180: 97f4 a43c 5425 4ebd 016a f13d 611e e03c
00000190: 104d b73d c370 12bc 8dec 1ebd 227c 3ebd
000001a0: a8c3 b13d 41dd f43b 8714 46bd 8d6c 203d
000001b0: ed07 eb3d 4fbf 90bd 445e 933d e39c 36bd
000001c0: b6d1 d13c 0af0 503d 1b04 9d3c 4524 5f3d
000001d0: db6c 51bd f189 693d 80eb e0bc ac47 803d
000001e0: b248 bfbd 4fa3 6cbd 31e6 7e3d 23a4 2a3d
000001f0: 5299 ac3d 4a10 2e3d 0dda 383d 3813 1d3c
00000200: a59a 2c3d 18a3 84bd e3d4 8abd 363a e0bd
00000210: d086 c83d 8b66 bbbc 7a84 15bc ecf2 fd3a
00000220: a57d d23d 8c63 68bc e1f5 d23a fb28 26bd
00000230: 3aab 703d be0c be3d ef54 e2bc a48d 10bc
00000240: b87d d5bd e361 18bd 6314 813c 251b a33b
00000250: 8783 b23c 5460 8e3d 8d7c e7bd 1ba2 833d
00000260: 75ae f4bc 4260 703d 1ee1 283d 5c4e afbd
00000270: 3edb b03d 849c b0bd e40e 0abc 964b e5bd
00000280: f2dd ee3d 3a03 89bd 4aef c33d be2e 4a3d
00000290: 96ca fcbc 92de bf3c 3460 c73c eaa0 21bd
000002a0: 80e8 293d 7486 eb3d 49e1 b33d 8d14 ee3d
000002b0: f446 973d aa65 9a3d a8d2 c8bd 8f44 503d
000002c0: bda1 d3bd d5a3 ed3d 0f0c 793d 0eeb 88bd
000002d0: 6c20 fc3c 3807 ed3d 573e f7bd 2b59 b3bd
000002e0: 66f4 7c3d 3bdd 843c 3963 aa3d 29bc 94bd
000002f0: 2d13 e03d f8b3 e2bc 330b 0b3d a559 b73d
00000300: 8c09 033d 7ec5 aebc cda5 b63d 36c1 00be
00000310: 53eb 603d b4b9 a93d 6d9b 903d c7c2 eabc
00000320: 584a c83d 5f01 15bd b9b4 e23d a9a0 a3bc
00000330: 98be 4dbd 7f37 39bd ac38 d1bb 0032 cc3d
00000340: c35d 9abd 9eff 7dbd c411 f13d b007 8cbd
00000350: dd0f e53c 9e2c 5f3d c72e a3bc 506c dabc
00000360: 5d6f abbd f1fe 1bbd 0eef a73c 21f9 783d
00000370: 0faf f7bd 1cbf c8bd 3334 35bd 4643 a33d
00000380: d20b 6fbd 2564 0f3c fdab aa3d 26cf 92bc
00000390: b226 3c3c b47d 993d 0c12 a13d e148 9ebd
000003a0: 8a67 ef3d 7b4e 823c 26dc 2c3d 4630 a03d
000003b0: 9391 953d 56b8 dbbd dd27 d73d 90a0 313b
000003c0: 88cf d4bd b3e0 1f3d e006 83bc 3f57 41bd
000003d0: fe3e 08bd 63b4 ee3c c201 dd3d d795 4abd
000003e0: d188 dfbd 8933 85bd bb93 82bd a816 ddbd
000003f0: 6b76 cebc 928e 73bc 7b8b 773c 6c19 e9bd
0.041168287 -0.004759655 -0.12861456 0.1041294 0.018191347 0.06103977 0.07975876 0.12317085
-0.10289598 0.092508875 0.12307251 -0.04723463 0.011411268 0.09932407 0.0013261681 0.09500208
0.013397519 -0.11310033 -0.04106014 -0.09818676 -0.06923653 0.0023485909 -0.045246743 0.05856535
0.036841217 0.004671891 -0.016366221 -0.09650268 -0.08130581 -0.106964655 -0.029006664 0.082082935
0.09593551 -0.099591725 -0.044314016 -0.11008893 0.123369634 -0.032453462 -0.0018576131 0.06918616
-0.031092163 0.01590692 -0.006511034 0.0020072453 0.031904075 0.12366002 0.0018649428 -0.062429123
-0.12690866 -0.120101765 -0.10210281 -0.095660634 -0.06853882 0.09050252 -0.07518577 -0.07488332
-0.043895245 -0.02051072 -0.063209675 0.035680346 0.07284051 0.09407321 0.07592882 -0.07063003
0.06353082 0.06372294 -0.073924705 -0.037150647 -0.015474743 -0.12859602 0.021852326 -0.0896232
-0.04916132 -0.0029625085 -0.09170785 0.07592808 0.07727204 0.084975876 -0.060647096 0.0064945463
0.0077698403 0.003260887 -0.10663404 0.05896026 -0.05548829 0.09921431 0.12571909 -0.010035382
-0.013903971 0.08775246 0.10782603 -0.12686887 -0.024777433 -0.04545252 0.10159353 0.100283705
0.02013616 -0.050328568 0.11787797 0.027358236 0.089502454 -0.008938017 -0.03879981 -0.0465051
0.086798966 0.0074726646 -0.04835942 0.039166022 0.11476121 -0.07067739 0.07195714 -0.044583213
0.025612693 0.05101017 0.019166997 0.05447795 -0.051129203 0.057016317 -0.027456045 0.0626367
-0.093400374 -0.05777293 0.062231246 0.04166044 0.08427681 0.042496003 0.045129824 0.009587102
0.042139668 -0.0647642 -0.06778886 -0.10948603 0.097913384 -0.022876045 -0.009125823 0.0019374765
0.10277871 -0.01418389 0.0016095006 -0.040566426 0.058757044 0.09279774 -0.02762839 -0.008822832
-0.104243696 -0.037202727 0.015756791 0.004977601 0.021791233 0.06951967 -0.11303053 0.064274035
-0.029868344 0.05868555 0.041230313 -0.08559868 0.08635567 -0.08623603 -0.008426402 -0.111960575
0.116634265 -0.066900685 0.09567125 0.049360983 -0.03085832 0.02342156 0.024337865 -0.0394601
0.041481495 0.11500254 0.08783204 0.116250135 0.0738658 0.07538922 -0.098058045 0.050846633
-0.103335835 0.11603514 0.060802516 -0.06685458 0.030777179 0.115736425 -0.12072437 -0.08757242
0.061756514 0.016218772 0.083197065 -0.07262451 0.109411575 -0.027673706 0.033946227 0.08952645
0.031991526 -0.021334406 0.08918343 -0.12573704 0.054911923 0.08287373 0.07060895 -0.02865733
0.09779805 -0.03637826 0.11069626 -0.01997407 -0.050230592 -0.04521894 -0.0063849296 0.09970474
-0.07537415 -0.062011354 0.11770967 -0.06837404 0.027961666 0.05448591 -0.019919766 -0.026662976
-0.0837085 -0.038084928 0.020499732 0.060784463 -0.12093937 -0.09802076 -0.044239234 0.07971816
-0.058360882 0.008751904 0.083335854 -0.017921042 0.011483835 0.07494679 0.0786477 -0.07728744
0.116896704 0.015906563 0.042202137 0.078217074 0.07303157 -0.10728519 0.1050565 0.002710376
-0.10391146 0.03903265 -0.01599449 -0.047202345 -0.0332632 0.02913875 0.10791351 -0.049459305
-0.109147675 -0.0650397 -0.063758336 -0.10795337 -0.02520295 -0.014865534 0.015108938 -0.11381802

lstm.bias_hh_l0 f4 [256]
00000000: f50d 73bc 8459 89ba 5618 10bd d3e7 d3bd
00000010: 95d2 0fbd 7c71 2dbd c228 d13c 0042 c9bd
00000020: 2713 8ebd 05ae 9c3d ed2e 973d 9383 3b3d
00000030: 0802 ab3c 459e e83d 5885 3f3d 1294 fcbd
00000040: 34f0 523d f23a 6b3d 16ef 933d 2d98 453d
00000050: e68e 80bd 619c 643d 168c 263d d405 2bbd
00000060: f52a 143d 4085 563a 6815 c03d 4080 cfbd
00000070: 6ef0 0f3d dc52 aa3c 2162 b5bc 5f40 e6bd
00000080: 2a0c 12bd 0d94 b5bd 1c0d bc3d 90ee ac3d
00000090: 4a39 8f3d b32c 67bd c3ad a83d 2089 59bd
000000a0: 8ede 8bbc 6f77 3dbd 4f79 093d 53b9 1dbd
000000b0: af5e d2bc 558d ccbd 3d90 7dbc 3fea d83d
000000c0: c090 a0bd eeab 8a3d 7144 8b3d 375e f23d
000000d0: 8b26 773d 62da 713d 4796 77bd 51e4 993d
000000e0: 6465 c43d 8e7f 9fbd 72c4 993d 8c1c 8c3d
000000f0: ea32 8e3d 391e 943d ae40 cebd 02ac 1dbd
00000100: 9974 b63d 5c3e 4ebc a205 5fbb 137e 3cbd
00000110: b331 4abd 41ea d93d cfa7 d3bd cf47 53bd
00000120: 2975 09bd caef e6bd dbe8 93bd a0f1 eb3d
00000130: 8d75 1dbd 7c09 d73c fa36 1cbd f37e 093d
00000140: f07f f1bd 9ca8 97bc a9cb aa3d f859 4abc
00000150: c01f 2d3d f1eb f4bd fd5d 493d 9022 a23c
00000160: 4e56 f33d d254 883d a3c7 a1bd ba81 b3bd
00000170: e3d4 69bd b509 de3d 65f7 4dbd bf10 393d
00000180: 0874 7b3a 046d bd3c f1ea 70bd 9f82 f3bc
00000190: 40db 9c3d f6ca e6bd 492f f2bd e2ee 2c3d
000001a0: 6294 793d 7468 a93d b521 dd3d 7bf6 98bc
000001b0: 3d13 c53d 90cc 69bd 6185 26bd 5dd6 ccbc
000001c0: 0e8b f83d 32b6 c3bd 67e3 48bb c1a0 423d
000001d0: 9595 573d 91de 5c3d d8c1 2ebd ec81 b23d
000001e0: d834 8a3d fac1 2bbc 9c8e 1bbd 4d94 943c
000001f0: e2c6 45bd 9cf1 7e3c 9dbc 9abd e39d 943d
00000200: 0700 0cbc b24d 853d 5fa3 7e3d effe b3b9
00000210: 28ce b73d 8f9d b2bd 8cb5 a53d 89cd dd3d
00000220: 50ca 9d3c 6a5f ac3c 4c60 3b3c 9ba4 e93d
00000230: add9 c3bc d2f1 f9bd 873f d23d 2c21 f13d
00000240: 4da7 383d 19ec 3d3d a900 c8bd 8117 9cbd
00000250: 773a fcbd 3c89 8a3d 949a e63b 5138 e43c
00000260: b013 343d 64e0 9d3d 68c2 ecbc 1204 fc3d
00000270: a814 7dbd c826 9fbd e7d3 9b3d b264 45bd
00000280: d94e 43bd 2688 ef3d 16b5 98bd 28d7 97bb
00000290: 9634 0a3d b296 b23c 0e38 dc3d 969c 56bd
000002a0: bfd7 ca3d 3633 323d 0ce9 c63b 3574 ccbd
000002b0: a894 cf3d f895 af3d feaa bfbd 6e9d f13d
000002c0: 718a ae3b 79d3 ee3d 77f2 463a ec8d ebb9
000002d0: 2d0b bd3d 7e25 9f3d 0ec2 a53c 042f 6cbd
000002e0: ac2a d0bc 516d cf3d e428 843c 9605 09bd
000002f0: 65b1 d83b a391 2abd cf29 eb3d 413b dabd
00000300: 7c04 56bd f4bd b4ba e355 d4bd 1993 d5bd
00000310: ae89 8f3d c499 a03d 84a4 19bd f0af 35bd
00000320: 76d7 983d 6b51 bbbc 18f6 a6bc 95fd 2f3d
00000330: c333 823d 5281 873c 9c5e 883d 162e 02bd
00000340: b584 ab3d 8d2f 013e 14f7 a2bd cc8f 2bbd
00000350: 0e14 85bd 7a86 a5bd c285 b4bd b74b ce3d
00000360: 22f1 91bc 39ab 47bd 1933 dd3d 8fc9 8bbc
00000370: 3501 ccbd 4d5b b63c 86db b63d 1639 e1bc
00000380: 30a0 1fbd 8a9e 533d 43b3 2e3d 8eed b33d
00000390: 8dbe be3d d277 ec3b d249 0cbc 016e 7a3c
000003a0: b32c 1fbd 1229 d73d 6b38 a93c 3eb3 b73d
000003b0: 7165 cd3d ef8d 6bbd 7470 34bc a22a 26bd
000003c0: d575 2ebd fef4 b1bc 522d 2d3d cf6b ee3b
000003d0: ca32 18bd 3dff d43d 6c89 89bd 6463 a2bd
000003e0: 5f22 3fbd 8c3d b23b 4549 4fbc f4f9 15bd
000003f0: a383 d5bc 2709 e6bd f0b0 a23d 1f85 083d
-0.014834871 -0.0010478948 -0.03517946 -0.10346951 -0.035112936 -0.042344555 0.02553213 -0.098270416
-0.06937247 0.07650379 0.07381997 0.045779776 0.020874992 0.113583125 0.046758026 -0.1233293
0.051498607 0.05742926 0.072233364 0.04824083 -0.06277256 0.055813197 0.04066094 -0.041753605
0.03617378 0.0008183308 0.09379083 -0.101318836 0.0351414 0.020791464 -0.022141518 -0.112427466
-0.03565613 -0.08866129 0.09182188 0.0844394 0.06993349 -0.056439113 0.082362674 -0.05310929
-0.017073896 -0.04625648 0.033562955 -0.038506817 -0.025679914 -0.099878944 -0.015476284 0.10591554
-0.07840109 0.06771074 0.068001635 0.11834376 0.06033949 0.059046157 -0.06044605 0.07514251
0.09589651 -0.07788001 0.07508172 0.068413824 0.06943305 0.07232327 -0.100709304 -0.038494118
0.08908958 -0.01258811 -0.0034030457 -0.04601867 -0.049363803 0.106403835 -0.10334741 -0.051582154
-0.033559 -0.11276205 -0.07222148 0.11520696 -0.038442183 0.02624964 -0.038138367 0.033568334
-0.1179198 -0.018513016 0.08339626 -0.012350552 0.042266607 -0.11959065 0.0491619 0.019791871
0.11881696 0.06656803 -0.07899406 -0.08764978 -0.05708779 0.10841695 -0.050284762 0.045181986
0.000959218 0.023123272 -0.058817808 -0.02972537 0.07659006 -0.112691805 -0.11825425 0.042220004
0.060932525 0.08271876 0.10797445 -0.018672219 0.0962281 -0.05707985 -0.040654544 -0.02500456
0.121358976 -0.095562354 -0.003065312 0.047516588 0.052632887 0.053923193 -0.042665333 0.08716187
0.067483604 -0.010483259 -0.0379778 0.018137122 -0.048285373 0.015560534 -0.075555064 0.07256677
-0.008544928 0.0650896 0.06216752 -0.0003433148 0.08974868 -0.08721458 0.08091268 0.10830218
0.01926151 0.02104159 0.011436533 0.11408349 -0.023907507 -0.12204327 0.10266023 0.11773905
0.045081425 0.04636774 -0.09765751 -0.076216705 -0.12315839 0.06764457 0.00703747 0.027858885
0.043964088 0.07708815 -0.028901294 0.12305464 -0.061787277 -0.07771069 0.076087765 -0.048191734
-0.047682617 0.1169589 -0.074564144 -0.004633803 0.033741556 0.021800373 0.10752879 -0.052395426
0.099044316 0.04350587 0.006070262 -0.09983102 0.10135776 0.08573526 -0.09358786 0.117976055
0.005326562 0.11661429 0.00075892307 -0.00044928433 0.09230647 0.07770823 0.020234134 -0.057662025
-0.025410973 0.10128272 0.01613278 -0.033452593 0.006612944 -0.041642796 0.11482584 -0.10655833
-0.05225037 -0.0013789521 -0.10367944 -0.10428447 0.07008682 0.078418285 -0.03751041 -0.04435724
0.07462971 -0.022865972 -0.020381019 0.042966444 0.06357529 0.016541157 0.0665867 -0.031782232
0.08374921 0.12615795 -0.07957283 -0.041885182 -0.06497966 -0.0808229 -0.08814575 0.10073035
-0.017815176 -0.048747275 0.10800762 -0.017063884 -0.09961168 0.022260332 0.089285895 -0.027493041
-0.038971126 0.051664867 0.042651426 0.08785544 0.093136884 0.007216432 -0.008562522 0.015285016
-0.038860988 0.105058804 0.020656785 0.089697346 0.10029114 -0.057508405 -0.011013139 -0.040568
-0.042592842 -0.021723267 0.04227955 0.0072760354 -0.03715781 0.10400245 -0.06715664 -0.079291135
-0.04666364 0.005439466 -0.012651746 -0.036615327 -0.026063746 -0.112322144 0.079439044 0.03333008

lstm.weight_ih_l1 f4 [256, 64]
00000000: 3222 de3d 0aa9 e83d f28b dd3c 67c3 97bd
00000010: 59a5 1f3d 5910 e33c 9ead de3d ff15 663d
00000020: 51c6 3bbd b1b4 373d 941d b2bd ce45 5fbd
00000030: fb4b 5abc 2e36 873d 6fca 7ebd d7d2 1fbd
00000040: fad3 d63c a497 90bd 916f 8b3c c485 0fbd
00000050: 22f9 ae3d 0049 523d 6772 ea3d 620b dfbd
00000060: dccb aabd d74a 9ebd fa1d 4ebc d5eb a43d
00000070: 349f ccbd 0221 d8bd cf66 b83b 9575 9f3d
00000080: 4161 083d 32ce cb3d eb53 61bd 365f 793d
00000090: 7809 dfbd 0597 b13d ba21 6dbd 4380 30bd
000000a0: 5471 b53d bfea 7f3d d43d ee3d 9b52 edbd
000000b0: 49cd 9a3d ae71 a3bd 4c47 bb3d c1be 253c
000000c0: f073 cf3d 3c7c c4bd 7e67 ee3d df6a cd3d
000000d0: db2c bebd 0777 40bd 45c3 eb3d 7a50 b4bd
000000e0: 4201 1abb 1102 f73d d179 06bc 60bf 18bd
000000f0: 99ee 4dbd 4e1c 13bd bf77 013e 0c85 dabd
00000100: 33f6 7e3d 546d 6abb b497 b03c 6ef4 873b
00000110: ccd0 23bd e772 6ebd 6986 603d 8fda 943d
00000120: 3803 bc3c 33ee 96bd 64af bfbd c1d0 a9bd
00000130: 4e63 333d 9ddb d63d d212 5e3d 6a33 223c
00000140: fa89 f83a 3559 063e f793 b23c ee6c 7cbd
00000150: ab3a 9f3d 4208 7dbd 207d df3d 00f4 f63d
00000160: 4a13 d5bc a4b5 e43d b74c 10bd d89f d13d
00000170: 2b66 a63c 10fa 0c3d 0c80 ce3d 4b8a 0fbd
00000180: b638 dd3c 4b98 fbbd 661d 92bd 01dc e1bd
00000190: 46c5 f93d 7dfd 433d 5894 d8bd 41e2 033e
000001a0: 1726 ff3d 5646 c5bb 414d a339 761c 6a3d
000001b0: ae64 25bc 266a 6cbd 5586 bc3d 46be acbd
000001c0: 4af9 e43d 80e2 98bd 2658 823d 50a2 e4bd
000001d0: 3b9e e93d b79a 15bd 9a2d 6bbd 466c 643c
000001e0: 9650 16bd ba41 ad3d a546 c9bd 13e8 a8bd
000001f0: 7e24 863d b53c aebd eeee 033d 85f6 adbd
00000200: 5705 46bd febe 90bd 85f4 b93d 4b14 e9bc
00000210: 6daa 7abd c6a2 a93d f088 b7bd 34ce a43d
00000220: 33ea 01be dac5 dfbd 1e95 923d 1171 24bd
00000230: dedf d43d 1355 8c3c 3337 b8bd 52c6 6fbd
00000240: e19a d9bd 5803 b7bb ecd8 c33d 2df8 44bc
00000250: ae08 e9bd 17bf 613d a05d d3bd 19cc ba3d
00000260: 563e ea3d 2639 543d 665d 43bd 2c75 d03c
00000270: 43f0 fc3c 317e 51bd ce76 a43d bf5e 94bd
00000280: a90d 00bd 4c02 cabc 0ef1 a23d f725 d83d
00000290: a6a0 023b 4ee5 133c d02a 8f3d 3fd7 b13d
000002a0: a627 a3bc c48b e93c 10c6 8a3b bcc4 013e
000002b0: 136c 373d 18b8 8239 0621 cf3b 7eec 12bd
000002c0: b1aa a6bd 4b5c 03bd 9420 ad3d e2e8 ea3d
000002d0: 36fc a33d 4229 cfbd 5792 d13d 28bf cdbc
000002e0: 9625 413d d067 e73d b138 e9bd 62be da3c
000002f0: 14b2 7b3d 64ea 55bd c700 d93d 9598 8b3d
00000300: 7186 68bd 3663 bdbd c6ce b23d 251c 4a3d
00000310: 88e3 0b3d 2383 123d f11b 873d 1b8c 993d
00000320: f66c 573d 8d89 86bd 7b7f 213d 0434 023e
00000330: d164 013d c441 02be 4995 343d 4677 953c
00000340: 9315 9ebc bd3f 203b 6ee8 59bd 3fb6 ccbd
00000350: 2f75 9e3b 66af 99bb c42d 813c 6890 10bc
00000360: bf9c 01bc edec 983d 30e9 e6bd 6e51 c4bd
00000370: 842e cbbc 0866 9b3d 3a7d c03d f16d 563d
00000380: c50e f43b 5eff d8bd d96a c63d 572f 923d
00000390: c993 c23d 31f6 0fbd cc75 72bd 7408 a43d
000003a0: 00cb 0abd b9c7 273d 3d1b c63d a358 8b3d
000003b0: 58a9 e33c 27bd a1bc 8f80 063d d2b7 d73d
000003c0: 3ed0 df3d f426 bf3d a5f7 d6bd 2241 d33d
000003d0: c767 103d fb6e cf3d c2b6 e23c 5ffa ee3d
000003e0: 6633 77bd 3e63 ca3d 66e3 b43c 42b2 853d
000003f0: 0745 e4bd 60a9 f73d 6b4f 07bd c881 fbbc
0.10846366 0.11360367 0.02704427 -0.07410317 0.038976047 0.027717756 0.108729586 0.05617332
-0.045843426 0.044850055 -0.08697048 -0.05450993 -0.013323779 0.06602131 -0.062204774 -0.039019432
0.026224125 -0.07060173 0.017020972 -0.03503968 0.08543612 0.05133915 0.11447602 -0.10890843
-0.08339664 -0.07729118 -0.012580389 0.08052794 -0.09991303 -0.10553171 0.00562749 0.07786099
0.033295874 0.09951438 -0.05501167 0.060881816 -0.10890478 0.08671383 -0.057893492 -0.04309107
0.08859506 0.06247973 0.116328865 -0.11588021 0.07558686 -0.07980667 0.09144458 0.01011628
0.10129535 -0.09594008 0.11640833 0.1003015 -0.09285899 -0.046988513 0.11511854 -0.08804412
-0.0023499285 0.12060941 -0.008207754 -0.037291884 -0.050276373 -0.035915665 0.12643336 -0.10669908
0.062246513 -0.003577073 0.021556713 0.0041490113 -0.039994046 -0.05821505 0.054815684 0.07268249
0.022950754 -0.07369652 -0.09359625 -0.0829177 0.043795876 0.10491107 0.054217167 0.009899953
0.0018962019 0.13119967 0.02179907 -0.06162732 0.07774862 -0.061775453 0.109125376 0.12058258
-0.026010174 0.11167458 -0.03522941 0.10235566 0.02031239 0.034418166 0.10083017 -0.035043996
0.027004581 -0.12284907 -0.071345136 -0.110282905 0.1219583 0.047849167 -0.10575169 0.12879278
0.12458437 -0.0060203476 0.0003114734 0.05715605 -0.010094805 -0.05771842 0.09205309 -0.08434729
0.111803606 -0.074650764 0.06364469 -0.11163771 0.11407133 -0.0365245 -0.057416536 0.01394183
-0.036697946 0.08459802 -0.098279275 -0.0824739 0.06549929 -0.08507673 0.032210283 -0.084942855
-0.048344936 -0.07067679 0.090798415 -0.02845206 -0.061197687 0.08283 -0.08961666 0.080471426
-0.12686996 -0.10926409 0.07157348 -0.04014689 0.10394262 0.01713041 -0.089949034 -0.058538742
-0.10625244 -0.0055851154 0.09562859 -0.01202206 -0.11378609 0.055113878 -0.10320592 0.0912096
0.11437671 0.051812313 -0.047696494 0.025446497 0.030876284 -0.051145736 0.08030473 -0.07244634
-0.031263027 -0.024659298 0.07956134 0.10554116 0.001993218 0.0090268385 0.06990588 0.08683633
-0.019916367 0.028509028 0.0042350367 0.12672704 0.044780802 0.00024932693 0.0063210754 -0.035870068
-0.081380256 -0.03207044 0.084534794 0.114702 0.0800709 -0.10115291 0.1023299 -0.025115564
0.047154985 0.112990975 -0.11387766 0.02670211 0.061449125 -0.052225485 0.105958514 0.06816212
-0.05676884 -0.092474386 0.08730845 0.049343247 0.034152538 0.035769593 0.06597126 0.07497426
0.052594148 -0.065692045 0.039428215 0.12715155 0.031590287 -0.127204 0.044087682 0.01824535
-0.019297397 0.0024452053 -0.053200178 -0.09995698 0.0048357467 -0.0046900986 0.015768893 -0.008823492
-0.007910906 0.07467065 -0.11274946 -0.09585844 -0.024802454 0.0758782 0.09398885 0.052350942
0.0074480497 -0.105955824 0.09688348 0.071379356 0.09500844 -0.035146896 -0.05919437 0.08009425
-0.033885002 0.040961955 0.09673164 0.068040155 0.02779071 -0.019743515 0.032837447 0.10533108
0.10928391 0.093336016 -0.10496453 0.103151575 0.03525522 0.1012859 0.027675036 0.11668848
-0.06035175 0.0988221 0.022081088 0.065281406 -0.111459784 0.120928526 -0.033034723 -0.030701533

lstm.weight_hh_l1 f4 [256, 64]
00000000: fe46 d4bd 0b2b dabd 3c6f e03d d9c2 f9bd
00000010: cd86 fc3d f98d 8fbd 1239 2c3d 68df cc3d
00000020: 855c 833d b88f c1bc 9200 b7bd 9a71 833d
00000030: 569a f13c 2b1a f8bd 7ca6 da3d f812 af3d
00000040: 2003 8b3d 8422 0d3d c2fb eb3d 1cf7 14bd
00000050: 2039 da3c 699f e6bd a73d 6fbd f028 e9bc
00000060: 2784 903d e23d 29bc 6986 e83d 6e6c 44bd
00000070: b8dd fdbd f44e 81bd 385f 3dbc 43be aa3d
00000080: 991f 1a3d fd39 42bd 0ebf e3bd b51d 053c
00000090: 2798 363d 4ba7 15bd d175 433d 3e7d cf3d
000000a0: c19f d93d 6538 243b ee3a 70bd 9be8 13bd
000000b0: 11d4 bebd c3ae e9bd 05fb 4e3d 2d16 5f3d
000000c0: f05d f83c b850 afbc 49cf eabb 6ed6 bd3d
000000d0: bde1 863d f919 053d 763d 693d 0ad8 87bd
000000e0: 2f10 0e3d e99a 17bc b90b 773d 319c e43d
000000f0: 809c 033d cffb c93c f274 bdbc 8022 d63a
00000100: 1d66 2d3d 98f7 bd3d 2e87 a2bd 1293 de3d
00000110: db09 a8bd 71c8 dbbd ea4a 4cbc 7b35 8e3d
00000120: c95c 60bd b4b6 94bc bc65 f6bd 60e7 0b3c
00000130: c25f 73bc 06d2 443d 0d23 e7bd 490b 83bd
00000140: e8df 80bd 4f4a 8fbd f3f1 ea3b 9d50 793d
00000150: 415e a43c 7bbf 1f3d abdb ac3d edf1 a93d
00000160: 4512 c53d d091 42bd 1439 97bc 1ab5 7ebb
00000170: 5fd5 02bd fb43 e53c ec33 fd3d cdfd 8b3d
00000180: 1290 4ebd 0099 cf3d 2db1 e3bd d010 9f3c
00000190: 4330 ae3c 763f 10bd 0dff 91bc 908d 343d
000001a0: 5b42 03bc a381 933d 088a f33d 14b2 dcbc
000001b0: 05d5 b5bd b358 d4bd 82d7 68bd b5d2 6cbd
000001c0: 7103 813d 2995 333d 68cf eabc b42c a1bd
000001d0: cb3c a03c cdb8 fdbc 450e 853c f999 cbbd
000001e0: 56e8 8b3c cb06 41bd 26f0 8bbd 01c8 1dbd
000001f0: b210 b63d 955d 41bd a45b 83bb 848a 333c
00000200: dfc4 72bc 10d2 dc3d 27fa 68bd a756 103d
00000210: 4c8e e5bc d2ac d73c a5ec e4bc 9271 843d
00000220: 5e7e 30bc 58f2 993d b56a dbbd 1c98 31bc
00000230: 0c3e bebc 7370 da3d 3f2d 62bd e2ca cfbd
00000240: 8679 a3bc 6038 d33d f0a9 bc3d 4b7f 4b3d
00000250: 4c5c abbc e0b0 7ebc 4684 c6bd 69b2 ba3d
00000260: aa64 8cbc 75fe cfbd 6c22 ddbd 4ed2 e23d
00000270: 3b98 8abd 935a 8d3c cd69 8ebc 6aa0 623d
00000280: 87b9 e3bd a299 833d 2e39 68bd 866b b3bd
00000290: db5a e7bd d915 11bd 50f5 afbd 96db 4a3d
000002a0: 1e56 c93c 4147 1e3d 631b 843c 9b86 8f3d
000002b0: e8dd d5bd 4cd6 5e3d 9cee a1bb f57a bcbd
000002c0: 5cac 13bd ac5c 5bbc fdfa debd 35f7 d63d
000002d0: c3fd bc3d ff53 34bd 1571 95bd 5b1f f0bd
000002e0: f186 683d c056 88bd 53ff d4bd 710b 2ebd
000002f0: ba44 d9b9 922d ee3d 0baa 583d 5f93 0f3c
00000300: f12b 833d 5a86 26bd 3ff8 b6bb 228d 85bd
00000310: a7a7 d2ba 12ad b13c 96ae f6bd f088 f63b
00000320: ebec 4e3c 1aa1 be3d d60d eabc 941a b63d
00000330: 0d95 3c3d 979c c53d ef30 973d 09a1 dabc
00000340: 2f0b fcbd 41b9 c73d a82f 5ebd ca0a febd
00000350: 9137 b7bd 0561 963d c60b e9bc b40b 143d
00000360: 4b9d 073d b7de db3d 314b 88bd 9aaf d9bc
00000370: f09a 833d 547b c73b 7308 ff3b 99e3 cabb
00000380: 64cd f4bd 603f c8bd 8a58 743d e9b4 a03b
00000390: c9a4 03be 87e5 75bd 14ba c6bd 19db fabd
000003a0: 6656 903c cd97 803c b051 01be 74a6 ad3d
000003b0: 556f a8bd 1e00 a03d 9518 a93d f9a2 d33d
000003c0: fdbe f93d 429f 6c3d 9219 87bc b60d 57bd
000003d0: 866a 92bd 93df 0d3d 246c 8bbd 95bb 853c
000003e0: ce72 493d be89 ddbd 1d46 ffbc 46c1 20bd
000003f0: bea3 783d 8555 a9bd 698c c53c 6fbe be3d
-0.10365103 -0.10652741 0.10958716 -0.12195367 0.12330399 -0.07009501 0.042046614 0.10003549
0.06414131 -0.0236281 -0.08935656 0.06418152 0.029492538 -0.12114366 0.106762856 0.0854854
0.067877054 0.034456745 0.11522628 -0.036368474 0.026638567 -0.11260874 -0.058408406 -0.028461903
0.07056456 -0.010329695 0.11353762 -0.04795497 -0.12395805 -0.06313887 -0.011558346 0.08337071
0.03762779 -0.047418583 -0.11120425 0.0081247585 0.044578698 -0.036536496 0.04771978 0.1013131
0.10626174 0.0025058028 -0.05864995 -0.0361105 -0.09317792 -0.11410286 0.05053236 0.054464508
0.03031823 -0.021400794 -0.0071658236 0.09269415 0.06586025 0.032495473 0.05694338 -0.06633003
0.034683403 -0.009253242 0.060313914 0.11162604 0.032131672 0.024656205 -0.023127053 0.0016337186
0.04233371 0.092757404 -0.0793594 0.10867895 -0.08205005 -0.107315905 -0.012469033 0.06943794
-0.054775987 -0.018153526 -0.12031123 0.008539051 -0.014854373 0.048051856 -0.11285982 -0.06398637
-0.06292707 -0.06996595 0.007169956 0.060867894 0.020064475 0.03900097 0.08440336 0.08298097
0.09622625 -0.04750234 -0.018459834 -0.003886527 -0.031941768 0.027986517 0.12363419 0.06835518
-0.050430365 0.10136604 -0.11117778 0.019417197 0.021263247 -0.03521677 -0.017821813 0.044080317
-0.008011426 0.072024606 0.11891562 -0.026940383 -0.08878521 -0.103684805 -0.05684615 -0.057818133
0.062994845 0.043843422 -0.028663352 -0.078698546 0.019560238 -0.030971909 0.016242156 -0.09941477
0.01707856 -0.04712562 -0.06832914 -0.038520817 0.08889903 -0.047208387 -0.004008727 0.010958318
-0.014817446 0.10782254 -0.05687919 0.035238888 -0.028021954 0.026327524 -0.027944872 0.06466974
-0.010772316 0.075169265 -0.10713712 -0.010839488 -0.023222946 0.10665979 -0.05521893 -0.10146119
-0.019955408 0.10313487 0.092121005 0.049681943 -0.020918034 -0.0155451 -0.09693198 0.0911606
-0.017137844 -0.10155956 -0.10797581 0.11075269 -0.06767317 0.017255103 -0.017384434 0.055328764
-0.11119371 0.064257875 -0.056695156 -0.08760743 -0.11296626 -0.035421226 -0.085917115 0.04952582
0.024577197 0.03864217 0.01612634 0.07008096 -0.10442716 0.05440359 -0.0049417745 -0.0920314
-0.036053047 -0.013388794 -0.10887716 0.1049637 0.09228089 -0.044025417 -0.07296959 -0.117247306
0.056769315 -0.06657171 -0.10400262 -0.04249138 -0.0004144067 0.116297856 0.05289654 0.008763163
0.064048655 -0.04065547 -0.0055837925 -0.065210596 -0.0016071693 0.021688972 -0.120450184 0.0075236484
0.012629728 0.093080714 -0.02857105 0.08891788 0.046040583 0.09649008 0.0738238 -0.026688116
-0.123068206 0.09752131 -0.054244667 -0.124044016 -0.08946145 0.07342724 -0.028447997 0.036143973
0.03310899 0.10735839 -0.066549666 -0.026572991 0.06426036 0.0060877 0.0077829896 -0.0061916825
-0.11953238 -0.09777713 0.05965475 0.0049043787 -0.1285583 -0.060033347 -0.0970346 -0.12248821
0.017619323 0.015697384 -0.12628818 0.08479014 -0.0822436 0.07812522 0.08256642 0.10333819
0.12194631 0.057769068 -0.016491685 -0.05250331 -0.07149224 0.034637045 -0.068077356 0.016324798
0.049181752 -0.10817288 -0.031161362 -0.03924682 0.06070303 -0.08268265 0.024114804 0.09313666

lstm.bias_ih_l1 f4 [256]
00000000: 94df cebd e186 a93d d545 d4bd 249a 11bd
00000010: eff5 fa3c db30 ef3d fd71 a33d 0c5c 973d
00000020: 8fe3 debd 5a11 1dbd 829d 14bd 8b5b c8bb
00000030: abd1 413b edbf be3b a29c 28bb 88c5 4bbd
00000040: bc92 fd3d 4f19 683d 351d bfbb 05af 743d
00000050: a333 6fbd bf7a 8c3d 861f 0b3d 2fdd 5fbd
00000060: ad8e 64bd 12bc 723c 1ba2 4bbd 701f c63d
00000070: d7e8 313d 90f2 a5bc 26dc b7bd cea2 5dbb
00000080: c832 d73c a89e fd3c d259 6d3d 81ad e93c
00000090: cbc5 d0bd e87b 9dbd e2ff 4abd 9cab cdbd
000000a0: 1e3e 763d e77e b8bd 62b0 913d 344c eabc
000000b0: 816b fabb 025c 013d 372f 6abc 0908 33bd
000000c0: b702 fe3d 6013 edbd 2531 023e 8d12 30bd
000000d0: cac9 54bd 03ec 743d 33ec 2ebd 4c78 a6bd
000000e0: 10f5 a53d e1a0 db3d 2723 e9bd 85b5 bf3c
000000f0: e710 d33d 356d ce3d 73be 6f3d a38c 843d
00000100: e597 6bbd 68ef 93bd c652 903d 22d8 b63c
00000110: 61b2 d53b d8fb d93d 2c9b 153c f489 89bc
00000120: 85e3 db3d 2a52 34bc 74c6 c7bd 5a7d 88bd
00000130: 0e8f 0b3d 8e9b 80bd efaf 57bd 549b 9a3d
00000140: 29c7 993c 6488 a3bc 4241 103d 1e89 3e3d
00000150: a27f 62bd 53e0 043d 4840 edb8 8366 d8bd
00000160: 70dd dd3c 4af6 28bc 9ce1 b6bd 86ef b1bd
00000170: 1a39 043c cb01 cbbd 743d edbd 41b1 de3c
00000180: 65a4 ac3d 835b 563d 4a5b cfbd 4ccc ebbd
00000190: 12bc ee3d 5358 9c3c 4d18 21bc 2fa3 1f3d
000001a0: 7d78 2a3d 9be7 12bd f5c4 df3c 7da2 afbc
000001b0: a4de e43c fc44 ebbd c66d 513d 21a3 7ebd
000001c0: 47c1 ef3d a550 d23d 39b1 85bc 0412 04bc
000001d0: 198a 543d 4f71 a1bd 0f95 153d 05e4 933d
000001e0: 2b07 db3c d9bf 90bb d643 99bd b10e 593c
000001f0: 3f2f d13d a272 a9bc aa3b 943c 493d 75bd
00000200: 2602 d93c e4b2 283c 9abd 603d 0845 e73d
00000210: e91f c73d db26 2a3d 8455 01bd eb05 903d
00000220: e3aa 263d 0f9e a4bc 1b8e 85bd 4463 443b
00000230: 482c a93c 9adb b33d da50 babd 877d 413d
00000240: 1599 1e3d 35cd 263d cd24 5c3d 76bf 8b3d
00000250: 75e7 88bd 8a8b 0cbd 1cd0 ef3d 78b1 df3d
00000260: 1765 48bd f18f 3bbd a8cc a13d cf60 243d
00000270: 5e54 d7bd 4ca2 d23d ad99 74bd 5d67 923c
00000280: 78dd bf3c 2298 e8bd 59ab 2abc 0d09 323d
00000290: d1c5 82bc 3e6d 8cbc 04c7 a8bd 0d91 a03b
000002a0: a59d cdbd 8d23 6e3d 71ba fb3c d3a7 4c3d
000002b0: 8a9d 5f3d f09f e1bc fb52 41bd 617f 1bbd
000002c0: a365 ffbb 1465 f33d cd19 6bbd b41a f73d
000002d0: 16a7 c2bd 4436 813d 2559 f6bd f4d5 9cbd
000002e0: 4643 9cbd 5191 c5bd 0f67 fb3c e830 a03d
000002f0: bfce edbd 40a6 e8bc eba3 dbbb 9a4b 003e
00000300: 0860 843c b5a6 ff3d e2c5 8f3c 6274 84bc
00000310: 5b4e 653c b507 aabd 9ef3 863d d15f 5d3b
00000320: 0eb9 fbbc 5594 eabd f9bd 61bd ba0d f63d
00000330: 32fd 81bc 6407 9b3d 4d96 dabd 24dc c63c
00000340: 0e11 16bb 6d8e 26bd caeb ef3c 6a0e b13d
00000350: 43fd 023d 31ff af3d 6843 f03d 93a7 893d
00000360: 2836 6cbd eeae 9dbd 2015 693d 3d0a c73c
00000370: 2587 9bbd 48c7 733c 57b6 e1bc f1d3 8b3d
00000380: 46c4 f739 2ea3 3e3d 26d6 5abd 574b d33d
00000390: c0d7 8a3d 8439 ed3d 1988 6a3d 3dc2 f23b
000003a0: 032a 8f3d f262 a23d cdad 63bd 49e9 66bd
000003b0: 4ab0 cebd be8f 0fbc a15e bfbd 7445 ac3d
000003c0: a09b 49bd d61a 74bd e011 8d3d 983f 823c
000003d0: 5a88 ecbb dbfe 953d 5500 0e38 f329 41bd
000003e0: df19 cd3d 32fb 8d3d 1ac3 a2bd fec6 8d3d
000003f0: 8499 523d 90fb d43d bbab 3b3d aa02 d13d
-0.10101238 0.08277679 -0.10364882 -0.03554739 0.030634848 0.1167924 0.07980726 0.073906034
-0.10883247 -0.038346626 -0.036283024 -0.0061144284 0.0029574435 0.005821219 -0.0025728126 -0.049748927
0.12381503 0.05666476 -0.005832339 0.059737224 -0.058398854 0.068593495 0.03396561 -0.054654296
-0.05580013 0.014815347 -0.049715143 0.09673965 0.043434944 -0.020257264 -0.08977537 -0.0033818963
0.026269332 0.030959442 0.057946987 0.028525116 -0.10193976 -0.07689649 -0.049560435 -0.100424975
0.060117833 -0.0900858 0.071137205 -0.02860079 -0.00764221 0.031581886 -0.014293483 -0.043708835
0.124028616 -0.11575961 0.1271406 -0.04298644 -0.051950254 0.05979539 -0.042705726 -0.081284136
0.081033826 0.107240446 -0.11383658 0.023401985 0.10305958 0.10079423 0.058531236 0.06472137
-0.057517905 -0.072233975 0.07047038 0.022319857 0.0065215086 0.106437385 0.009131234 -0.016789414
0.10736755 -0.011005918 -0.09754649 -0.06664534 0.034071974 -0.0627967 -0.052658018 0.07549158
0.018771725 -0.019962497 0.035218485 0.046517484 -0.0552975 0.032440495 -0.00011313014 -0.105664276
0.027083129 -0.010312626 -0.0892975 -0.086882636 0.008070255 -0.09912451 -0.11583987 0.02718413
0.08429793 0.052333366 -0.10124834 -0.11513576 0.11656965 0.019085085 -0.009832454 0.038973983
0.041618813 -0.035865407 0.027315596 -0.021439785 0.027938195 -0.11487767 0.05113008 -0.06216729
0.117067866 0.10269288 -0.016319858 -0.008060936 0.051889513 -0.0788294 0.036519106 0.07221226
0.026736816 -0.0044174013 -0.07483642 0.013248132 0.102140896 -0.020684544 0.018094856 -0.0598729
0.026490282 0.010296557 0.05486832 0.112924635 0.09722883 0.04154096 -0.031575695 0.07032379
0.040690314 -0.0200949 -0.06521245 0.0029966393 0.020650998 0.0878212 -0.090974525 0.047238853
0.03872021 0.040723044 0.053746033 0.06823628 -0.06684772 -0.034312762 0.117096156 0.10922521
-0.04892453 -0.04579157 0.07900363 0.040131386 -0.10514139 0.10284862 -0.05971687 0.017871553
0.023421034 -0.11357142 -0.010416829 0.043465663 -0.015963467 -0.017141934 -0.08241084 0.004900104
-0.10039834 0.058139373 0.03072855 0.049964737 0.0545936 -0.027542084 -0.047198277 -0.037963275
-0.0077940985 0.118845135 -0.057397652 0.1206564 -0.09504525 0.063091785 -0.12028722 -0.07657996
-0.07630019 -0.096468575 0.03068879 0.07821828 -0.11611699 -0.028399587 -0.00670289 0.1252884
0.016159073 0.12482969 0.017550413 -0.016168777 0.013995732 -0.08302251 0.06589435 0.0033779035
-0.03072789 -0.11454073 -0.055112813 0.12014337 -0.015867803 0.07569769 -0.10673199 0.024274893
-0.002289835 -0.04066317 0.029287238 0.086453274 0.03197981 0.08593596 0.11731607 0.06721415
-0.057668835 -0.07699381 0.056904912 0.024296874 -0.07594136 0.014879055 -0.027552767 0.06827534
0.00047257746 0.04654234 -0.053426884 0.10317104 0.06779432 0.11583236 0.0572587 0.007408409
0.06990435 0.079290286 -0.05558567 -0.05637482 -0.10092218 -0.008762298 -0.09344221 0.08411685
-0.04922068 -0.059595905 0.06888175 0.015899464 -0.007218403 0.073240004 3.3855747e-05 -0.047159147
0.100147 0.06932677 -0.07947369 0.069227204 0.051415935 0.10399544 0.04581807 0.10205586
