backend/ml/lstm/lstm_model.pt (torch, 211189 bytes, 9 tensors)

lstm.weight_ih_l0 f4 [256, 6]
00000000: 4217 c6bd cefb bb3d afd3 08bd d80a 0b3d
00000010: 5821 a2bd 2c1b 77bd 6c74 6a3d a0bd 833c
00000020: 1e3c afbc a844 633d e5c1 203d 9877 8d3d
00000030: da38 bcbd d82e a53d c6ba a53d 7cb2 9abd
00000040: 4f3b c2bc 5c1f ac3d 50b7 fc3c 7269 963d
00000050: 6516 e33d 1250 a63d e7bb babc 6893 c03c
00000060: 904b f83c 68ab 873c c3db a8bc 00a0 be3d
00000070: 69cf 343e 7843 fb3d b82c 1c3d c8b5 1f3d
00000080: b25b dc3d 5cea 46bd 7795 a73d a0a7 21bd
00000090: 945d 663d 5cbe 193d 05c7 e43d 30bc 8abc
000000a0: 73ab 333e 206d b3bb 80b6 413c 08b0 7ebd
000000b0: 069c a2ba 40c7 74bc 33e2 1c3e 4acc d0bd
000000c0: 4c80 debd 2459 d9bd d44f 1bbd e0e6 d33c
000000d0: 3ee0 82bc e085 b0bc 9889 eb3d 2897 863c
000000e0: 65b0 483c c8e6 1f3d 88fe 093e d802 e03d
000000f0: 1694 f5bd 7c93 c43d 9b0a ed3c 28cc f4bd
00000100: f366 cdbc da3b b23d 4841 a13d 20c5 f2bd
00000110: 0ef8 503d 908f a3bd ccb3 9f3d 1078 0cbd
00000120: 2452 25bd f6c0 c23d 374a 3a3d 8083 f2ba
00000130: f079 a33a 40dc b93c 0ca4 cf3d f849 f9bc
00000140: 0b84 5bbc 5ca3 843d d735 1e3c 4c94 79bd
00000150: 30b6 d83d 76c7 81bd c0df 7cbc 302e febc
00000160: 8ebd c53c 600b 19bc d4e6 2d3d 106e 2cbc
00000170: a936 79bd 1e51 c03d 2966 97bd 4cd9 ce3d
00000180: b0c2 d93c fe8b e4bd 9d8e 7abd 8495 843d
00000190: 4142 11be 10e3 dc3c 3aca c63d 4459 72bd
000001a0: 7186 18bd c06a 9b3d 2b9a 29bd 64fd 3bbd
000001b0: 809f f03d 20a5 b8bd 15e5 b4bb be73 dd3d
000001c0: 13cc 0bbe 6032 8b3c c0ba 6cbb ecdc a43d
000001d0: 25dd 383e d09c 5a3d f5fb 323e 5a7c d7bd
000001e0: a206 b9bd f0f1 323d c7ef 043e c884 863c
000001f0: 5ad1 c13c 54e0 d03d b06a bcbd 88fc a2bc
00000200: 37b7 c73d 007d c63d 06d9 093e 0430 39bd
00000210: 482d 6fbd a41f aa3d cde6 153d 006f 873d
00000220: 4e5e dfbd 3481 143d 74e2 09bd 3cf2 51bd
00000230: 868a 3cbd 3096 89bc eb20 0abe fc9c 453d
00000240: 4457 8d3d 7897 c13c 9741 a2bc eac4 e4bd
00000250: a28b 1f3e 3c78 d13d d00e 62bd 7039 ba3c
00000260: 3ea5 893c 780d f5bc 491e 363e 144d 35bd
00000270: 2074 53bd 10ef c43c c9e7 b93c 5436 48bd
00000280: 412d bd3d e05a 93bd 8e96 823d c478 33bd
00000290: e908 403d 06af bdbd 4eb5 e03d 00fc d33b
000002a0: 82fd d3bd 60e9 eabb 85d4 1d3e 48e4 a33c
000002b0: 666d 113a b859 fc3c 7852 16bd 2067 9d3b
000002c0: baf5 e2bc 30c3 14bc 921b d03d 4461 5dbd
000002d0: 6461 ef3d cab2 c1bd 7d35 0cbc b486 debd
000002e0: 3bb1 44bd 08fa 8f3c a01c 18bc c09e 5ebb
000002f0: b1fb 38be 580f a6bd 73e6 24be 3408 f53d
00000300: 80b0 5bbc f639 913d eb9d ffbd 804c 853b
00000310: 3321 0a3d c837 c2bd ee8d f9bd e860 943d
00000320: c164 653d 62c6 9dbd dba8 ef3d c034 ccbc
00000330: 7eb9 8bbd d461 1ebd 9760 0a3e 7883 37bd
00000340: a3ca d63c d49a 293d 085d 4cbd c011 89bb
00000350: 2f2a 9e3d 1261 d6bd fc56 703d 0c7f 09bd
00000360: c89a ce3d 7094 46bd 4b31 b03c 96df e3bd
00000370: 68bb 323e 02ce cbbd dcd5 f8bd 02a5 a4bd
00000380: 837f 123e 1cdf a3bd 0872 f73c d406 adbd
00000390: 1e54 a43d 905f 82bd 0660 7ebc 840d 21bd
000003a0: 7cb1 a43b 7876 233d ec7a 513d 84e5 22bd
000003b0: a0f7 a33c 624f fe3d d60f d33d b2fc c53d
000003c0: bc74 313d eee7 acbd 23cb 4cbe 0864 dfbd
000003d0: 6b9a 1dbe 9af0 dbbd 2e7d e53d 3627 9a3d
000003e0: c300 22bc 3ca8 72bd ddf9 edbd 401a 483b
000003f0: b01d 973c 12ff e4bd 42a9 ac3d 40f7 1bbc
-0.09672405 0.09178887 -0.033405002 0.03394589 -0.07916516 -0.060328647 0.057239935 0.016081631
-0.02139097 0.055485398 0.039247412 0.06907576 -0.09190531 0.08065575 0.08092265 -0.075535744
-0.023709921 0.08404419 0.030849129 0.07344331 0.11088256 0.08120741 -0.022794677 0.023507789
0.030309469 0.016561225 -0.020612603 0.09307861 0.17657246 0.12268728 0.038128585 0.03899172
0.10759677 -0.048563346 0.08182805 -0.0394665 0.056241587 0.037535056 0.111707725 -0.016935438
0.17545871 -0.005475655 0.011823297 -0.062179595 -0.0012406118 -0.014940083 0.15320663 -0.10195215
-0.108643144 -0.10612705 -0.037917927 0.025866926 -0.015976068 -0.021548212 0.11500853 0.016429499
0.012249087 0.03903845 0.13476002 0.109380424 -0.11991136 0.09598443 0.028935721 -0.11953002
-0.025073504 0.08702822 0.078737795 -0.11854005 0.051017813 -0.07986367 0.077979654 -0.034294188
-0.04036154 0.09509461 0.045480933 -0.0018502325 0.0012472253 0.022688031 0.10138711 -0.030430779
-0.013398181 0.06476471 0.009656391 -0.060932443 0.105816245 -0.06336872 -0.0154342055 -0.031027883
0.024138238 -0.009341091 0.042456463 -0.010524288 -0.060843144 0.09390472 -0.073925324 0.1010004
0.026582092 -0.11159514 -0.061171163 0.0647383 -0.1418543 0.02696374 0.097065404 -0.05916716
-0.03723759 0.0758872 -0.04140679 -0.04589595 0.11749172 -0.0901587 -0.005520473 0.10813092
-0.13652067 0.016991794 -0.0036122054 0.0804995 0.1805311 0.053372204 0.17478926 -0.10521765
-0.09034468 0.04368776 0.12982093 0.016420737 0.023659397 0.10199037 -0.092000365 -0.019895807
0.09751742 0.096918106 0.13461694 -0.045211807 -0.058392793 0.08306816 0.036597062 0.066129684
-0.10906659 0.03625603 -0.03366323 -0.051256403 -0.046030544 -0.016795248 -0.1348912 0.048245415
0.0690141 0.023631796 -0.019806666 -0.11170371 0.1558061 0.10228011 -0.055189908 0.022732466
0.016802426 -0.029913649 0.1778499 -0.04426296 -0.051624417 0.024039775 0.022693532 -0.048879936
0.09237147 -0.071950674 0.06376372 -0.043816343 0.046883497 -0.09261899 0.10972081 0.0064692497
-0.10351087 -0.0071689337 0.15413101 0.020006314 0.00055476127 0.0308045 -0.036699742 0.004803553
-0.027705062 -0.009079739 0.101615086 -0.054047838 0.11688498 -0.094579294 -0.0085576745 -0.10865536
-0.048020583 0.017575279 -0.0092841685 -0.0033969134 -0.18064763 -0.08108395 -0.16103534 0.11964455
-0.01340878 0.07091133 -0.12481292 0.0040679574 0.033723067 -0.09483296 -0.12185274 0.07245046
0.05600429 -0.07703854 0.117021285 -0.024927497 -0.06822489 -0.038667515 0.13513409 -0.044803113
0.026219672 0.04140742 -0.04989341 -0.004183024 0.0772289 -0.104677334 0.058676705 -0.033568427
0.10088116 -0.048481405 0.02150788 -0.1112663 0.17454302 -0.09951402 -0.121501654 -0.08039285
0.14306454 -0.08001539 0.030205742 -0.08448568 0.080238566 -0.06365883 -0.015525823 -0.03931953
0.0050260406 0.039907902 0.051142618 -0.039769664 0.020015538 0.12417485 0.10305755 0.096673384
0.043324217 -0.084426746 -0.19999366 -0.10907751 -0.15390937 -0.107392505 0.11205517 0.0752701
-0.009887877 -0.059242472 -0.11619923 0.0030533224 0.018446773 -0.11181463 0.08430721 -0.009519398

lstm.weight_hh_l0 f4 [256, 64]
00000000: b972 19bd e5a4 17be eb6b c0bd 9feb 96bc
00000010: 2fc1 ae3d 18e4 ec3a 0641 2b3d b1a3 b4bd
00000020: 3246 e73d 7653 7cbd 6f4e 7b3c 99d7 603d
00000030: 34f2 b7bd 6503 383d 0425 053e 48e3 f6bc
00000040: 206a 25be 49a8 ba3d dfbd 0abd c61e b8bd
00000050: d3b2 923d c377 e5bc 558a e1bd 4f48 df3c
00000060: d99c e3bd 6e2b 7bbd fcc4 983c d6b1 b43c
00000070: e229 c0bb 2ffc 053e c76e 1abe 209f 82bd
00000080: b211 18bd 15c8 d83d c699 0c3e db86 5a3d
00000090: fa0c 6b3d acf9 f2bd 5a67 5abc 1300 19be
000000a0: febd 40bd 2f55 acbd 3ded ae3d c468 1ebe
000000b0: 3f45 ee3d 3bcf d7bc 36ca 44bd 987d f53d
000000c0: 8b79 ed3d a1fd 1bbd 701e 47bc 83f4 3fbd
000000d0: 0f3b fdbd 731c 123e 960c 933b e05d b53a
000000e0: caab e33d 452b 113e 7119 533d 33de aa3d
000000f0: be39 203d 15cf d03d 5b18 073e ad83 ae3c
00000100: 8bd4 093e 155b c6bd 6643 8fbd a505 fbbd
00000110: 7116 bb3d faf6 a53d a5ef e3bd 152e 4b3d
00000120: b1db fc3d 2ccf 77bc bcb7 88bd 75bc c33d
00000130: 1ab5 3cbd 28c4 cebd 56f1 83bd b963 b53d
00000140: 74e9 b43d 6f6c bc3d 35e7 8c3d d97c b3bd
00000150: d497 8f3d 58bb 96bd 54d8 05bb e570 99bb
00000160: 865e dbbd e1f3 063e f134 003e cdb3 733d
00000170: 8ee5 08be 844e 42bd dda6 90bd 3c93 b6bd
00000180: e6b7 9fbd d119 803d 90ff 853d 3443 72bc
00000190: 0d56 e53d c6a3 033e 19bf 5b3d 91df c9bd
000001a0: 76c3 8bbd b8f4 893d e702 15be dbd4 003b
000001b0: 2d3f 17bd 46c4 f83d a9e0 d53d b1fd 94bb
000001c0: 7322 8a3d 4b7d abbc b1ae c6bd 4007 4cbd
000001d0: 7005 a2bd 9081 47b8 10b5 06be e905 703d
000001e0: bc88 e93c b69f 223c 3948 8cbd de56 d0bd
000001f0: 39f0 cdbd 80d9 3b3d 6e17 a4bd 4206 18bd
00000200: da6f a73b c2c6 2bbe 3964 35be f8e4 65bd
00000210: ba72 da3d 9333 a5bd 35f8 0cbd 7789 033d
00000220: 2493 1e3e 315d 4e3d 9487 113e 70cd d33d
00000230: 290c 15bd f0be 45bd 5dfd ae3d 3f5e 84bd
00000240: 04a0 aa3c e73d d93c d930 b9bc 63a6 043c
00000250: fd6b 453d 9e2b 693d b6a9 e6bd cbfe 03bd
00000260: 277d d3bd 4cc5 033e 9c49 cd3c e7ac 413e
00000270: ef6a 09be 29b4 dc3d 73f7 0abe 9a81 203e
00000280: c1de 073e f48c db3d dd95 8a3d d6a3 273d
00000290: ed8d 9c3d a1f6 b03d 53cf d0bc ea8a 08bd
000002a0: 0d14 223e 6293 2a3e ad1c f1bc 00c6 163d
000002b0: cbbe 733b 2a6a ffbc e8ca 083e 6128 d63d
000002c0: c73a 2e3d db7d 9cbb c2f7 27bc 4859 b4bd
000002d0: e11f 4abd 3c3b a53d e848 a93c 56da 2dbd
000002e0: b19d 023e 1392 f33d 3c2a cf3c eb7d 4d3d
000002f0: bccc a9bd 9521 2b3d 9055 3a3e 61b7 863d
00000300: 96c0 a4bc e2cb 4d3c 3e32 debd 6122 aebc
00000310: c5e6 983d 084d 00be 5b45 233d 115e 9739
00000320: bf03 0dbd 9b29 903d 7c44 133e fc60 f03d
00000330: cd38 a03d de58 55bd 5ac7 f33d c331 2a3d
00000340: 3bc8 acbc 7c10 20be 7f58 01be aa85 a2bb
00000350: d59b 8abd 7ce4 b4bd 6ff4 b8bd a6a0 51bd
00000360: b2e3 0cbd 3105 f13c 2a64 a93d b923 a5bc
00000370: 5013 b4bd ca89 2c3e 39f2 c5bd a125 28bd
00000380: 41f5 fd3d 11bd a5ba 6ccf 263e ac64 e9bc
00000390: c500 c63d 3efd c9bc 5f60 2f3d f2cd 863c
000003a0: 742b 28bd 0bd1 383e 44ba 1dbe 741e 1cbd
000003b0: 05d5 62bd bede cb3d 3eb7 6abc 971c e53d
000003c0: 6593 e0bc 5a5a 903c af3d d03d 8d66 08be
000003d0: e8c6 053c 61b3 9f3d 3f65 e6bd b195 31be
000003e0: 3970 063e 15cf d63d d37a 233d 0f1a 783d
000003f0: 55e9 80ba 5e06 c83c 9b60 7cbd b141 db3d
-0.037462924 -0.14808996 -0.09395584 -0.0184229 0.085329406 0.0018073348 0.041810058 -0.08820284
0.112926856 -0.061603032 0.015338524 0.05489311 -0.089817435 0.044925112 0.13002402 -0.030137673
-0.16153765 0.09114129 -0.03387248 -0.089902446 0.07163014 -0.028011208 -0.11012713 0.02725616
-0.11113901 -0.061320715 0.018648617 0.022057455 -0.005864368 0.13084482 -0.1508132 -0.06378007
-0.03712625 0.105850376 0.13730535 0.053351264 0.057385422 -0.118640274 -0.013330305 -0.14941435
-0.04705619 -0.08414685 0.08541343 -0.15469652 0.116343014 -0.026343932 -0.048044406 0.11986846
0.11595448 -0.038083676 -0.012153253 -0.046864044 -0.1236478 0.14268665 0.0044875843 0.0013837181
0.111167505 0.14176662 0.051537935 0.083431624 0.039117567 0.10195748 0.13192885 0.021303022
0.13459985 -0.09685341 -0.06995277 -0.12256936 0.0913514 0.08103748 -0.11129693 0.049604494
0.1234659 -0.015125077 -0.066756696 0.0955743 -0.04607115 -0.100960076 -0.064425156 0.08856911
0.0883359 0.092003696 0.06880037 -0.08764047 0.07011381 -0.07359952 -0.002042313 -0.0046826475
-0.10711388 0.1317897 0.12520196 0.059497643 -0.13368818 -0.04743816 -0.07063077 -0.089148015
-0.07798748 0.06254924 0.06542885 -0.01478653 0.111980535 0.12855443 0.05364904 -0.09857095
-0.068243906 0.067361295 -0.14551888 0.0019658122 -0.036925483 0.12146811 0.10443241 -0.004546844
0.06744852 -0.020933768 -0.097012885 -0.0498116 -0.07911193 -4.756596e-05 -0.13155007 0.058599386
0.028507583 0.009925773 -0.06849713 -0.101728186 -0.100555845 0.04586172 -0.08012281 -0.037115343
0.0051097693 -0.16775039 -0.17714013 -0.056126565 0.106664136 -0.080664776 -0.034416396 0.03211352
0.15485817 0.050381843 0.14211875 0.103419185 -0.03638855 -0.048277795 0.08544419 -0.064632885
0.020828255 0.026518775 -0.0226063 0.00809631 0.04819869 0.056926362 -0.112628385 -0.03222541
-0.10326605 0.12868232 0.025059514 0.18913613 -0.13419698 0.1077655 -0.13570957 0.15674439
0.13268568 0.10720244 0.067668654 0.04092773 0.07644258 0.08640791 -0.025489485 -0.033335604
0.15827961 0.16657785 -0.029432619 0.03680992 0.003719258 -0.031178553 0.13358653 0.104569204
0.042536523 -0.0047757453 -0.010251941 -0.088060915 -0.04934681 0.08067939 0.020664647 -0.04244455
0.12755467 0.11893096 0.025288694 0.050168913 -0.08291003 0.041780073 0.18196702 0.065779455
-0.020111363 0.0125608165 -0.10849427 -0.021256628 0.07465891 -0.12529385 0.039861064 0.0002887105
-0.0344274 0.070391856 0.14381593 0.11737248 0.07823334 -0.052086703 0.11903258 0.041551363
-0.021091571 -0.15631288 -0.12631415 -0.0049597817 -0.06768004 -0.088326424 -0.09030997 -0.051178597
-0.034396835 0.02942142 0.08271058 -0.020158635 -0.08792746 0.16849437 -0.09665341 -0.04105151
0.12400294 -0.0012644847 0.16290063 -0.028490387 0.096681155 -0.024656888 0.042816516 0.016455624
-0.041057065 0.18048494 -0.15403086 -0.03811498 -0.055378933 0.09954594 -0.014325915 0.11187094
-0.027414033 0.017621208 0.10168015 -0.1332037 0.008165099 0.07797886 -0.1124978 -0.17342259
0.13128747 0.104887165 0.039912056 0.060571726 -0.0009835163 0.024417099 -0.061615568 0.10705889

lstm.bias_ih_l0 f4 [256]
00000000: 53d3 213e 5045 e43d d577 383e bebb 1abd
00000010: 7879 83bd 3e9e 9d3d 4cf9 71bc c05b d63d
00000020: ed0e 2b3e ece4 163e f8bd 243d 7d19 2cbd
00000030: 9f99 153d 881a 863c ecae 8ebc 1277 043e
00000040: c266 13bd 7f6e 453e f349 35bd ac66 4ebd
00000050: 64b5 433e bb0d 393e 3b09 ebba 6363 fb3d
00000060: 6d33 14bd c28d 893c 86b9 273e a2ab c53a
00000070: 49c9 813d 9f9d 51bd ea75 6fbd 4d23 1e3e
00000080: 4249 0c3d d12b f13d d299 a93c 28c4 383e
00000090: 37a2 5b3d 45bc 5cbc 4bb2 973d bfaa cd3d
000000a0: 5a5a e63c 6166 853d 17e8 033e c4d0 50bd
000000b0: 8232 af3d 9c4c 3d3d 85d5 d53d e340 eb3d
000000c0: be6c 053e 0cd4 c33d 5fea afbd 026d 1d3e
000000d0: 580a 2cbd bf07 143e 3d05 0fbd b9e1 363e
000000e0: f817 d53d ec1a 05bc fc28 c63d 4d37 f03d
000000f0: 01fc 073e 73fc 113e d7b9 403e 7547 153d
00000100: 9e13 343c cf67 9f3d 75d5 f13b fb95 713c
00000110: f68f 6c3d fcaf 543d 9589 febc 5f25 a23d
00000120: d052 9a3c b75c 18be 42e7 d03d ec67 90bd
00000130: ba33 26be 0e3f 8a3c 5d09 d43d 51b3 113e
00000140: 25d5 bebb b06d d93c 006a c53d 8e1c a53d
00000150: d61f e83c d150 8f3d a215 01bd 5dac ccbd
00000160: f8f1 a83a d229 8bbd 5c75 b7bd e8d3 db3d
00000170: 07d8 b83d 2649 ca3d 2640 1fbd 14b8 5cbd
00000180: 0e59 c3bd 4e3b 2c3d 60b2 e7bd c34c 233d
00000190: b2f9 183e fcc4 19bd 72ef f9bd 37e2 d9bd
000001a0: 7c31 8e3d f052 0c3d abf2 a73d cc99 983d
000001b0: 243a 29bd c21a 3fbd 402a a83d 64aa 4a3d
000001c0: ca0a 143d e092 b63d ffdf 183e e5e6 cfbd
000001d0: f576 6abc 63a0 b73d 9b3a 5cbd aa46 a43d
000001e0: c6a5 b33d 820e 223b b1ea 133d 1512 7b3d
000001f0: 24b3 c53c 9882 38bd bceb c63d ba9a 513d
00000200: a398 973d 39b9 f4bd 8eb9 a9bd 8d71 543d
00000210: 8d98 913d 80ad a13c 5b24 013d 8154 b53d
00000220: 7b8e 9cbc fe4f ae3b 5e02 f93d 729a d23c
00000230: 2e0d 98bd 7a9c 1bbe 4885 1f3e 8f50 f93d
00000240: a2a2 dcbd 854f 04be 0fec e9bc 48dc b93d
00000250: 7ce2 8fbd 3d74 04be 1bb0 e1bd 5b11 00be
00000260: 26e4 f23c 8497 493d 45b0 713d 9e06 a53c
00000270: 3584 a6bd 2b51 1e3e 0927 1cbe 83d9 0e3e
00000280: ee2e c73d 6c08 e03d ed5c 063e 2dc3 e4bd
00000290: 546c 113e cc3f ae3d b775 d53d 6f77 adbd
000002a0: 5d35 bf3d 5874 b73d bf02 713b 5da6 7abd
000002b0: 353d 5c3c ad5b 9d3d d74e 8f3d 285f 283e
000002c0: 9751 a83d 89b5 1a3e 19b3 d63d 6f2d 53bd
000002d0: 0476 e4bc b9b4 203e b828 1fbe fa84 80bd
000002e0: 0cf3 ccbd b315 083e e95f f9bd 9df0 34be
000002f0: 6416 92bd e10a 073c e9fb 3c3c e8c1 ad3d
00000300: 4bda 4ebc d31a edbb d10f 663d f043 223e
00000310: c939 213e fd22 3dbd 6370 ca3d 9856 b4bb
00000320: da20 063e dcc4 873d 0519 0b3e 3eb5 7e3d
00000330: 6ad5 8b3c f127 863d c613 6a3c f6b7 43bd
00000340: 495b c23d 226d 153e b4d3 103e 0a90 fabb
00000350: 0e3b ac3d 6f14 10bd 26c5 f13c 71f6 273e
00000360: 3d54 a9bc 7f42 783d 4385 f93d 6804 243e
00000370: 8452 393e 67fb 613d b354 203d 7ae8 003e
00000380: 6012 9bbd 291e 84bd 851c 443e f860 a3bc
00000390: 713d 8e3d f62d 023d 7e1b be3d cbde 51bd
000003a0: dc4b b33d b997 fe3d 55b3 2a3e 9f5f c83d
000003b0: 3965 c93d b111 023e 053f 8e3d ac12 90bd
000003c0: 3d20 083d b48f f43d bfb3 0f3e f745 46bd
000003d0: 2088 94bc c3e2 54bd c543 e2bc 3ee7 a13d
000003e0: 465b 183e 9365 b0bc e818 453d dca5 c63d
000003f0: f446 423e f3e7 883d 66be 103e 8fe5 a63d
0.1580327 0.11146033 0.18014462 -0.0377767 -0.06419653 0.07696198 -0.01476891 0.10466719
0.16704912 0.14735764 0.04022023 -0.042016495 0.036523458 0.016370073 -0.017417394 0.12936047
-0.03598667 0.19280432 -0.044259977 -0.050390884 0.19112164 0.18071644 -0.0017931828 0.12274816
-0.036181856 0.016791228 0.16379365 0.0015081058 0.0633722 -0.05117571 -0.05846206 0.15443154
0.03424955 0.117759354 0.02070323 0.18043578 0.053621497 -0.013472621 0.074070536 0.10042333
0.028119255 0.06513668 0.12881504 -0.050980344 0.085545555 0.04621564 0.10441116 0.114869855
0.13029763 0.09561929 -0.085896246 0.15373614 -0.042002052 0.1445608 -0.034917105 0.17859544
0.10404962 -0.008124094 0.09675786 0.11729298 0.13279726 0.14256458 0.18820892 0.0364451
0.010991005 0.07783472 0.0073801824 0.014745231 0.05775448 0.051925644 -0.031071464 0.07917284
0.018838316 -0.14879118 0.10200359 -0.070510715 -0.1623067 0.01687577 0.103533484 0.1422856
-0.0058237487 0.02654156 0.096393585 0.08062087 0.028335493 0.069978364 -0.03151477 -0.09993813
0.0012889495 -0.06795086 -0.089579314 0.10733777 0.09025579 0.09877233 -0.038879536 -0.053886488
-0.0953847 0.042048745 -0.11313319 0.039868128 0.14939001 -0.037541375 -0.12203874 -0.1063885
0.06943032 0.034258783 0.08200582 0.074512094 -0.041315213 -0.046656378 0.082111835 0.049478903
0.0361431 0.08914733 0.14929198 -0.101514615 -0.014310588 0.08966138 -0.053766828 0.080212906
0.08771853 0.0024727886 0.03611249 0.06129654 0.024133272 -0.04504642 0.097129315 0.05117295
0.0740216 -0.11949391 -0.08287345 0.051866103 0.07109175 0.019736052 0.031528812 0.088540085
-0.019110909 0.0053195944 0.12158655 0.02570841 -0.07424389 -0.1519641 0.15578187 0.121735685
-0.10773207 -0.1292096 -0.028554944 0.090752184 -0.0702562 -0.12934966 -0.110199176 -0.1250662
0.029649805 0.049216762 0.059005994 0.020144757 -0.08130685 0.1546065 -0.15249266 0.13950162
0.09725748 0.10939106 0.13121386 -0.11170039 0.1420148 0.08508262 0.10422843 -0.08470046
0.0933635 0.08957738 0.0036775318 -0.061193813 0.013442327 0.076835014 0.069974594 0.16442549
0.08218687 0.15108313 0.10483379 -0.051557 -0.027888305 0.1569394 -0.15542877 -0.06275363
-0.10007295 0.13289528 -0.121764965 -0.17669912 -0.07133177 0.00824234 0.011534669 0.0848425
-0.012625287 -0.0072358637 0.056167427 0.15846229 0.157447 -0.046175946 0.09884717 -0.005503487
0.1309847 0.06629345 0.13583763 0.062184565 0.017069537 0.06550587 0.014286941 -0.04778286
0.094900675 0.14592412 0.14143258 -0.0076465653 0.08409701 -0.035175737 0.029512953 0.16402604
-0.02067005 0.06061029 0.12183621 0.16017306 0.18097883 0.055171397 0.039143275 0.12588683
-0.07571864 -0.06451065 0.19151504 -0.0199437 0.06945313 0.031782113 0.092825875 -0.051237863
0.087547034 0.124312826 0.16669972 0.09783863 0.0983376 0.12702061 0.06945614 -0.070348114
0.03323387 0.11941472 0.14033411 -0.048406567 -0.018131316 -0.05197407 -0.027620206 0.07905434
0.14878568 -0.02153281 0.048119456 0.09699604 0.18972379 0.06684866 0.14135131 0.081492536

lstm.bias_hh_l0 f4 [256]
00000000: ae3c f038 17ee 133e 55cd da3d dd81 8a3c
00000010: b6ae b73c e556 e23c 0054 90bb a865 703c
00000020: 1d6e ba3d a2a9 253e 880f 513d d271 75bd
00000030: f7a1 333e d095 283e 8b3e 743d fe2a 83bd
00000040: fc3f 143e 20f1 0e3e 5783 adbc c084 97ba
00000050: 4345 153e ad47 d33c 5f05 45bd 2353 8f3c
00000060: d499 8c3d 8d62 34bd 5c24 1e3e c2e7 95bc
00000070: 981b 8b3d 3c55 283e 1814 8bbc d434 f03b
00000080: f9d2 d73d da8a 2a3e 2b35 253e 9d72 0ebc
00000090: 9898 87bd 6510 56bd 0511 593b a194 c63d
000000a0: c875 773d b151 f33d c5d3 1d3e fea0 ca3a
000000b0: edf7 12bd 4ac1 443d eb38 f93d cc64 823d
000000c0: d948 b2ba aa23 a9bd 2ed2 d4bc a3f8 bd3d
000000d0: bc09 a73d c2ed 183d 55ae 203d 505b 4fbc
000000e0: 22d1 083e 2f1c 0cbd 96eb 0cbd b3e8 d53d
000000f0: cd70 e0bc acc5 fbbc cf3b 7d3c 1dbf f13c
00000100: deff b4bd fd97 173e 0eb9 a53d 135e ccbd
00000110: cfb7 af3d c44e 153d bb4c afbc e9d6 d7bd
00000120: b4c5 01be 221c fabc 1821 a3bd 3ace d93d
00000130: 8faa 81bd 279b 1b3e 38fa 043e efc0 44bd
00000140: 2e1b 533b 555d c4bd 12fd c9bd 8c04 c13c
00000150: 7535 fcbd e9fe da3c 3a27 f63d 5fd3 a83d
00000160: d691 9e3d 7068 b23d a5c4 ce3b 52b1 b8bd
00000170: ebb6 56bd 10fc cf3d a6d9 113e 1413 1fbd
00000180: 493e 553c e60d c53d 064e dbbd 109a 08bd
00000190: a2a7 1b3e 291f e0bd bc3b b03d 20d8 a8bc
000001a0: feeb 29bd 7d0c 41bd 1016 aebd 7e89 bdbd
000001b0: f52c f53c 4865 873d b936 25bd 55c0 043e
000001c0: cd2e a1bd 6968 153e c565 68bc 5ab3 64bd
000001d0: e841 c3bd d82b f13d 5ae3 ee3d 72bc 34bd
000001e0: 6a37 843d 6f37 903d 9d57 0b3e 0dfd b43d
000001f0: 9887 7cbd cc78 aa3d 854f 48bd cf49 78bd
00000200: 1ed7 20bd 3972 e6bd 057e e6bc 31dd dcbd
00000210: 93e6 94bd 7547 2cbd e9ae 19be b515 d93b
00000220: c3bd 1b3e 319a 08bd db34 b83d 895f a53d
00000230: a92a 023e 0a2e 51bd bfea 233e 83fe 46bd
00000240: 8b8f 3cbd 51f9 babc d04b 0fbe 68bf 463d
00000250: bc99 c13d 9a9d c9ba 22ca 53bd fe2c 75bd
00000260: df44 2d3d a3a6 863d b96f 2d3d eef0 173e
00000270: 7b9c 533d 43bf 153e 13c9 e8bd 6ecd 013e
00000280: b4d0 f13d aed8 043c 987e 8abd f12b 833b
00000290: eb1f ce3d 12a8 c1bd be16 923b 7825 81bb
000002a0: 85d3 943d 78c3 073e 7246 03be 4b65 b9bd
000002b0: a281 693d 59a6 973d 5ee9 203e 8eff 633d
000002c0: 4829 69bd 0251 013d b66e 0b3e 1623 eebc
000002d0: 3863 a3bd 1ac7 113e 85b8 84bd 3644 bb3d
000002e0: 014a 543d 099f 0d3e eadc f43d 2905 cfbd
000002f0: 734a 65bb b668 143e 7373 db3d 9132 193e
00000300: 8d52 cd3d ed74 103e 7622 003e 02ee b13d
00000310: 651e 083c b64c 133c 5406 40bd 04f6 4d3d
00000320: 07ef f4bc 5d26 d73c 5cd9 003e 9875 4ebc
00000330: 2e0a cc3d 986f 953b 7eca fa3d 3c9c b8bd
00000340: 517f a7bd 0657 5ebd d7f7 bc3d 024d 2d3c
00000350: 8c57 9f3c 8887 9c3d c172 1ebd 6f11 b13d
00000360: f7ad 0c3e 11e3 063e a938 ff3c 4ca8 da3d
00000370: 17a6 d63b 7dfb 20bd 9ce2 583d 16f7 88bd
00000380: 3737 143d 25ff 1f3e 7681 18bb 4d30 903c
00000390: af45 bfbc 894b 13bc 4a54 a43d 1118 cd3d
000003a0: c247 173e b7bf 103e 2a5c 303e b43c 1e3e
000003b0: 1d68 f93d b904 56bc 0dba 1b3e 4318 2f3e
000003c0: a71b 263e 396b d5bb 90ca f53d a4d6 39bb
000003d0: 5c8b 273e fd55 a03d 65c0 df3c 368b 583c
000003e0: 2f20 b83d 9e96 9a3d 67b5 a83c 7758 933c
000003f0: c1ca bd3d eedc 90ba dd2b e33d 1191 a4bc
0.00011455394 0.14446293 0.10683695 0.016907627 0.022422176 0.027629325 -0.004404545 0.014672674
0.09103034 0.16177991 0.051040202 -0.059923 0.17542253 0.16463399 0.059629958 -0.064046845
0.14477533 0.1395917 -0.021180792 -0.0011559948 0.14577202 0.025791014 -0.048100825 0.017495697
0.06865278 -0.044039298 0.15443558 -0.018298987 0.067923725 0.16438764 -0.016977355 0.0073305164
0.10538287 0.1665453 0.16133563 -0.008694318 -0.06620902 -0.05226173 0.0033121717 0.096963175
0.06041506 0.11880816 0.15412815 0.0015459356 -0.03588097 0.048035897 0.12169059 0.06366882
-0.0013602033 -0.082587555 -0.025979128 0.09275939 0.081561536 0.03733612 0.039228756 -0.012656048
0.13361028 -0.034206565 -0.03440436 0.104447745 -0.027397538 -0.030733906 0.015456154 0.029510075
-0.08837865 0.14804073 0.08091937 -0.09978881 0.085799806 0.03645207 -0.021398893 -0.10539038
-0.12673074 -0.030530993 -0.079652965 0.10635038 -0.063313596 0.15195905 0.12986076 -0.04803556
0.0032212245 -0.09588114 -0.098627225 0.023561738 -0.123148836 0.026732879 0.120192006 0.08243441
0.0774266 0.08711326 0.006310063 -0.09018196 -0.052420538 0.10155499 0.14243183 -0.038836554
0.013015338 0.096217915 -0.10708241 -0.03335005 0.15200666 -0.10943443 0.086051434 -0.020610869
-0.041484825 -0.04713105 -0.08500302 -0.0925474 0.029928664 0.06611115 -0.04033539 0.12963994
-0.07870255 0.1459061 -0.01418442 -0.055835105 -0.09534055 0.11775941 0.116644576 -0.044125028
0.06455882 0.07041823 0.1360764 0.08837328 -0.06165275 0.083238214 -0.04890396 -0.060617264
-0.03926765 -0.11252255 -0.028136263 -0.107843764 -0.07270541 -0.042060334 -0.15008129 0.006624902
0.15209107 -0.033350173 0.089944564 0.080748625 0.12711586 -0.051069297 0.16007517 -0.048582565
-0.04603533 -0.022823961 -0.13993764 0.048522383 0.09453151 -0.0015382052 -0.05170644 -0.05985736
0.04230201 0.06574752 0.042342875 0.14838001 0.051662903 0.14623742 -0.11366477 0.12676021
0.11807385 0.008108301 -0.06762427 0.004003041 0.100646816 -0.09455885 0.0044582775 -0.003941234
0.07266907 0.13258159 -0.12819842 -0.09052523 0.057008393 0.07404775 0.15714023 0.055663638
-0.056924134 0.031571396 0.13616452 -0.029069465 -0.07977909 0.14236107 -0.06480507 0.091438696
0.051828388 0.13830198 0.119561985 -0.10108406 -0.0034987002 0.14493069 0.107153796 0.14960696
0.10025511 0.14107104 0.12513146 0.086879745 0.008308028 0.008990457 -0.046881035 0.050283447
-0.029899133 0.02626341 0.12582916 -0.012601279 0.09962879 0.004560422 0.122456536 -0.09014174
-0.081785806 -0.05428221 0.09226959 0.010577442 0.019450925 0.07643038 -0.038683657 0.08645903
0.13738237 0.13172556 0.031154947 0.10676631 0.006550561 -0.039302338 0.052950487 -0.06687753
0.03618547 0.15624674 -0.0023270524 0.017601157 -0.023348657 -0.008990177 0.08023889 0.10014356
0.14773467 0.14135633 0.17222658 0.15452844 0.12178061 -0.013062649 0.15207691 0.17099099
0.16221486 -0.006513026 0.12001526 -0.0028356696 0.16361755 0.07828901 0.02731342 0.013216784
0.089905135 0.07548259 0.020594312 0.01798652 0.09267188 -0.001105217 0.11092351 -0.020088704

lstm.weight_ih_l1 f4 [256, 64]
00000000: ccf0 093e 6719 64bd d2c2 843d b881 04bc
00000010: 6629 d43d c813 c5bd efa2 11bd 2f36 193e
00000020: 9972 08bd 75b2 c5bd 06ac 49bd 9045 8dbd
00000030: 9b19 ecbc 23b7 04be eb2b fc3c 771c 9bba
00000040: 2ebe 173d 4668 b63c b62b 603d 9288 a8bc
00000050: 95b7 5a3d 4178 283d 6384 a3bd 57b0 b6bd
00000060: aa33 683d dd78 22bd 9f0c ce3d 03f8 263d
00000070: 2e13 a3bd 1ce8 f2bc ce5d bbbd caf5 01bd
00000080: 92a3 813d 7c82 92ba 6544 91bd 7e64 f9bd
00000090: 5910 c23c 08d1 e43c edf7 4f3d 64d5 d5bd
000000a0: 7710 84bb f5b5 49bd 7247 d73d 8332 c43b
000000b0: 4a3c 86bd 8fd3 76bd ac2f 4f3c 0f7f 18bd
000000c0: f5c0 283e 4808 b4bd a321 113d 9f57 d8bc
000000d0: 2d65 8bbd 89fc 153e f714 b1bd 6bbc e2bc
000000e0: 73dc 9f3c 0279 0a3e e84f d5bd 8e16 813d
000000f0: d110 93bc e284 babd aeb0 64bd 5b80 2f3c
00000100: 53c5 67bd ad0f 8c3d fa97 fbbc daaa e33b
00000110: ebd1 c03d 7bcf a6bd e1a2 f2bb 4410 dfbd
00000120: 3c4f 70bd c33d b33d 6d1a 59bd fce0 2a3e
00000130: d756 fdbd a8f4 1ebe c419 213e d138 9cbc
00000140: d2a7 e4bd 5557 283d a938 a83d 0611 5a3d
00000150: 9999 ddbd e8fc f9bd 7c33 80bd 7aab 8b3d
00000160: 8ec1 c23c 0eb1 3c3e 3ec4 1d3e 92d9 ce3c
00000170: a594 9bbc b542 4b3c 156d e7bb 696c a13d
00000180: dcf1 ba3d ff70 203e 6fbc 35bd f84c e9bc
00000190: 722b 1e3d de61 64bc eae1 3bbd fbbc a8bd
000001a0: 6e2a f03d 5d0a 653d 1c0f 01be e783 10be
000001b0: ebc7 5a3d fbc4 193e e5c4 9ebb 2855 0b3e
000001c0: 8a0b c23d 5acd 223d eec2 373c c9f7 dfbd
000001d0: 9a73 04be 6353 663d a455 91bc 1280 1ebe
000001e0: d0e3 a8bb 236f 063e a178 aa3d d684 80bc
000001f0: ca5a 21bc 6680 29bd 4a93 1f3e d7e0 f7bc
00000200: 9000 ca3d 55c0 91bd 874b c2bc a264 c4bd
00000210: 3b69 3ebd b4af 943d 9481 09be c385 eb3d
00000220: bfad 1dbd 653f 73bd 0714 bb3d a201 e93b
00000230: f507 053e afcf 0ebe cd58 2f3e 884d 893d
00000240: 8fa1 b1bd 7d7b 57bd abd2 a7bd 2535 6b3d
00000250: 07f1 a4bc d42e 00bd 60ea 963b d37c 1e3d
00000260: f2ad 32be c969 ce3d 6b15 ad3d da1b 2f3d
00000270: 2ac6 11bd 65c8 d23b cdea 6e3d ba28 5f3d
00000280: 79bc 18bd cffc b9bd a610 48bc 5ebc 40be
00000290: 2f51 b03b 1c8f 4e3d 21a7 533d 1166 0abd
000002a0: 35ea ac3d 5976 023e bd13 be3d 1144 393c
000002b0: ab8f 12bd 3478 37bd e3e5 023e 4619 243d
000002c0: ed57 bc3b 76f2 cfbc ed5f f13d e31b dbbc
000002d0: 2f4d 31bd fe13 3f3e eeae 753d f627 943d
000002e0: 4920 51bd 1703 ae3d bd11 083e 0a85 01be
000002f0: 19a8 46be 32b2 743d 9133 8fbd 05d3 833c
00000300: c133 3abc 015b 16bd 4107 18be f56d 84bd
00000310: f3fb 2dbb 287d d03b eda2 adbd d4b6 b1bd
00000320: fe99 8f3d 2a5a c83d 7f95 213a 8645 393d
00000330: 12b9 093d 52fc 02be 41a4 313d c8d3 a73d
00000340: 9aed 20be 38eb 2fbe 0dc6 32bc d982 38bd
00000350: a3a9 18be ddf6 92bd 1777 eebd 18bf ffbb
00000360: 052b 123e d7e1 c6bb 72e3 2c3e d8ba cf3d
00000370: c6b6 c33c 50f7 213e e502 2cbe 06ae 95bb
00000380: d89f 283e 2778 9a3d c4b4 54bd 9fd9 b43d
00000390: 6b07 0f3e bb45 60bd d0d0 e63d 9494 32be
000003a0: c168 413e 52a8 77bd cf17 ffbd 959a a0bd
000003b0: 8c28 48bd af3a 073e 695e 213e 9267 46bd
000003c0: 4e2a b33d 5a58 57bc 2e4e 5f3c 25c4 d0bd
000003d0: 5b21 b8bd 4171 573d dc31 eebd a7cf 94bd
000003e0: 9ae6 14be 3d5f 043d 3bff 273c 44ed cabc
000003f0: 75fc 353e b395 043e 12a6 4f3d 45f0 e1ba
0.13470763 -0.055688288 0.064824715 -0.008087568 0.103594586 -0.096229136 -0.035555776 0.14962076
-0.033312414 -0.096531786 -0.04923632 -0.068980336 -0.028820803 -0.12960486 0.03078266 -0.0011834045
0.037046604 0.022266518 0.054729186 -0.020572934 0.053397734 0.041130308 -0.07984235 -0.08920353
0.056689896 -0.039666045 0.10061001 0.040763866 -0.079626426 -0.029651694 -0.09148751 -0.031728543
0.06330027 -0.0011177803 -0.07093123 -0.121773705 0.023689436 0.027931705 0.05077355 -0.10441092
-0.004030283 -0.049245793 0.10511674 0.005987467 -0.06554468 -0.06026035 0.012645643 -0.037230548
0.16479857 -0.08790642 0.03543247 -0.026408968 -0.06806407 0.14647116 -0.08646577 -0.027677735
0.019514298 0.13522723 -0.104156315 0.0630313 -0.017952355 -0.09107377 -0.055832557 0.010711755
-0.056584667 0.068389274 -0.030712117 0.0069478573 0.09415039 -0.081450425 -0.0074046706 -0.10891774
-0.058669314 0.087520145 -0.053003717 0.16687387 -0.12370079 -0.15523016 0.15732485 -0.01907006
-0.11164822 0.04109891 0.08213932 0.05323889 -0.10820312 -0.12206441 -0.0625982 0.06819816
0.023773935 0.18426916 0.15406892 0.02525023 -0.018991778 0.012406041 -0.007062564 0.07882006
0.09128162 0.15668105 -0.044369157 -0.028479084 0.03861565 -0.013939349 -0.045869745 -0.0823917
0.11726843 0.055918086 -0.1260342 -0.14112817 0.053413313 0.15016548 -0.004845249 0.13606703
0.09474857 0.03974662 0.011215908 -0.10935933 -0.12934723 0.056231868 -0.017741032 -0.15478542
-0.0051541105 0.13128333 0.083237894 -0.015688341 -0.009848306 -0.041382216 0.1558353 -0.03025858
0.098633885 -0.071167625 -0.023717655 -0.09589507 -0.046487074 0.07260075 -0.13428336 0.115001224
-0.038495775 -0.05938663 0.09134679 0.0071107903 0.12991317 -0.13946413 0.17123719 0.06704241
-0.08673393 -0.052608002 -0.081944786 0.05742373 -0.020134462 -0.03129466 0.0046055764 0.03869326
-0.17449167 0.10078771 0.08451351 0.04275117 -0.035589375 0.0064325803 0.058329392 0.0544822
-0.037289117 -0.090814225 -0.012211001 -0.18821856 0.0053807716 0.05042945 0.05167306 -0.033788744
0.08443109 0.12740459 0.092811085 0.011307732 -0.035781544 -0.04479237 0.12783007 0.040063165
0.0057477863 -0.02538417 0.117858745 -0.026746696 -0.0432865 0.1865997 0.05998128 0.072341844
-0.05105618 0.08496683 0.13288017 -0.12648407 -0.19400062 0.059740253 -0.069922574 0.016091833
-0.011364878 -0.03670788 -0.14846517 -0.06466285 -0.0026547879 0.006362576 -0.08478341 -0.0867745
0.070117936 0.097828224 0.0006163939 0.04523232 0.033623762 -0.12791565 0.043369535 0.08194691
-0.15715638 -0.17179573 -0.010911477 -0.04504666 -0.14908461 -0.07175992 -0.11643808 -0.0078047626
0.14274223 -0.0060694027 0.16883639 0.101430595 0.023890864 0.15816998 -0.16797979 -0.0045678644
0.16467226 0.075424485 -0.051930204 0.088305704 0.13967673 -0.054754 0.112702966 -0.1743949
0.18887617 -0.060463257 -0.12455713 -0.07841984 -0.048866794 0.1320598 0.15758671 -0.048438616
0.08748303 -0.013143623 0.013629479 -0.101936616 -0.08990737 0.05259824 -0.11630604 -0.07266169
-0.14541093 0.03231739 0.010253723 -0.02477134 0.17772086 0.1294773 0.050695486 -0.0017237744

lstm.weight_hh_l1 f4 [256, 64]
00000000: 7b4d 04ba 0d88 c5bd 134b f63d e27d 9abd
00000010: 1108 973d 2794 023d 763f 4bbb 5879 c4bd
00000020: feb5 16be 2645 9bbc d048 7b3d 7d93 99bd
00000030: 0fd3 953d a62b 813c 05f2 afbd a822 18be
00000040: 28f3 953d 5da4 adbd f2c7 c43d 3291 28be
00000050: 1633 403c fc9e eb3d e4f2 d0bd fcc3 06bd
00000060: c723 85bc a974 95bd 2aa9 05bd 61b6 443d
00000070: bec9 cbbc 8596 c23d c65e cdbd 2506 d5bd
00000080: 4acd 56bd 06ff ca3d addc b2bd 679c 3a3c
00000090: 8ecc 3d3d c4d4 173e a791 843d 8718 18be
000000a0: 1be1 99bd 4398 b2bc a7a5 033e 552f b63d
000000b0: 152a 78bc a4ae 523c e139 163d 0e2e d9bd
000000c0: c6c1 0b3d 0a10 e53d 0f40 a43d 83ff 01be
000000d0: e449 db3d 3c0d 1e3d 8be8 c03d a1fe a4bd
000000e0: 879d dabd c89b 2a3d c772 3bbb f47f ae3d
000000f0: b1df d3bc d48c f8bd 4149 153b cde8 cdbd
00000100: 334f 8f3d 0703 70bc 9b13 113e 22cf cf3d
00000110: 9c09 a9bd b88f 033e d494 bebb 62c8 d7bd
00000120: 804f 01be 0f9c 3c3e f9b7 353e 55d6 33bd
00000130: eb1e 1f3d b46f f3bd b6f4 3ebd d90d 483c
00000140: 407c 99bc 229a 0e3b 92c3 c33d 1eac dabd
00000150: 129f f4bd 4be5 25bc 5294 e7bd 5564 e1bd
00000160: 5ba7 a53d 2151 fbbd 418d 9b3c 1c61 c63c
00000170: 21c9 0e3d a175 b0bc 62ad 653d ffac 13be
00000180: 4943 2fbe 2e4f f33d cbf9 67bd 3b3c 07be
00000190: 7541 403d 4e85 013e b144 213e 6756 05bd
000001a0: b264 2dbe dc2c 7f3c fab4 8a3d a9c6 033d
000001b0: 9268 16bd 716c 60bd 1290 dabd 3eee 663d
000001c0: f375 c43d e74f b13d 666e 65bd c05a 1cbc
000001d0: 0699 73bd ebd0 203d 59db b63c 8393 323d
000001e0: bc73 cb3c af62 ce3d dc54 18bd b965 bdbd
000001f0: 872a bc3c 0825 12be 2d9e 82bd cfc7 05be
00000200: b143 d33d f1d8 3abe 39a4 893d e6c3 0d3e
00000210: 776e 8bbd 7320 afbc 731b 1ebd d7e0 d5ba
00000220: 8c1e d5bd c111 233e 5ac4 f43d 1a72 c639
00000230: f280 18be cfed cdba 0a4c 3bbb c04c 8dbd
00000240: 760f 383c 3d8d 36be b13b 9e3d 2a9f 5c3d
00000250: 4ba8 33be aa88 c1bc 25d0 43be c79e 42be
00000260: 1fea 853d d067 08be 95d1 08be 94b3 57bd
00000270: 42ac acbd 12c4 1f3e 0388 b0bd 54b3 12bd
00000280: 79ec 1dbe 0c2c 393e c903 2c3d 1ff0 1dbe
00000290: 81e8 35bd 42ad 973d 9ad2 0e3e a240 4dbd
000002a0: a62f 3fbd c6e7 94bd 9e7c edbb 50b4 31bd
000002b0: 73d6 563d b7ea 333d 28c2 30bd 7a1e 16be
000002c0: d11f 853d 10c7 b43d 0845 103e aa4c 5d3d
000002d0: d2dc 023e f323 0f3e 6441 be3d 837b 653d
000002e0: 7d21 cabd 6435 fd3d 0109 e8bd f4f9 07be
000002f0: 32d0 5cbd 3755 0cbe 0ad9 3f3d 9100 a6bd
00000300: 9c50 413e bffd c63b b25a 923d 77a0 153e
00000310: 0517 2fbd 6215 fb3d 0174 81bc 81da e73c
00000320: a99e 263c c4b6 3f3d fb13 38bd 0075 dabd
00000330: 7408 93bd 00e0 1dbe 1a46 83bd d773 2cbe
00000340: 030a 0d3d c7cc aabd ea20 31bd e8ff c13c
00000350: 6988 273d e4b2 073d 41e2 a039 dbd8 33be
00000360: 2bc3 0f3e 4ac0 16be 7ce1 6c3c 6269 24bc
00000370: a446 3cbe 8809 4b3b 1e55 e23c 5f98 193c
00000380: acb2 45be f530 423d 5455 163e f45f 94bb
00000390: 0edc 91bd e308 433e 5df5 9d3d 3c34 cbbd
000003a0: 5c37 7d3d 4835 f0bd 2c02 9cbc a0b8 ce3d
000003b0: 1ccb ffbd 88d6 f2bc bdc4 63bd 988b eebd
000003c0: 9dbc e23d e218 383e 746b 493e d083 25be
000003d0: e31d 4a3e 4ebe 393e 5194 223e 1cd7 903d
000003e0: a9ca 4d3d a280 3a3e a1c5 debd 7eb3 40bd
000003f0: a245 ff3d cb20 60bb a275 41bd 2a61 b8bd
-0.0005046946 -0.0964509 0.12026038 -0.075435415 0.073745854 0.03187957 -0.0031013167 -0.09593457
-0.14717862 -0.018953871 0.061348736 -0.07498834 0.07315647 0.015767884 -0.085910834 -0.1485697
0.07321769 -0.084786154 0.09608449 -0.16461638 0.01173093 0.11504933 -0.10202578 -0.03290175
-0.016252412 -0.07297642 -0.03263203 0.048025493 -0.024876472 0.095013656 -0.10027842 -0.104015626
-0.052441873 0.09911923 -0.08733497 0.011389828 0.046337657 0.14827257 0.064730935 -0.14853106
-0.075136386 -0.02180112 0.1285616 0.088957466 -0.015146752 0.01285902 0.03667629 -0.10604487
0.034120344 0.111847 0.08020031 -0.12695126 0.10707453 0.03858684 0.09419354 -0.08056379
-0.10674577 0.04165247 -0.0028602348 0.08520499 -0.0258635 -0.12136236 0.0022779258 -0.10054169
0.06997528 -0.014649159 0.14167635 0.10146929 -0.08253786 0.12847793 -0.0058160815 -0.10536267
-0.12627983 0.18418907 0.17745961 -0.043905575 0.038847845 -0.1188654 -0.046620093 0.012210333
-0.018736005 0.002175935 0.095587865 -0.1067736 -0.11944403 -0.0101254685 -0.11307587 -0.11005465
0.08088561 -0.122713335 0.018988254 0.024216227 0.03485978 -0.021540465 0.056073554 -0.14421462
-0.17115511 0.11880337 -0.056634706 -0.1320657 0.046937425 0.12648508 0.1574886 -0.032553103
-0.16932943 0.01557466 0.067728 0.03217188 -0.03672082 -0.054790918 -0.106720105 0.05637955
0.095928095 0.08657818 -0.056013487 -0.009543121 -0.059472106 0.03926174 0.02232139 0.04359771
0.02483546 0.10077416 -0.037190303 -0.09247918 0.022969497 -0.14271939 -0.06377826 -0.13064502
0.103156455 -0.18246819 0.06720776 0.1384426 -0.06808179 -0.021377778 -0.038600396 -0.0016317618
-0.10406217 0.15924741 0.119515136 0.00037850515 -0.14892939 -0.0015711131 -0.0028579258 -0.068994045
0.011234155 -0.17827316 0.07726229 0.05386273 -0.17544667 -0.023624737 -0.1912237 -0.19005881
0.06538796 -0.13320851 -0.13361199 -0.052661493 -0.08431293 0.15602139 -0.08619692 -0.035815552
-0.15422238 0.18083209 0.041995797 -0.1542363 -0.044411186 0.07406093 0.13947526 -0.050110467
-0.0466763 -0.0727077 -0.0072475215 -0.04338485 0.05245061 0.043925013 -0.04315391 -0.14660063
0.06500209 0.08827031 0.14088833 0.05402819 0.12779549 0.13978557 0.09289816 0.056025993
-0.09869669 0.12363699 -0.11329842 -0.13278943 -0.053909488 -0.13704382 0.046837844 -0.08105577
0.18878406 0.0060727294 0.07146205 0.14611994 -0.042746563 0.12259938 -0.015802385 0.028302433
0.0101696635 0.04680516 -0.04494093 -0.10666847 -0.07179347 -0.1541748 -0.06409855 -0.16841064
0.034433376 -0.083398394 -0.04324428 0.023681596 0.040901575 0.033129588 0.0003068615 -0.17563193
0.14039294 -0.1472179 0.014458057 -0.010034891 -0.18386322 0.0030981023 0.027628478 0.009374707
-0.19306439 0.04740997 0.14680988 -0.00452804 -0.0712205 0.19046359 0.07712815 -0.09922072
0.061820373 -0.117289126 -0.019044004 0.10093808 -0.12489912 -0.029643312 -0.055607546 -0.11647719
0.110711314 0.17978242 0.19669896 -0.16163564 0.19737963 0.18139002 0.1587689 0.07072279
0.0502421 0.18213132 -0.108775385 -0.047046177 0.12464453 -0.0034199234 -0.047231324 -0.090029076

lstm.bias_ih_l1 f4 [256]
00000000: a45f a53d 34fa c53d 0b77 9b3c 0d00 133d
00000010: 43ec e3bc abf7 9a3d 081e 2c3e 5ffb 56bb
00000020: b9a6 083d 0ccd 0b3e e5c9 b03d 4af9 283e
00000030: 8785 0fbd b6f8 c53d 2f60 bbbd f87e 793d
00000040: 5062 a83d 0054 ce3d 955e 2d3d c876 273e
00000050: 2a22 343d 98eb 2d3d 7222 7d3d ec8a 493d
00000060: 082b fd3d 4867 0a3e 46e2 183e 3d83 31bd
00000070: 707a 843d 2a67 123e e8b6 873d f83e cc3c
00000080: 9d25 a73d ca95 813d 912f 223e fc9b a4bd
00000090: 4f38 863d 3c1f f93c 8e4d 61bd 2322 bdbd
000000a0: 923a 3e3d 37c2 313c f61d 9d3d 0551 003d
000000b0: d3ba 193e 5274 083d b7f2 c33d 24c8 95bd
000000c0: d963 f1bc b1f1 f83d 6ec0 003e 5809 013e
000000d0: 3e2b 6c3d d807 ca3c 67a2 bebd a977 843d
000000e0: def4 823c 4654 60bd 70a6 173e 74ae 353e
000000f0: 807e f83c f409 41bd b7cd 963c c5e4 9a3d
00000100: cf90 a13d efc4 8fbd a00a bdbd e92a 10be
00000110: 2c28 6fbd a9f1 75bd b1b4 0dbe 3554 09bd
00000120: 829f 983b 4ed7 39bb 9355 1d3d ed64 113d
00000130: 47a5 3abd 8c9c a83d 4d9c b3bd 31b4 48bd
00000140: 5729 12bb d64a bfbb 931b 973d ac0f 843d
00000150: 2117 91bd ad02 2abd d6fc e6bc 0d00 6abd
00000160: 070f 8d3c 5567 bb3c 3180 c9bc cdc4 103c
00000170: b333 04be f988 bb3d 9e51 663d fa24 43bd
00000180: 9001 823d c009 963d c74a c8bd 0688 923d
00000190: a62d fa3d 03e1 d0bd dff1 4d3d d494 99bd
000001a0: 2582 9f3d 764a 16bc 578e 54bd 6ad3 a2bd
000001b0: 90ca cb3c fccf 193e c19d a9bd 3ef1 6d3d
000001c0: 9547 dc3d ae8c 4abd 51de 813d a667 c83c
000001d0: 5fef 393c 1f61 a2bd 527e 873c c6fc f0bd
000001e0: fcac 19bd a6b9 ab3d 57ae c9bd 979b 703d
000001f0: fe0a 383d f421 203c 623f 98bd ed87 c8bd
00000200: 40b0 f63d 87af 983b f66b 9dbd 8ae3 523b
00000210: 5d82 debd 22d3 c63d 4a33 333c 6855 98bd
00000220: 4a20 c2bd 3df3 003e fe71 c93d 46f1 eabd
00000230: f2eb 01be f14e 1fbe bc81 d1bd 8208 7f3d
00000240: 6a66 bbbd ccd9 17bd 71a1 fa3d b4c8 8abd
00000250: 773d f8ba c533 753c cb00 623c 1e70 dfbd
00000260: b3dc b83c 20f7 fabd 9d74 923d 757c 163e
00000270: dcf1 ebbd c91e df3d 2e59 7dbd 02af f0bd
00000280: 6343 10be 9ca3 103d 9931 d63c 2792 15be
00000290: 6847 01be 8245 6bbd f5ce 2fbd 3f6a ffbd
000002a0: 0c02 8ebd 9d8d ecbd 89f2 6b3c 151b 0dbc
000002b0: 948f 3dbc bd4c de3d f48e d83b d7c6 36bd
000002c0: 92cf fcbb 2476 f53d 00d4 f83d 362b fabd
000002d0: 29a2 113e ae5f 0f3e 93f9 b83d 58a5 433d
000002e0: 777d 06bc 5826 e73d f8f5 35bc 08f4 cdbd
000002f0: 920d b23c ad0a 25bd 87c9 053e 7a52 8ebd
00000300: 9331 42bb 3859 063e 8619 803d f2d5 503d
00000310: bd2b 1f3e 6a5d df3d 0648 5c3d 0d5a aa3d
00000320: f5e8 96bc bff1 113e ab7f 1bbd 4760 913d
00000330: 00fe 91bd d844 69bb f7ea 8cbc f0e1 7c3d
00000340: 7952 103e ea6e 303e 54ae abbd 90dd 1b3e
00000350: ff57 823d a347 df3c 2428 c4bd 74f8 9d3c
00000360: 041a ce3d a552 91bc eb44 52bd debf c4bc
00000370: b6b1 283e 40a4 093d a27f 023e d65b f43d
00000380: 4c7b b23d 3497 0b3e 0415 093e 3776 7a3d
00000390: 2e12 adbc b624 223e 0dac 993d 0b89 5c3c
000003a0: 0f23 d0bb 37b3 a23d 8892 2e3e e910 cfba
000003b0: 43bb 16bd 1ecf f9bc 602d 353e 532e a73d
000003c0: 968d 8ebd 1807 2c3e 1811 263d 72d5 31bc
000003d0: bca4 c33c ca18 883c d663 c3bd 8a60 f83d
000003e0: 2949 80bc 1aa4 563d fe3d 9bbd 2aac 9aba
000003f0: 63c7 083e 3925 8c3d a5ec 35bd a0a9 3e3c
0.080748826 0.09666863 0.018977663 0.03588872 -0.02782262 0.0756677 0.16808331 -0.0032803637
0.033362124 0.13652438 0.08632258 0.16501346 -0.03503945 0.096665785 -0.09149205 0.060912102
0.082218766 0.100746155 0.04232653 0.16353905 0.043977894 0.042461008 0.061800428 0.04920475
0.12361723 0.13515961 0.14930066 -0.04333805 0.064686656 0.14297166 0.066266835 0.02493237
0.08161471 0.06327398 0.15838458 -0.08037564 0.06553709 0.030410402 -0.055005603 -0.09235027
0.046442576 0.010849527 0.0767173 0.031327266 0.15012674 0.033314057 0.095677786 -0.073135644
-0.029466556 0.12155474 0.12573406 0.1260122 0.057658426 0.024661943 -0.093083195 0.06468136
0.015985902 -0.05476787 0.14809585 0.1774233 0.030333757 -0.047128633 0.01840864 0.075631656
0.07888948 -0.07019984 -0.09230542 -0.14078869 -0.05838792 -0.06004492 -0.1383846 -0.03352757
0.0046576867 -0.0028357091 0.038411688 0.03549664 -0.045567777 0.08232984 -0.087700464 -0.04899997
-0.0022302472 -0.0058377786 0.07378306 0.06448302 -0.070844896 -0.041506458 -0.028196733 -0.057128955
0.01721908 0.022876421 -0.02459726 0.008835983 -0.12910347 0.09156985 0.05623018 -0.047642685
0.06347954 0.073260784 -0.09779888 0.07154851 0.12215738 -0.101991676 0.050279494 -0.0749909
0.07788495 -0.009173026 -0.05189356 -0.0795048 0.024876863 0.15020746 -0.08282042 0.058091395
0.10755841 -0.04945057 0.063412316 0.024463486 0.011348574 -0.07928681 0.016539726 -0.11766963
-0.037518486 0.08385019 -0.09847706 0.058742132 0.044932358 0.00977372 -0.07433964 -0.09791551
0.12045336 0.0046595964 -0.076866075 0.003217908 -0.108647086 0.09708239 0.010937521 -0.07438165
-0.09478815 0.12592788 0.098361954 -0.114718005 -0.12687662 -0.15557458 -0.10229823 0.062263973
-0.09150393 -0.03707294 0.12237824 -0.06776562 -0.0018939216 0.014965956 0.013794134 -0.109100565
0.022566175 -0.122541666 0.071511485 0.14695914 -0.115207404 0.10894544 -0.061852627 -0.1175213
-0.14088206 0.03531228 0.026146697 -0.14606534 -0.12624896 -0.057439335 -0.04292198 -0.12471437
-0.06933984 -0.11550448 0.014401087 -0.008612414 -0.011569876 0.108544804 0.006608838 -0.044623222
-0.007715174 0.11985424 0.12149811 -0.12215273 0.14222015 0.14001343 0.090319775 0.047765106
-0.008208624 0.1128661 -0.011106007 -0.10056311 0.021734986 -0.040293384 0.13065158 -0.06949325
-0.00296316 0.13119972 0.06254868 0.050985284 0.15544029 0.10906489 0.053779624 0.08317957
-0.01842163 0.14252375 -0.03796355 0.070984416 -0.07128525 -0.0035594013 -0.017201884 0.06173891
0.14093961 0.1722981 -0.0838286 0.15221238 0.0636444 0.027255839 -0.09577969 0.01928351
0.10063556 -0.017739603 -0.051335257 -0.02401727 0.16474041 0.033603907 0.12744 0.11931579
0.08714923 0.13631898 0.13386923 0.061147895 -0.021126833 0.15834317 0.07503519 0.013460408
-0.0063518356 0.07944339 0.17048085 -0.0015797886 -0.03679968 -0.030494269 0.1769309 0.081631325
-0.06960599 0.16799581 0.040543646 -0.010854112 0.023882262 0.016613383 -0.095405266 0.12127788
-0.015659885 0.052402593 -0.075801834 -0.0011800576 0.1335731 0.06843037 -0.044415135 0.011637121

lstm.bias_hh_l1 f4 [256]
00000000: ef5b 01bd 3e06 e03b a4bc 353e cc80 293e
00000010: 0f54 543d dc34 bd3d 662c 943d 8326 1bbd
00000020: b2e7 423d fac8 8c3c b7b5 683d 994c 66bd
00000030: 2ac4 683d 84f5 52bd d924 933d fdc1 173c
00000040: bf0b de3d 4a9f ff3d 312c b93d f652 60bd
00000050: 4651 753b 8154 f63c d851 4c3d 1b38 cabc
00000060: 17f3 203d 3587 0c3e ef46 893d 827a 0fbc
00000070: dfaa 61bd 5a08 0b3e f2a6 103e cfe2 203c
00000080: 60e2 1a3e e7e7 8dbd bc1f 9ebc 9310 00bd
00000090: db3c 93bd 0448 ee3c 777d 463d 02e5 b73b
000000a0: 9ce5 f93d d3d3 70bd 0bce 043d 906a 4a3d
000000b0: 1af9 3d3b af8b 293d 6e4c 133e 4cbb a8bc
000000c0: 1868 913b 553b 183e 48e8 08bc 5163 e03d
000000d0: 1f15 aa3d ddf2 073e c700 933c d9f5 883d
000000e0: 3f2b e73c 4784 783c 2a57 18bc 3724 603d
000000f0: 6531 033e 10b8 42bd 4994 bebc 4908 c53d
00000100: 517e 853d 461c 1f3d fff7 1d3d c77c 28be
00000110: 3dbf b1bd e695 f93c 4f3a 903d 5697 92bd
00000120: b3f6 e2bd a76b 96bc 0bd9 1f3d c9bb b73d
00000130: 518d 653d 8ded 38bc c3cf 8abd 1306 6dbc
00000140: 3725 00bd 38f5 743d 93f8 413c 8a0e 65bd
00000150: 93e5 8c3c 878f 90bd 5f7e fe3d 475b 89bd
00000160: 8af4 443d c694 ecbc c44f 10be fca7 073c
00000170: 2234 e83d 1eaf 9f3d bb80 da3d df6e 833c
00000180: b6eb f63d f437 043e c937 013d d6af d6bd
00000190: 30a1 0abd f2fc 073d f30c a93c b8c2 f23d
000001a0: 6233 36bb 6bc8 ee3c 578b 493d c195 8e3c
000001b0: 9399 c6bc 09b8 3ebd 6617 c0bd 851c fbbc
000001c0: bda4 ec3d e328 9ebd e004 f73d 8c43 16bd
000001d0: 8b05 0e3e 6b94 da3d 4b22 f63d 1dbf e53d
000001e0: 4417 d73d 48e8 9c3c 6a3c 283d 5564 b53d
000001f0: b5f5 a93d 6340 b8bb 4463 0dbc 53d3 7abc
00000200: 4eda 7a3d a251 f5bc d00c 213e 45d7 06bd
00000210: 943f 52bd 2e3c 32bd 1ed2 7fbd b6a1 cabd
00000220: 88a9 d13d e05b 033e 0fbd 5e3d fe87 be3b
00000230: 1f1b b3bd ded7 17be 063f b6bc cce3 d1bd
00000240: 3065 bdbc f545 b73a 76f7 6e3d 7fca 75bd
00000250: 80bb 02be fc39 7d3d 54f5 04be 184d 14be
00000260: 54d8 fa3d e876 22be 0507 a7bd 4447 b33a
00000270: 1bb5 7c3d 3e50 3ebd 8bae 8ebd eb2d 3b3d
00000280: 673e d53b 462d 1a3c 360b c83b 3c81 233c
00000290: 7d35 78bd ac7c f13d 5299 ff3d fd69 ccbd
000002a0: ac23 303d 7815 133d 7c08 7d3c e566 a33d
000002b0: e469 d8bd 5a8d a7bb 6156 cabd dcb4 12be
000002c0: b551 df3d 997b 01bd 8eed c43d 19c0 59bd
000002d0: 7fca 313e 7b5d 88bc a463 ac3c 3784 4c3a
000002e0: d8ae 30bd a891 19bc 288d e4bd 4428 dd3d
000002f0: b4f3 083e acce d1bd 5a66 723d 5048 8d3c
00000300: 2273 153e 972d 233e c8df 91bc 93aa 17bd
00000310: ec64 253d d96f 8b3b 2e5d 2a3e d9e7 b4bd
00000320: 6dad 293e 308c cc3d b921 4fbc d678 853d
00000330: 2322 783d da78 7d3d 41ab cf3d 498f 84bc
00000340: a4da 213d 7e93 683d b647 533d b4cc 9c3d
00000350: dfd2 483d 5f5b 7fbc 5e45 35bd 15c0 753d
00000360: 041d 163e 2970 ec3c 1d66 d73c 72f7 723d
00000370: f72e 6d3d 3ca6 5b3b 16b7 ca3d 046b 933d
00000380: e094 5b3d d91a 35bd 2b0e 1f3e c03b 74bb
00000390: b66b ec3c c5ed 50bd 2fe7 82bc f25d 2fbd
000003a0: ac03 b8bd b388 ab3d bd72 2b3d 9da7 de3d
000003b0: 40ab ab3c c12b 91bc cba6 963d e2f6 1b3e
000003c0: 4f36 b33d e097 4d3d 30c8 913d 15fd 533d
000003d0: 475e 47bd 3786 69bd 7c47 aebd 76b2 203d
000003e0: 7210 ec3d 9e55 8b3b 6c30 bf3d ac9b 173e
000003f0: 4392 c6bd 1dc2 a7bc 5f46 50bd 0612 0e3e
-0.031581815 0.0068366816 0.17747742 0.16553038 0.051837977 0.09238598 0.07235031 -0.037878525
0.047584243 0.017185677 0.05681392 -0.056225393 0.0568277 -0.051503673 0.071847625 0.009262559
0.10842084 0.12481554 0.09041632 -0.054766618 0.0037432476 0.030069591 0.04988274 -0.024684956
0.03929433 0.13723452 0.06702983 -0.0087572355 -0.055094596 0.13577405 0.14126185 0.0098197
0.15125418 -0.069289975 -0.019302242 -0.031265806 -0.07189342 0.029087074 0.048459496 0.0056120167
0.12201998 -0.05879576 0.03242306 0.049418032 0.0028987587 0.04139298 0.14384624 -0.020597123
0.004437458 0.14866383 -0.008356161 0.10956443 0.0830481 0.13276239 0.017944707 0.06687517
0.028218864 0.015168256 -0.009298125 0.054722037 0.12811811 -0.047538817 -0.023264067 0.09620721
0.065182336 0.038845323 0.038566586 -0.16453849 -0.08679054 0.030466985 0.070423715 -0.07157771
-0.110822104 -0.01836188 0.039025348 0.08971364 0.056042973 -0.011287105 -0.06777909 -0.01446678
-0.03128549 0.05980417 0.01183905 -0.05592207 0.017199313 -0.07058626 0.12426447 -0.06706863
0.048084773 -0.028879534 -0.14092928 0.008279797 0.113380685 0.07797073 0.10669085 0.016044078
0.12056677 0.1291197 0.03154734 -0.10482757 -0.033845127 0.03320021 0.020636057 0.11853546
-0.0027801623 0.029148301 0.04920515 0.017405393 -0.024243152 -0.04656223 -0.09379463 -0.030653248
0.11554859 -0.07722642 0.12061477 -0.03668551 0.13869302 0.1067284 0.120182596 0.112180926
0.105024844 0.01915373 0.04107324 0.088570274 0.08298818 -0.00562291 -0.008629624 -0.015309173
0.061243348 -0.029946152 0.15727544 -0.03292014 -0.051330164 -0.043514423 -0.062456243 -0.09894125
0.10237414 0.12828016 0.05437952 0.0058145514 -0.08745407 -0.1482844 -0.022246849 -0.10248527
-0.023119539 0.0013982641 0.058341466 -0.06000757 -0.12766838 0.061822876 -0.1298421 -0.14482534
0.122482926 -0.15865672 -0.08155636 0.0013677855 0.061696153 -0.046463244 -0.06966885 0.045698088
0.006507683 0.009410208 0.006104852 0.009979542 -0.060597885 0.117913574 0.124804154 -0.09981153
0.04300277 0.035909146 0.015443917 0.0797861 -0.10567072 -0.005113286 -0.09879757 -0.14326805
0.10904256 -0.031612013 0.096156225 -0.053161714 0.17362402 -0.016646137 0.021043606 0.0007801684
-0.043135494 -0.009373106 -0.11159736 0.10798696 0.13374215 -0.10244498 0.05917964 0.017246395
0.14594701 0.1593536 -0.017806903 -0.037027907 0.04037945 0.0042552766 0.16637108 -0.08833284
0.16570063 0.09987676 -0.012642317 0.06517188 0.06057943 0.06188283 0.10140086 -0.016181605
0.039515153 0.056781285 0.05158206 0.076562315 0.049029227 -0.015585749 -0.044255607 0.059997637
0.14659506 0.028862076 0.026293809 0.059318013 0.057906117 0.0033515831 0.09898202 0.07198146
0.053608775 -0.044215057 0.15532748 -0.003726706 0.028859954 -0.051008005 -0.015979378 -0.042814203
-0.08985075 0.08375683 0.04185747 0.108718134 0.020955682 -0.017721059 0.07356032 0.15230897
0.08750593 0.050193667 0.07118261 0.05175503 -0.048673894 -0.057012763 -0.08509728 0.039232694
0.11526574 0.0042521497 0.093354076 0.14805478 -0.09695866 -0.020478303 -0.05084836 0.13874063
